pretrained/blue_agent_episode_50.pt (torch, 248444 bytes, 10 tensors)

cnn.0.weight f4 [5, 5, 3, 3]
0.071515806 -0.122087665 -0.10465872 -0.079108305 -0.05717789 0.008826285 0.056513727 -0.074051514
0.14288281 0.12542193 -0.01923403 -0.1471441 -0.14094305 0.118720576 -0.004901796 -0.07751828
-0.045943696 -0.10374316 0.021363351 -0.118851274 0.13852607 -0.05674269 0.040535092 -0.020440534
0.058151487 0.0010879462 0.08956178 0.10914424 -0.03821686 0.018619072 0.07379976 -0.052317332
0.09462122 0.097515605 -0.08732947 -0.12821212 -0.07750283 -0.14788549 -0.048709724 -0.09942175
-0.14571619 -0.0987246 -0.0068007507 -0.0478305 0.06529024 -0.014453161 0.070616975 -0.11365584
-0.016629072 -0.008743068 -0.12879339 0.08389326 -0.018948864 -0.017215246 -0.04121959 0.13021669
-0.014593844 -0.11286092 -0.018401662 -0.050522096 -0.024188386 -0.14628923 0.023986451 0.06544908
0.14581606 0.108709365 -0.10454775 0.06330859 -0.022403218 -0.10009182 0.09830978 0.0767995
-0.074816965 0.110811666 -0.14789894 -0.025946578 0.09818274 -0.13674642 -0.10725948 0.07319759
-0.0713728 -0.11639907 -0.090488434 0.010783611 0.060301725 -0.14714289 0.006244964 -0.023289463
-0.08148652 0.09380973 -0.12825522 0.022209214 0.0013291872 -0.13723354 -0.0037701228 -0.120119154
-0.08295739 0.0062342435 -0.085488774 -0.084378496 -0.1360565 -0.12002955 -0.14173809 0.08959339
0.06350998 0.1429499 0.10127077 -0.10609643 -0.11046872 -0.030035738 -0.11350134 0.027248187
-0.012788634 -0.0545118 0.07970351 0.06885406 0.019269992 0.07875754 0.14088556 0.055114962
0.08138338 -0.08836463 0.055783816 -0.025164878 0.11505237 -0.020041768 0.054899734 -0.09921673
0.11315914 0.033701826 0.09005217 -0.050961707 0.10819064 0.08040873 0.06989112 -0.057331562
-0.099640496 -0.075449064 0.06403066 -0.012122512 0.08187812 0.071572386 -0.09269446 0.08483875
-0.1364266 -0.06027009 -0.023037443 0.09766878 -0.045440506 0.09290736 0.057342406 0.012863653
-0.025519686 0.031949554 -0.13602018 0.052733913 -0.04024329 -0.1052307 0.058352873 0.0272801
0.11738151 0.14461213 0.14389627 -0.055614144 0.11097711 0.013825423 -0.122784555 -0.08305271
0.0949182 0.030287506 0.13389826 0.015895132 0.039520897 0.06958468 -0.03720893 -0.04342322
-0.07929985 0.1259852 0.13775934 0.12626678 0.10062052 -0.084184974 0.09772201 0.1366549
-0.07629702 -0.14791043 0.13212527 0.13222402 0.019361986 0.07065751 -0.063616164 -0.13897632
-0.03616834 -0.13788013 0.09027136 -0.06480415 0.116716035 0.0035864 0.09842084 -0.009452038
0.015591701 -0.0070868367 0.08914947 -0.06417839 0.09299558 -0.0016568654 0.07118068 0.14790829
-0.0034044941 0.019176358 -0.04208931 0.07359668 0.1501841 -0.00037866068 0.0017014343 -0.019561209
-0.1205186 0.13763322 -0.14596705 -0.13636626 -0.13221356 0.046069033 -0.009885944 0.046597354
-0.004812967
00000000: e176 923d 1909 fabd 5057 d6bd 8903 a2bd
00000010: 5d33 6abd 1f9c 103c f07a 673d 52a8 97bd
00000020: df4f 123e 9b6e 003e af90 9dbc f1ac 16be
00000030: 6053 10be c623 f33d 3f9f a0bb e7c1 9ebd
00000040: 752f 3cbd 4b77 d4bd 3202 af3c 4c68 f3bd
00000050: c7d9 0d3e 066b 68bd 2008 263d e872 a7bc
00000060: 4130 6e3d 6b99 8e3a 2b6c b73d 0487 df3d
00000070: 4889 1cbd 0687 983c 5424 973d b34a 56bd
00000080: c5c8 c13d 43b6 c73d cbd9 b2bd 0a4a 03be
00000090: ceb9 9ebd 4b6f 17be d983 47bd a19d cbbd
000000a0: a036 15be 2030 cabd d5d8 debb eae9 43bd
000000b0: e4b6 853d f3cc 6cbc a29f 903d 65c4 e8bd
000000c0: b139 88bc 163f 0fbc 6ae2 03be 3bd0 ab3d
000000d0: a63a 9bbc fd06 8dbc dfd5 28bd 8657 053e
000000e0: 051b 6fbc a023 e7bd 15bf 96bc 42f0 4ebd
000000f0: b926 c6bc d8cc 15be 3c7f c43c 2b0a 863d
00000100: ce50 153e 04a3 de3d 211d d6bd efa7 813d
00000110: f486 b7bc f1fc ccbd a356 c93d 0e49 9d3d
00000120: a339 99bd 3af1 e23d d272 17be eb8d d4bc
00000130: 0814 c93d 4107 0cbe dcaa dbbd 9ee8 953d
00000140: e72b 92bd a362 eebd 0052 b9bd bead 303c
00000150: f1fe 763d a0ac 16be 8ea2 cc3b 8bc9 bebc
00000160: 68e2 a6bd 511f c03d 5655 03be 19f0 b53c
00000170: 1f38 ae3a f386 0cbe 2a14 77bb 0801 f6bd
00000180: 90e5 a9bd a048 cc3b bd14 afbd a2ce acbd
00000190: 6552 0bbe 0dd2 f5bd ca23 11be bd7c b73d
000001a0: 8511 823d 7561 123e 0d67 cf3d 1649 d9bd
000001b0: 6d3d e2bd 820d f6bc 6473 e8bd 9737 df3c
000001c0: 6b87 51bc c447 5fbd 983b a33d 5b03 8d3d
000001d0: 1adc 9d3c a24b a13d 4e44 103e 3ac0 613d
000001e0: 54ac a63d 84f8 b4bd 927d 643d 9326 cebc
000001f0: 94a0 eb3d a22e a4bc 8bde 603d 2432 cbbd
00000200: fbbf e73d ed0a 0a3d 466d b83d 39bd 50bd
00000210: 0e93 dd3d 55ad a43d 1323 8f3d 80d4 6abd
00000220: 5110 ccbd 0a85 9abd 8222 833d 809d 46bc
00000230: b7af a73d 8b94 923d 98d6 bdbd f0bf ad3d
00000240: 6ab3 0bbe c5dd 76bd 05b9 bcbc 9206 c83d
00000250: d31f 3abd 3746 be3d dfdf 6a3d 12c2 523c
00000260: a90e d1bc 89dd 023d e048 0bbe 84ff 573d
00000270: 26d6 24bd 3183 d7bd 6c03 6f3d 847a df3c
00000280: b865 f03d 3415 143e 8b59 133e a8cb 63bd
00000290: f847 e33d 0784 623c 7876 fbbd 8a17 aabd
000002a0: 7964 c23d 811d f83c a01c 093e 8236 823c
000002b0: aae0 213d 6a82 8e3d 6468 18bd 8cdc 31bd
000002c0: f667 a2bd 4402 013e c910 0d3e 144c 013e
000002d0: 2212 ce3d 2c69 acbd 7a22 c83d 43ef 0b3e
000002e0: 9d41 9cbd d575 17be d94b 073e bc65 073e
000002f0: 079d 9e3c e2b4 903d 3149 82bd cf4f 0ebe
00000300: 4125 14bd 7330 0dbe 31e0 b83d 0ab8 84bd
00000310: d108 ef3d cf09 6b3b de90 c93d b9dc 1abc
00000320: 5574 7f3c b238 e8bb ff93 b63d f66f 83bd
00000330: 7774 be3d 2d2b d9ba 2dc7 913d 4575 173e
00000340: ef1d 5fbb bd17 9d3c d765 2cbd dbb9 963d
00000350: dcc9 193e fa86 c6b9 a902 df3a d43e a0bc
00000360: 75d2 f6bd b9ef 0c3e 6378 15be 99a3 0bbe
00000370: fe62 07be e2b2 3c3d a8f8 21bc dedc 3e3d
00000380: 18b6 9dbb

cnn.0.bias f4 [5]
0.022907104 0.10845755 0.04145474 -0.043433994 -0.1226344
00000000: aea7 bb3c fe1e de3d 72cc 293d d8e7 31bd
00000010: bf27 fbbd

cnn.2.weight f4 [5, 5, 3, 3]
-0.038826153 -0.114956796 0.11737295 -0.0036858486 0.06731419 0.07297339 0.023218876 -0.12166691
0.019692607 -0.14775747 -0.0753262 0.12302941 0.02945968 -0.05666809 0.12759602 -0.025854213
0.14565761 0.1341571 -0.095936336 0.028418835 -0.050466307 0.08283997 -0.14329448 -0.016872922
0.08503305 -0.10610195 -0.09826829 -0.089707844 0.06368675 -0.068501584 -0.07581492 0.071403004
0.0046145776 -0.060338948 0.017164664 0.118786275 -0.08485619 0.07028032 -0.031383347 0.10789353
0.10416824 -0.13830985 0.045563813 -0.10784522 -0.04799098 -0.05116935 0.04719584 0.010508822
-0.13954368 0.07271393 0.061766308 -0.05893671 -0.1332158 0.10724713 -0.14608906 -0.13560018
0.01281366 -0.08839804 0.029085176 -0.14139208 -0.09746229 0.1254755 0.13318615 0.1109782
-0.10076811 0.083219275 -0.13387254 0.08158436 -0.104256056 0.011682369 -0.053158328 0.0092331
0.035464432 0.055834915 -0.13393494 -0.14201091 -0.09255685 -0.11850587 -0.004736838 -0.066225715
0.005770154 -0.03126762 0.05343103 0.048271075 0.10912036 0.14813927 -0.07254096 -0.005904265
0.01905539 0.124515034 0.02307548 0.13244571 -0.012277353 0.09363147 -0.10195288 0.021593364
-0.11066346 -0.1393469 0.0048647816 -0.13080183 -0.048231013 0.064004004 0.09145782 -0.1191565
0.08841412 0.06884888 -0.13065113 -0.031194434 -0.08121967 -0.12462441 -0.05103152 0.039599184
0.039991517 -0.13958234 0.026959335 0.048962638 -0.13851352 -0.0064143096 0.014854647 -0.11837372
-0.03959527 0.1274633 0.08225153 0.055235256 -0.028031658 0.13731486 -0.052768003 -0.11462967
0.12761097 0.042606782 -0.07820591 0.07314248 0.14090593 0.089485615 0.09045708 -0.045041967
-0.043131035 -0.12073096 0.10301306 0.07564633 0.06274077 -0.024645075 0.060711797 -0.08098522
0.038771547 0.04578973 -0.14240953 0.0397188 -0.11677863 -0.1393479 0.07075366 0.084843636
0.10959392 0.020347845 -0.079134025 0.029746247 -0.0039144284 0.09964666 -0.02647082 0.11337302
-0.0968976 -0.14030965 0.044996865 0.01873044 0.12004973 0.03667931 0.12160552 -0.07104597
-0.050975583 -0.07094843 0.014502029 -0.12719256 0.120351054 0.14488667 0.007082556 -0.027636956
0.118593976 0.07939829 -0.07696441 -0.026959194 0.06427945 -0.09831132 -0.05824587 -0.13084893
0.07806117 -0.12987651 -0.028117513 0.1368794 0.101851076 0.13989918 0.029666446 0.048801675
-0.006036425 -0.07633891 0.10785919 -0.0057844273 -0.056185402 -0.11812561 0.06997038 -0.0142423455
0.08182552 0.08647634 0.088664934 -0.12011675 0.05990904 -0.007161862 -0.019203454 0.010579428
0.09559345 -0.101536356 0.05961298 0.09365503 0.08127151 0.092527494 -0.10768959 -0.08017019
0.021820918 -0.0217385 0.028384235 0.1386199 0.1047252 0.025251368 0.0037067498 -0.14505792
0.0059349746
00000000: 2c08 1fbd 786e ebbd 3b61 f03d 478e 71bb
00000010: 06dc 893d 1373 953d 8335 be3c 802c f9bd
00000020: 6452 a13c bc4d 17be 9f44 9abd d8f6 fb3d
00000030: 6d55 f13c cd1c 68bd 88a8 023e 37cc d3bc
00000040: 4527 153e 7b60 093e 457a c4bd 9ece e83c
00000050: c2b5 4ebd 01a8 a93d cabb 12be 1539 8abc
00000060: cf25 ae3d fb4b d9bd e340 c9bd bfb8 b7bd
00000070: 336e 823d 8f4a 8cbd da44 9bbd bd3b 923d
00000080: e235 973b f925 77bd e99c 8c3c 3846 f33d
00000090: 15c9 adbd 21ef 8f3d d38b 00bd 48f7 dc3d
000000a0: 2956 d53d 19a1 0dbe 1fa1 3a3d f4dd dcbd
000000b0: 3192 44bd f496 51bd 6d50 413d 322d 2c3c
000000c0: 8ae4 0ebe 0aeb 943d abfe 7c3d 9f67 71bd
000000d0: b969 08be 62a4 db3d 5f98 15be c6da 0abe
000000e0: 63f0 513c 080a b5bd 0944 ee3c 16c9 10be
000000f0: 4f9a c7bd a67c 003e f361 083e 8a48 e33d
00000100: 835f cebd de6e aa3d e215 09be b315 a73d
00000110: 3384 d5bd 6867 3f3c 8cbc 59bd 6e46 173c
00000120: 2743 113d 27b3 643d 3e26 09be 4f6b 11be
00000130: 728e bdbd 35b3 f2bd 7a37 9bbb 59a1 87bd
00000140: 8f13 bd3b 7a12 00bd 7fda 5a3d e4b7 453d
00000150: 7f7a df3d d2b1 173e 5b90 94bd 9178 c1bb
00000160: 0d1a 9c3c bd01 ff3d ca08 bd3c d99f 073e
00000170: f326 49bc dbc1 bf3d accc d0bd 91e4 b03c
00000180: 86a3 e2bd f4b0 0ebe bf68 9f3b eaf0 05be
00000190: e28d 45bd 8814 833d 3d4e bb3d 5308 f4bd
000001a0: 7612 b53d a400 8d3d 69c9 05be 788b ffbc
000001b0: 8056 a6bd 153b ffbd 6d06 51bd c132 223d
000001c0: 25ce 233d acee 0ebe d3d9 dc3c 0c8d 483d
000001d0: 7dd6 0dbe 212f d2bb e860 733c ec6d f2bd
000001e0: a62e 22bd bd85 023e 7d73 a83d 5d3e 623d
000001f0: a6a2 e5bc 449c 0c3e 4323 58bd f6c2 eabd
00000200: 73ac 023e 7384 2e3d 6c2a a0bd b9cb 953d
00000210: a549 103e 3c44 b73d 9041 b93d ed7d 38bd
00000220: 2baa 30bd cb41 f7bd 83f8 d23d 77ec 9a3d
00000230: 3c7e 803d 78e4 c9bc efac 783d 94db a5bd
00000240: eace 1e3d 038e 3b3d ced3 11be 2eb0 223d
00000250: a229 efbd 37b1 0ebe 4be7 903d 80c2 ad3d
00000260: c772 e03d 86b0 a63c 0511 a2bd 67ae f33c
00000270: 9b44 80bb 8c13 cc3d 55d9 d8bc 1d30 e83d
00000280: 4072 c6bd 55ad 0fbe a24e 383d 9470 993c
00000290: a2dc f53d 0b3d 163d 510c f93d 8d80 91bd
000002a0: c6cb 50bd 694d 91bd eb99 6d3c c43e 02be
000002b0: 9d7a f63d 2c5d 143e c914 e83b e666 e2bc
000002c0: 66e1 f23d 929b a23d 849f 9dbd 87d9 dcbc
000002d0: f2a4 833d 7257 c9bd 3993 6ebd 43fd 05be
000002e0: 89de 9f3d 59fe 04be b356 e6bc 1d2a 0c3e
000002f0: 4c97 d03d bb41 0f3e 0c07 f33c 44e4 473d
00000300: 34cd c5bb 9357 9cbd 47e5 dc3d 4b8b bdbb
00000310: aa22 66bd d7eb f1bd a14c 8f3d ba58 69bc
00000320: 2394 a73d 821a b13d f695 b53d c5ff f5bd
00000330: 2e63 753d 0eae eabb 9050 9dbc 5655 2d3c
00000340: 80c6 c33d 4bf2 cfbd bd2c 743d 35ce bf3d
00000350: ad71 a63d 0e7f bd3d 5c8c dcbd 4530 a4bd
00000360: c8c1 b23c f014 b2bc 0e86 e83c 60f2 0d3e
00000370: 2a7a d63d f5db ce3c f1ec 723b 108a 14be
00000380: 2d7a c23b

cnn.2.bias f4 [5]
-0.07820979 0.13532804 0.086118415 -0.10887416 -0.035267215
00000000: 742c a0bd 6f93 0a3e da5e b03d 6af9 debd
00000010: 5b74 10bd

network.0.weight f4 [120, 405]
-0.004779678 0.024299957 -0.011057193 -0.014411169 0.018936194 -0.043574 -0.032377794 -0.048422616
-0.004460115 0.031132245 0.033183694 -0.03266433 -0.022781027 0.009426104 -0.030716583 0.018845305
0.041528083 0.04310998 0.02999217 -0.008032591 -0.036692955 -0.047221627 -0.00644631 -0.033882074
-0.039342508 0.02135928 -0.04859739 0.04221295 0.006079026 0.039078176 -0.024075076 0.04932637
-0.03197673 0.027736805 0.030649053 0.045791365 -0.03141753 -0.009271875 -0.01940161 0.02703854
0.040551603 0.003989776 -0.018098962 0.041162737 -0.03296933 0.025908161 0.035849098 -0.04273721
-0.00045515425 0.006155548 0.024237568 0.04112473 0.008577203 0.005257882 0.009166332 -0.04097339
0.044953708 0.00780732 0.04934298 0.023866389 0.019772518 0.0046908245 0.038765997 0.028728943
-0.0010493586 -0.038343165 -0.0059393747 0.026926847 -0.03699444 -0.006052773 0.028688388 0.027213525
-0.022152647 -0.017321944 0.005452734 0.003928651 0.013704989 0.040639054 0.04544975 0.04301199
0.0152291255 0.039927248 0.013828596 0.011401979 -0.036555022 -0.026669417 -0.021205248 -0.03692584
-0.02849143 -0.036057144 0.016656302 -0.02863566 0.020338008 0.0070506427 0.008529106 0.032118727
0.023259837 0.0037723363 -0.049549934 0.0076111252 -0.041124076 -0.03644356 0.03308363 -0.029794753
0.016558092 -0.026455516 0.026377311 0.04120994 0.0050152135 0.00989096 0.03866965 -0.0034727189
-0.0015622596 0.015616424 -0.043574303 0.022025181 -0.025260398 0.03092411 0.049890447 -0.03221583
0.012461392 0.03743608 0.036078233 -0.025494287 -0.006946097 -0.038495455 -0.04099277 0.04011805
0.0037805343 -0.022137659 0.013565381 -0.031996172 -0.048743393 0.004166711 -0.034264244 -0.03569167
0.014788205 0.0064098868 0.018219108 -0.041335057 0.0036299373 -0.02846384 0.010929383 0.015160423
0.009678162 0.021639088 0.022262484 -0.026970042 -0.0199875 -0.031355005 0.020083651 -0.030289818
0.013501731 -0.020332223 -0.01279234 -0.0069442405 -0.032361444 0.038094543 -0.0048920484 0.048376877
0.0010071594 0.019329814 0.025162477 0.032631002 0.048189133 0.016837848 0.041821767 0.0039073545
-0.026508693 -0.025093002 -0.028040498 0.018380793 -0.023059843 0.0053444845 -0.010750962 -0.016152836
0.020028658 -0.026626762 0.048421077 0.015505678 -0.023162095 0.020557877 0.04002921 -0.024201835
0.024102826 0.019148553 -0.038882904 -0.022693424 0.01560556 -0.04113979 0.040105704 -0.04331462
-0.012031341 0.026631154 -0.002939963 0.03144815 -0.047311004 -0.0016928124 -0.042187713 -0.028753158
-0.033916153 0.04518305 -0.028058074 0.046117254 -0.038910717 -0.033322353 0.02019135 0.038580418
0.017663201 -0.020780738 -0.038772736 0.04648075 0.01412911 0.048538152 -0.013795242 0.04607025
0.0041411133 -0.040522195 -0.039456222 0.0008292976 -0.04211817 0.028963365 1.55651e-05 0.030132711
0.024536138 0.0012173025 -0.021508828 -0.04757108 0.002881258 -0.025665117 0.02881882 -0.0093244985
0.025108216 0.02428646 -0.038186368 0.006868503 0.010008137 0.04730419 -0.0031817215 0.034043465
0.0034114488 0.02262052 -0.03710811 -0.015077389 0.029504308 -0.015909186 -0.038064774 0.019869514
-0.045461364 -0.04236199 0.048318863 -0.031028371 0.006259917 0.018331217 0.005899145 -0.048375163
00000000: d89e 9cbb b410 c73c 3b29 35bc d31c 6cbc
00000010: 1420 9b3c a77a 32bd 949e 04bd cb56 46bd
00000020: 2826 92bb 0d09 ff3c a0eb 073d 08cb 05bd
00000030: 479f babc f26f 1a3c 58a1 fbbc 7861 9a3c
00000040: 5a19 2a3d 1794 303d 24b2 f53c 219b 03bc
00000050: 5a4b 16bd 776b 41bd 913b d3bb eec7 0abd
00000060: 9c25 21bd a8f9 ae3c 0f0e 47bd 7ce7 2c3d
00000070: 9132 c73b 7010 203d 1839 c5bc 730a 4a3d
00000080: 08fa 02bd 4c38 e33c b913 fb3c ba8f 3b3d
00000090: abaf 00bd 10e9 17bc 20f0 9ebc ee7f dd3c
000000a0: 7019 263d abbc 823b 4644 94bc 429a 283d
000000b0: d90a 07bd 5a3d d43c 81d6 123d 360d 2fbd
000000c0: c5a1 eeb9 7bb4 c93b dd8d c63c 6872 283d
000000d0: 6687 0c3c 504a ac3b 622e 163c b7d3 27bd
000000e0: 6121 383d 8cd4 ff3b dd1b 4a3d 7283 c33c
000000f0: faf9 a13c 7db5 993b 18c9 1e3d f658 eb3c
00000100: a28a 89ba b90d 1dbd 169f c2bb b195 dc3c
00000110: 7b87 17bd 5756 c6bb e903 eb3c e6ee de3c
00000120: 7879 b5bc c0e6 8dbc d9ac b23b eabb 803b
00000130: e48a 603c 2375 263d 8429 3a3d 572d 303d
00000140: 9583 793c c18a 233d 5691 623c 5ecf 3a3c
00000150: b8ba 15bd d279 dabc a1b6 adbc 8d3f 17bd
00000160: dc66 e9bc a8b0 13bd cc72 883c 5595 eabc
00000170: e59b a63c 1409 e73b aabd 0b3c ed8e 033d
00000180: 6a8b be3c 4d39 773b dff4 4abd bf66 f93b
00000190: b871 28bd d845 15bd b382 073d 2014 f4bc
000001a0: d6a4 873c 3db9 d8bc 3b15 d83c c1cb 283d
000001b0: a956 a43b b10d 223c 1164 1e3d 8e96 63bb
000001c0: bcc4 ccba 08dc 7f3c f87a 32bd 276e b43c
000001d0: e5ee cebc 8f54 fd3c ed59 4c3d bff4 03bd
000001e0: de2a 4c3c 9356 193d c5c6 133d 65d9 d0bc
000001f0: 169c e3bb 69ad 1dbd 09e8 27bd d352 243d
00000200: d7c2 773b 095a b5bc 5541 5e3c 6b0e 03bd
00000210: 27a7 47bd e888 883b aa58 0cbd 6e31 12bd
00000220: 3a4a 723c 070a d23b 3d40 953c f34e 29bd
00000230: 3ee4 6d3b 002d e9bc 2811 333c 6c63 783c
00000240: 2791 1e3c 7544 b13c d05f b63c 47f0 dcbc
00000250: d3bc a3bc 1b6e 00bd 7886 a43c 5a22 f8bc
00000260: 5d36 5d3c c38f a6bc f696 51bc 838c e3bb
00000270: 6f8d 04bd 0609 1c3d 7a4d a0bb d526 463d
00000280: a902 843a 8f59 9e3c 8a21 ce3c 16a8 053d
00000290: f861 453d 87ef 893c 4d4d 2b3d 4409 803b
000002a0: c228 d9bc d78f cdbc 30b5 e5bc 5193 963c
000002b0: ffe7 bcbc c920 af3b ce24 30bc f452 84bc
000002c0: 2413 a43c 5e20 dabc 2e55 463d 870b 7e3c
000002d0: 6fbe bdbc fe68 a83c abf5 233d ed42 c6bc
000002e0: 4a73 c53c 6ddd 9c3c ae43 1fbd 8fe7 b9bc
000002f0: 76ae 7f3c 3282 28bd e145 243d ac6a 31bd
00000300: 1a1f 45bc 9429 da3c 65ac 40bb c6cf 003d
00000310: 2fc9 41bd 5ce1 ddba 06cd 2cbd be8b ebbc
00000320: aaeb 0abd dd11 393d 0cda e5bc 72e5 3c3d
00000330: d860 1fbd 057d 08bd 5468 a53c 8006 1e3d
00000340: 6bb2 903c 5e3c aabc 29d0 1ebd 9962 3e3d
00000350: c87d 673c f1cf 463d 7005 62bc 29b4 3c3d
00000360: 2db2 873b 9afa 25bd d99c 21bd 3865 593a
00000370: 1a84 2cbd 9444 ed3c cc91 8237 e0d8 f63c
00000380: 0300 c93c e58d 9f3a 4833 b0bc e5d9 42bd
00000390: 7dd3 3c3b a73f d2bc 7215 ec3c c8c5 18bc
000003a0: bfaf cd3c 66f4 c63c 4f69 1cbd 2e11 e13b
000003b0: 2bf9 233c 0ac2 413d 6e84 50bb 2971 0b3d
000003c0: 9d92 5f3b ab4e b93c acfe 17bd 2707 77bc
000003d0: 05b3 f13c fb53 82bc cfe9 1bbd 64c5 a23c
000003e0: b235 3abd c483 2dbd 00ea 453d 362f febc
000003f0: fd1f cd3b 592b 963c 9d4d c13b 0925 46bd

network.0.bias f4 [120]
0.016963165 0.024526853 0.02291319 -0.00047041342 0.022351595 -0.010835575 0.006697566 0.024683353
-0.013637399 0.02969722 -0.010553037 0.023157082 0.008904445 0.0015416157 -0.02725561 -0.044804174
0.025053034 0.02227258 0.013070311 0.029054351 0.01758561 0.050721858 -0.040582724 0.04069208
-0.014834677 -0.012096727 0.025657102 -0.010593102 0.031267423 -0.010455167 -0.026965085 -0.0386521
-0.03212656 -0.016182758 0.045555532 -0.024996892 -0.024733843 0.03879197 -0.0003253293 -0.033448834
-0.018340813 0.018590963 -0.018153591 -0.0020994002 -0.030161802 -0.04407131 0.018211056 0.013701566
0.010609664 -0.031438522 -0.026448028 -0.034574166 -0.017096793 0.047819387 -0.027119711 -0.025837636
-0.025184454 -0.035358094 -0.04582209 -0.0028690812 -0.035611674 -0.009221962 0.032749537 0.03282702
-0.007892761 -0.050098892 -0.009974925 -0.027177565 0.009362967 0.0053087897 -0.04820928 -0.03282829
0.01289221 -0.023982175 -0.030907579 -0.011725806 -0.016531982 0.011325045 -0.04057257 -0.026339669
0.00032474945 0.009572168 -0.025496406 -0.015161555 -0.004133898 -0.004482548 -0.009398184 0.029946472
0.011974322 -0.012768092 -0.042151857 -0.008558226 0.00061052473 -0.04546 -0.0006879162 -0.049542975
-0.00048236773 0.017655613 0.041542597 0.021520017 -0.02703074 -0.012982483 0.037301708 0.046075013
-0.043016758 0.041801326 0.027873976 -0.045374468 -0.04473588 -0.0025466583 0.044936456 -0.04702336
0.042109694 0.01558747 0.01354843 0.006924528 0.0008491994 0.02325954 0.004171086 0.02993042
00000000: 56f6 8a3c 8aec c83c 71b4 bb3c d2a1 f6b9
00000010: b11a b73c b287 31bc 4177 db3b be34 ca3c
00000020: 666f 5fbc 9647 f33c a5e6 2cbc ecb3 bd3c
00000030: f3e3 113c 0a10 ca3a 2847 dfbc 9584 37bd
00000040: 053c cd3c fc74 b63c dc24 563c 6403 ee3c
00000050: b20f 903c b9c1 4f3d 123a 26bd bdac 263d
00000060: 250d 73bc 5a31 46bc d82e d23c b18e 2dbc
00000070: 4512 003d 264c 2bbc e2e5 dcbc aa51 1ebd
00000080: 2497 03bd b491 84bc 7098 3a3d 48c6 ccbc
00000090: a19e cabc 54e4 1e3d f690 aab9 a501 09bd
000000a0: 793f 96bc 134c 983c d7b6 94bc 1796 09bb
000000b0: e215 f7bc 1e84 34bd 5a2f 953c 887c 603c
000000c0: 28d4 2d3c aec5 00bd 89a9 d8bc a49d 0dbd
000000d0: 930e 8cbc 43de 433d 282a debc 73a9 d3bc
000000e0: a14f cebc a6d3 10bd f2af 3bbd 3207 3cbb
000000f0: 8cdd 11bd b617 17bc 6124 063d a075 063d
00000100: a450 01bc 7f34 4dbd de6d 23bc 7ca3 debc
00000110: 2167 193c 5bf5 ad3b 1877 45bd f576 06bd
00000120: d939 533c 4476 c4bc e431 fdbc 981d 40bc
00000130: 146e 87bc ae8c 393c 6c2f 26bd 4ac6 d7bc
00000140: 2243 aa39 95d4 1c3c d7dd d0bc 2c68 78bc
00000150: a675 87bb 57e2 92bb d7fa 19bc 4e52 f53c
00000160: f22f 443c 4231 51bc 6da7 2cbd cd37 0cbc
00000170: 9f0b 203a 4434 3abd 4655 34ba 93ed 4abd
00000180: 4de6 fcb9 81a2 903c 9228 2a3d bf4a b03c
00000190: 926f ddbc 7bb4 54bc adc9 183d 27b9 3c3d
000001a0: 5732 30bd de37 2b3d f757 e43c 94da 39bd
000001b0: f83c 37bd d6e5 26bb 4a0f 383d 919b 40bd
000001c0: 377b 2c3d 9662 7f3c 3cfa 5d3c 27e7 e23b
000001d0: cf9c 5e3a ca8a be3c 9bad 883b a430 f53c

network.2.weight f4 [84, 120]
0.030492064 -0.009183373 0.052223444 -0.080867246 -0.04712964 -0.08966333 -0.0013856938 -0.07404863
-0.018864762 0.049342114 0.00075133366 -0.038119566 0.03771777 0.020193389 -0.007166834 -0.07208623
-0.0045901085 -0.034680746 0.002941325 -0.0020310231 0.0543703 -0.0020140903 0.020650608 0.015187502
-0.06515999 -0.07730802 -0.026648512 0.03026062 -0.010839143 0.047139097 0.004990489 -0.054637916
-0.08399064 0.03806905 0.07837576 0.03249978 -0.061694033 0.0449731 0.07338641 -0.07678517
-0.0835724 0.015097701 -0.027629407 0.07282223 -0.05800032 -0.0032109441 -0.09013366 0.08175319
-0.08738568 -0.017267266 0.019833937 -0.024628252 -0.0086311195 -0.039173037 0.018575402 -0.013897768
-0.045003746 -0.07906565 -0.034160968 0.042923108 0.08252636 -0.07026197 0.0037773554 -0.00041584414
0.046162914 -0.057375655 0.04008941 -0.012672936 0.021807088 -0.03062066 0.06603372 -0.072626896
0.08043888 -0.008646257 -0.07187732 0.06480481 0.067504264 -0.08019725 0.037708174 -0.05206317
0.020317262 0.07790058 -0.07630274 0.057141688 -0.04430165 -0.027958758 -0.07764383 -0.060247768
-0.0638503 -0.033057973 -0.08048381 0.042789824 -0.032888524 0.08378488 -0.010134429 0.049379013
0.0041185147 -0.08172486 -0.050229084 -0.030620812 -0.046415437 -0.004010519 -0.014156407 0.050454497
0.0019902908 0.06302958 -0.0452039 -0.013763774 -0.056786858 -0.023934072 0.05344932 -0.071001746
0.025328156 0.08400414 0.026001627 -0.021868225 0.08773378 -0.084283434 -0.012096557 0.08165048
0.030075701 0.053174533 0.04825393 0.06349848 -0.024976103 -0.085499704 0.07371039 -0.04200334
0.06509849 -0.0074104914 0.062234875 -0.038190648 0.067819946 -0.038458746 0.0037682564 0.051587157
-0.059497353 -0.025184568 -0.07539783 -0.05115922 -0.042555477 -0.0697466 0.08754101 -0.016770136
-0.004567915 -0.032924153 0.004717535 0.0135357985 0.06127943 -0.021866057 -0.0725468 0.04661766
0.015529643 0.012904292 0.016196609 0.08693782 -0.08221629 0.09082283 -0.02534668 0.030240452
0.034961503 0.0073459577 -0.016669935 0.052513596 0.03332761 -0.019531012 -0.0462107 -0.07093076
-0.030023672 0.031404845 -0.022849295 -0.0316108 0.0039973813 0.03579081 0.03365463 -0.029135386
0.02970734 0.0101236105 -0.028462576 -0.084783725 0.033309687 0.079621874 -0.045189563 0.0145996995
0.014312848 -0.08610658 0.083261766 0.06713681 -0.032912333 0.04526326 0.05334023 -0.07948728
0.021643417 -0.034736034 -0.08188268 0.0034368844 -0.08054168 0.06752505 -0.03340235 -0.06330958
0.0063296305 -0.050878063 -0.061653197 -0.06771037 -0.024973407 -0.01420304 -0.08273604 -0.02883885
-0.03807798 0.079955645 -0.00066725654 -0.0009199258 0.026946181 -0.019474577 0.019529544 -0.07049739
-0.08755279 0.021527434 0.082644805 -0.051321078 -0.0028008728 0.022382194 0.08465907 0.02709129
-0.005192183 0.010511571 0.0746371 0.07553356 0.07676086 -0.017224526 -0.009547458 -0.08308589
0.060435284 0.08174736 -0.0884988 0.0022405866 -0.011547714 0.0048176586 0.042356674 0.07668622
0.018925222 -0.020398773 -0.038719676 -0.015058931 0.05450311 0.08299992 0.010911111 0.063952215
-0.013972731 0.029650817 -0.023035515 -0.0032868534 0.07918794 0.002734725 0.012095197 0.06594553
00000000: 7eca f93c dc75 16bc 40e8 553d ba9d a5bd
00000010: 020b 41bd 68a1 b7bd 2ba0 b5ba cfa6 97bd
00000020: 468a 9abc f51a 4a3d 26f5 443a 4323 1cbd
00000030: f37d 1a3d 9b6c a53c c3d7 eabb f2a1 93bd
00000040: 9f68 96bb 660d 0ebd 3fc3 403b ea1a 05bb
00000050: 64b3 5e3d d4fe 03bb 772b a93c 00d5 783c
00000060: 9a72 85bd ab53 9ebd fb4d dabc 1fe5 f73c
00000070: a996 31bc ed14 413d 4287 a33b 02cc 5fbd
00000080: 4903 acbd 4bee 1b3d 7883 a03d 7d1e 053d
00000090: e2b2 7cbd b735 383d 9d4b 963d 8b41 9dbd
000000a0: 0228 abbd 595c 773c 1157 e2bc d223 953d
000000b0: be91 6dbd b46e 52bb ff97 b8bd 376e a73d
000000c0: 43f7 b2bd 1574 8dbc c87a a23c 30c1 c9bc
000000d0: 8a69 0dbc e873 20bd 712b 983c 77b3 63bc
000000e0: d955 38bd 2ced a1bd 5fec 0bbd 24d0 2f3d
000000f0: 9503 a93d 82e5 8fbd 828d 773b a805 dab9
00000100: 5315 3d3d bc02 6bbd cb34 243d 25a2 4fbc
00000110: c7a4 b23c 2ed8 fabc b03c 873d 69bd 94bd
00000120: 24bd a43d 08a9 0dbc 6b34 93bd 62b8 843d
00000130: ad3f 8a3d 753e a4bd e373 1a3d 3140 55bd
00000140: 6370 a63c 578a 9f3d 9c44 9cbd 670d 6a3d
00000150: a675 35bd c409 e5bc ba03 9fbd 5dc6 76bd
00000160: f2c3 82bd cc67 07bd b2d4 a4bd 6244 2f3d
00000170: 1eb6 06bd 6897 ab3d e00a 26bc a641 4a3d
00000180: 9bf4 863b 5d5f a7bd 03bd 4dbd 7fd8 fabc
00000190: 1d1e 3ebd ac6a 83bb 46f0 67bc 60a9 4e3d
000001a0: 8a6f 023b a715 813d ba27 39bd 7481 61bc
000001b0: 5699 68bd 6311 c4bc aded 5a3d 5d69 91bd
000001c0: fe7c cf3c 5d0a ac3d 5d01 d53c fe24 b3bc
000001d0: c5ad b33d cb9c acbd a330 46bc 5e38 a73d
000001e0: 5161 f63c 8acd 593d eaa5 453d 7e0b 823d
000001f0: af9a ccbc 781a afbd 79f5 963d b20b 2cbd
00000200: 5b52 853d b5d3 f2bb ffe9 7e3d cc6d 1cbd
00000210: 2fe5 8a3d eb86 1dbd daf4 763b 0e4d 533d
00000220: 7fb3 73bd de4f cebc 2d6a 9abd 558c 51bd
00000230: a74e 2ebd 4ed7 8ebd b348 b33d 8661 89bc
00000240: 73ae 95bb 7adb 06bd 8d95 9a3b 41c5 5d3c
00000250: 2400 7b3d 7220 b3bc 6b93 94bd 29f2 3e3d
00000260: 0b70 7e3c 866c 533c c0ae 843c 750c b23d
00000270: 0461 a8bd 5201 ba3d d7a3 cfbc d3ba f73c
00000280: cb33 0f3d 5cb6 f03b 638f 88bc 7f18 573d
00000290: 8882 083d 80ff 9fbc 6e47 3dbd 2544 91bd
000002a0: 34f4 f5bc 5ea2 003d 722e bbbc 547a 01bd
000002b0: 77fc 823b 6299 123d 70d9 093d 55ad eebc
000002c0: cf5c f33c 80dd 253c 592a e9bc 17a3 adbd
000002d0: bd6f 083d cb10 a33d b118 39bd 9433 6f3c
000002e0: 7080 6a3c a658 b0bd 2585 aa3d 067f 893d
000002f0: 15cf 06bd f865 393d 497b 5a3d 3aca a2bd
00000300: 894d b13c 5f47 0ebd 1bb2 a7bd 5a3d 613b
00000310: 09f3 a4bd 934a 8a3d e7d0 08bd 74a8 81bd
00000320: ca68 cf3b 8465 50bd 1088 7cbd bcab 8abd
00000330: 0895 ccbc deb3 68bc 8371 a9bd 743f ecbc
00000340: a8f7 1bbd c9bf a33d d4ea 2eba 2d27 71ba
00000350: 3dbe dc3c 2689 9fbc 6cfc 9f3c f060 90bd
00000360: e14e b3bd 4d5a b03c ae41 a93d 0d36 52bd
00000370: d98e 37bb dd5a b73c bc61 ad3d 8eee dd3c
00000380: 3023 aabb b938 2c3c 56db 983d 57b1 9a3d
00000390: cc34 9d3d 731a 8dbc f16c 1cbc ef28 aabd
000003a0: fd8a 773d 296b a73d dc3e b5bd ced6 123b
000003b0: 9f32 3dbc 73dd 9d3b 317e 2d3d aa0d 9d3d
000003c0: 1109 9b3c 541b a7bc 8698 1ebd bcb9 76bc
000003d0: a73e 5f3d ddfb a93d 84c4 323c 61f9 823d
000003e0: e2ed 64bc 45e6 f23c fab4 bcbc 4068 57bb
000003f0: 492d a23d 1239 333b ef2a 463c 730e 873d

network.2.bias f4 [84]
-0.05627008 -0.016190365 0.0076124533 0.049761586 0.06596476 -0.080291666 0.04467434 -0.015544588
0.039010443 -0.05501787 0.06992334 0.0855995 0.0052245683 0.07749753 0.087385826 -0.016757397
0.018792888 -0.03019796 0.029996883 0.067960225 0.07351351 -0.07341095 -0.032928385 -0.00020901872
-0.023099793 -0.07002112 -0.012118524 -0.08070933 0.07537467 -0.008624622 0.036453832 0.04725192
-0.049914584 0.057075087 -0.056631472 -0.032521423 -0.07831573 0.030458301 -0.019022109 -0.07876033
-0.007860652 -0.0049932213 0.05949542 0.023107536 0.03093377 -0.06161121 -0.07465922 -0.0064395196
-0.06662351 0.07993488 0.05849999 -0.07371255 0.083290495 0.04723927 -0.07768822 0.050532628
0.046309154 -0.08715473 0.08953345 -0.05601855 -0.047695987 -0.05541899 -0.050425977 -0.049815927
0.08641188 -0.026609259 0.086593226 -0.023967871 0.07800773 0.0068235314 -0.08190565 -0.049504966
-0.027811533 -0.037916187 0.06425966 -0.059894126 -0.061840814 0.009316401 0.043276057 -0.082227275
-0.05526009 0.01409182 0.06082195 -0.050148815
00000000: 757b 66bd a8a1 84bc e371 f93b ced2 4b3d
00000010: 8818 873d f56f a4bd 71fc 363d baae 7ebc
00000020: 6ac9 1f3d 6b5a 61bd f833 8f3d ca4e af3d
00000030: db32 ab3b 06b7 9e3d 57f7 b23d cf46 89bc
00000040: 8bf3 993c b661 f7bc 06bc f53c bb2e 8b3d
00000050: 408e 963d 7b58 96bd eadf 06bd 092c 5bb9
00000060: c73b bdbc 3c67 8fbd c68c 46bc ef4a a5bd
00000070: 095e 9a3d 494e 0dbc 9d50 153d 3b8b 413d
00000080: 3c73 4cbd 91c7 693d 67f6 67bd 2f35 05bd
00000090: ff63 a0bd b083 f93c 41d4 9bbc 194d a1bd
000000a0: f7c9 00bc 2d9e a3bb 78b1 733d 044c bd3c
000000b0: d168 fd3c 095c 7cbd efe6 98bd 9b02 d3bb
000000c0: e871 88bd e6b4 a33d af9d 6f3d 9bf6 96bd
000000d0: 3594 aa3d f77d 413d 001b 9fbd 4dfb 4e3d
000000e0: abae 3d3d 2e7e b2bd 505d b73d b573 65bd
000000f0: de5c 43bd 06ff 62bd 788b 4ebd c90b 4cbd
00000100: b6f8 b03d a9fb d9bc ca57 b13d 4558 c4bc
00000110: 84c2 9f3d ee97 df3b 26be a7bd b8c5 4abd
00000120: 03d5 e3bc 014e 1bbd 929a 833d 8b53 75bd
00000130: cb4c 7dbd d1a3 183c 3c42 313d c666 a8bd
00000140: 6758 62bd 61e1 663c 7020 793d d868 4dbd

network.4.weight f4 [21, 84]
-0.03267948 0.0003965323 0.028759284 0.00041506812 0.059861254 -0.06226649 -0.057006814 0.0015600122
-0.06117035 0.0014329982 0.08213211 0.065446585 -0.07362957 -0.086411506 -0.104486525 -0.09378163
-0.008085295 0.09423083 0.10955809 0.089523986 0.045771495 0.03301 0.04241412 -0.09515105
0.008923098 -0.018799586 -0.04105055 0.065595776 -0.0063202395 -0.0903199 0.08780962 -0.030165246
-0.006398745 0.110267736 0.10240777 -0.09344759 -0.10533876 0.075877495 0.041000873 -0.038540695
-0.008939706 -0.03421398 0.00015825998 -0.05542964 -0.08599902 -0.08851839 0.0691824 -0.039879605
0.035636526 0.08437611 -0.052808333 0.060143393 -0.067481376 -0.077032655 0.09211751 0.0341372
0.029665183 -0.022919608 0.09746293 0.019967286 0.085797496 0.02286957 0.027229749 0.02171272
-0.07777313 0.04927274 -0.004852503 -0.061449286 0.090620786 0.046882898 0.07268915 -0.08074727
0.09379654 0.014408179 0.031033184 -0.009321662 0.028895529 -0.08302261 -0.027151002 0.020266363
-0.04481069 -0.07483121 0.104695246 -0.06404529 0.008935152 0.006778386 -0.07344895 0.084193274
0.08730597 -0.10045524 -0.046115432 0.0617216 -0.0758228 -0.0069919354 0.10124818 -0.076649584
-0.051634133 -0.10692408 -0.0015723109 -0.0046073524 0.044525016 0.025898349 -0.019122936 -0.007768585
-0.032801777 0.029667458 -0.05653039 -0.045310445 -0.015141604 -0.07623042 0.09090273 0.09204928
0.08982867 -0.09043373 0.09714662 -0.041329145 0.040042166 0.052457538 0.043274287 -0.086308755
-0.04633908 0.10099822 -0.031703725 0.10612685 0.042096917 0.110501304 0.06799734 0.08551892
-0.0001357541 0.1015562 -0.02928044 0.015439366 -0.1039592 0.03481563 -0.08237148 0.06310563
0.0069036093 -0.03781588 0.049240988 0.10903933 0.094894946 -0.06718908 -0.08426356 -0.043961085
0.032623682 0.08380865 -0.06766026 -0.03974039 -0.03083071 -0.010151417 -0.08656751 -0.030178508
-0.07822926 -0.013203258 0.099488676 0.05160652 -0.06891022 0.07074288 -0.043952715 0.02591177
0.012443892 -0.05973427 -0.06097414 0.046506736 -0.047350034 0.03359382 0.046001483 -0.09673826
0.06255028 -0.038850978 0.057581592 -0.0796901 -0.06531592 0.027742958 -0.050475754 0.021785285
-0.020548569 -0.04618837 -0.062115252 0.032611188 -0.09048278 -0.089773305 0.0763142 -0.042870663
0.108196594 -0.09165471 0.06204505 0.041208394 0.03236092 -0.046358656 0.09646824 -0.052503593
-0.035403755 -0.032120932 -0.07499949 -0.080272324 0.04987492 -0.0067453943 0.044361174 -0.106225304
0.044917136 -0.054833826 -0.0402747 0.101858005 0.059896797 0.07356314 -0.01935772 0.09507968
-0.086757265 0.060457736 0.09540132 0.080880806 0.01942769 0.018430311 0.09761532 -0.10151321
-0.06234427 0.011238674 0.022931637 -0.053578146 0.058895886 0.06636492 0.053369217 0.10265014
0.033864353 -0.08026257 0.024017427 0.040040966 -0.022120366 -0.060466103 -0.058496654 -0.07429825
0.025820555 -0.05107695 0.06502161 -0.017218167 -0.03694658 0.099580176 -0.06327112 0.003419969
0.0017491675 0.029382622 0.015097641 0.06876425 -0.008777639 -0.03832492 -0.088745974 0.02098573
-0.07514143 -0.09530773 -0.08470885 -0.012903981 -0.08673319 -0.07850238 0.015835246 -0.10547815
00000000: ebda 05bd aae5 cf39 9798 eb3c 809d d939
00000010: 1331 753d 260b 7fbd fa7f 69bd 5379 cc3a
00000020: c38d 7abd 71d3 bb3a e134 a83d dc08 863d
00000030: 1acb 96bd 84f8 b0bd 08fd d5bd 9510 c0bd
00000040: 2f78 04bc 18fc c03d fe5f e03d 5a58 b73d
00000050: e47a 3b3d 7e35 073d 6eba 2d3d 8ede c2bd
00000060: 3032 123c 9701 9abc 9f24 28bd 1457 863d
00000070: 031a cfbb a4f9 b8bd 88d5 b33d 1b1d f7bc
00000080: 90ac d1bb 0dd4 e13d 2abb d13d 7361 bfbd
00000090: d9bb d7bd a965 9b3d 88f0 273d d9dc 1dbd
000000a0: d877 12bc f523 0cbd 97f2 2539 310a 63bd
000000b0: 4120 b0bd 2149 b5bd 81af 8d3d cc58 23bd
000000c0: 9bf7 113d 62cd ac3d 8d4d 58bd eb58 763d
000000d0: ad33 8abd 4cc3 9dbd 1ba8 bc3d 73d3 0b3d
000000e0: 6604 f33c e7c1 bbbc a59a c73d 6f92 a33c
000000f0: 99b6 af3d f758 bb3c ec10 df3c e0de b13c
00000100: 8547 9fbd 36d2 493d bf01 9fbb 3fb2 7bbd
00000110: 6497 b93d 4808 403d 0dde 943d d35e a5bd
00000120: 6618 c03d 4810 6c3c 4e39 fe3c e2b9 18bc
00000130: 51b6 ec3c c207 aabd c76b debc a505 a63c
00000140: 6a8b 37bd 1b41 99bd 766a d63d 2d2a 83bd
00000150: be64 123c 391d de3b 676c 96bd 866d ac3d
00000160: 79cd b23d 7abb cdbd 89e3 3cbd cacf 7c3d
00000170: fc48 9bbd 9b1c e5bb 355b cf3d 75fa 9cbd
00000180: 507e 53bd 03fb dabd 0016 ceba 46f9 96bb
00000190: dd5f 363d c628 d43c b4a7 9cbc 9d8f febb
000001a0: 285b 06bd 2b09 f33c 698c 67bd 7297 39bd
000001b0: 7d14 78bc b21e 9cbd 362b ba3d 5584 bc3d
000001c0: 18f8 b73d 5235 b9bd cff4 c63d c048 29bd
000001d0: 4103 243d b7dd 563d 6140 313d a5c2 b0bd
000001e0: 0cce 3dbd 28d8 ce3d c4db 01bd 0959 d93d
000001f0: d16d 2c3d 824e e23d 3042 8b3d 8b24 af3d
00000200: 3759 0eb9 b2fc cf3d 89dd efbc 65f5 7c3c
00000210: 90e8 d4bd d69a 0e3d 61b2 a8bd 863d 813d
00000220: ac37 e23b d3e4 1abd ebb0 493d 0350 df3d
00000230: 4858 c23d 6e9a 89bd 6092 acbd 8a10 34bd
00000240: 69a0 053d dfa3 ab3d 7691 8abd d2c6 22bd
00000250: af90 fcbc 2152 26bc 4f4a b1bd eb38 f7bc
00000260: aa36 a0bd 7a52 58bc b8c0 cb3d 5c61 533d
00000270: cd20 8dbd a5e1 903d c307 34bd ec44 d43c
00000280: 77e1 4b3c ecab 74bd 05c0 79bd d97d 3e3d
00000290: 1cf2 41bd ac99 093d 0d6c 3c3d b51e c6bd
000002a0: 5c1a 803d 3422 1fbd adda 6b3d 9034 a3bd
000002b0: 5ac4 85bd 3345 e33c aabf 4ebd 0e77 b23c
000002c0: 7955 a8bc 0430 3dbd 906c 7ebd 4f93 053d
000002d0: 094f b9bd 11db b7bd 9f4a 9c3d 2699 2fbd
000002e0: 2d96 dd3d 77b5 bbbd f322 7e3d 22ca 283d
000002f0: e28c 043d 93e2 3dbd 2491 c53d 020e 57bd
00000300: 8703 11bd 3d91 03bd 5599 99bd d165 a4bd
00000310: a549 4c3d 7808 ddbb 10b4 353d a78c d9bd
00000320: 08fb 373d 6f99 60bd 15f7 24bd ee9a d03d
00000330: 5856 753d 46a8 963d 1594 9ebc 23b9 c23d
00000340: cbad b1bd 88a2 773d c461 c33d d6a4 a53d
00000350: d226 9f3c 2afb 963c 8aea c73d 28e6 cfbd
00000360: b55c 7fbd 6a22 383c 21db bb3c c274 5bbd
00000370: d03c 713d 55ea 873d ae99 5a3d 3d3a d23d
00000380: 59b5 0a3d b460 a4bd 32c0 c43c ff01 243d
00000390: c535 b5bc 4eab 77bd 309a 6fbd ae29 98bd
000003a0: a185 d33c 1036 51bd 0d2a 853d 1d0d 8dbc
000003b0: 4c55 17bd b1f0 cb3d 4a94 81bd 8f21 603b
000003c0: 5244 e53a d3b3 f03c 195c 773c 45d4 8c3d
000003d0: 16d0 0fbc 97fa 1cbd 73c0 b5bd 44ea ab3c
000003e0: c0e3 99bd b330 c3bd d57b adbd 386b 53bc
000003f0: 2ca1 b1bd dbc5 a0bd ebb8 813c ee04 d8bd

network.4.bias f4 [21]
-0.029446077 -0.10223002 -0.044946015 0.0021323534 -0.04134367 -0.057839524 0.11001872 -0.04415531
0.02774344 0.04437282 -0.011746713 -0.09400379 0.089879684 -0.08149967 -0.08229377 0.08498878
-0.021089518 0.065396 0.05199774 -0.09734 0.09194107
00000000: e638 f1bc f95d d1bd 5019 38bd f4be 0b3b
00000010: fb57 29bd 23e9 6cbd 7f51 e13d 33dc 34bd
00000020: 3646 e33c 46c0 353d 4975 40bc 0f85 c0bd
00000030: d712 b83d 4de9 a6bd a389 a8bd 990e ae3d
00000040: edc3 acbc 57ee 853d 95fb 543d 325a c7bd
00000050: 9a4b bc3d
