pretrained/blue_final.pt (torch, 249186 bytes, 11 tensors)

cnn.0.weight f4 [5, 5, 3, 3]
0.09281745 0.093569785 -0.060459826 0.09547357 -0.13944292 -0.016359964 0.12250561 0.029718766
0.082575426 -0.14495163 -0.11033279 -0.12718156 0.12838931 -0.06710836 0.03671172 0.05019559
0.13992406 0.07256871 0.12651357 0.06358023 0.11215599 0.11164567 0.12170977 0.11834018
-0.107554734 0.044475958 0.06005245 -0.07130315 0.028062485 0.08968798 0.04148181 0.072972685
0.07396861 0.13636242 -0.1331254 0.09648826 -0.0017697812 -0.11781751 0.016926672 -0.016536552
0.00031143104 -0.06743284 0.050516814 -0.10861172 0.04921275 0.04444997 0.10451819 -0.042546146
-0.10346378 0.06699173 -0.07142894 -0.031654578 -0.038739428 -0.08654654 -0.0071789697 -0.10717802
0.12739675 0.04077436 -0.08206143 0.063532144 -0.14531824 0.038474914 -0.05793657 0.10445215
0.11888278 -0.05267738 -0.13557361 0.04509108 -0.064858794 0.087287396 0.11239862 -0.14567016
0.12144593 0.08321915 0.13573775 0.07611041 0.13123256 0.059324373 0.13075727 -0.08473097
-0.024357954 -0.0748268 0.14839451 0.08871528 -0.10679439 0.10901905 0.0835234 0.007146089
-0.07646963 0.10654423 0.057633862 -0.053268746 0.080965064 0.028519938 0.03346136 0.12993914
0.016694533 -0.039935462 -0.054710213 -0.13133928 -0.1050664 -0.018421736 0.101281725 -0.056351084
-0.024633154 -0.14196259 -0.067651086 -0.04568026 -0.0017240929 0.012288828 0.14734119 -0.10064026
-0.12516539 0.025522932 0.0021638458 0.027067168 0.14399047 -0.025520977 -0.035619874 0.015844295
0.08010351 -0.017578198 0.10700985 -0.10301515 -0.040239856 0.08118704 0.04146168 -0.025187422
0.048438553 -0.095510006 -0.055693608 -0.08997327 0.033272866 -0.08596575 -0.050910026 0.09041961
-0.009830434 -0.076810956 0.041980848 0.04556164 0.036929056 0.121393435 0.14407292 -0.06217793
-0.004962922 -0.14808966 -0.0765402 -0.06771907 -0.12874973 0.13357991 -0.052740652 0.011743162
0.09858143 -0.08732997 -0.04387986 0.09833378 0.047937684 -0.06514487 -0.08930383 0.09171421
0.09118261 0.13147183 0.14036222 -0.12078392 0.0347994 0.08277037 0.12446602 -0.03524374
-0.018866464 -0.11849175 0.018368406 0.017222643 -0.032758582 -0.045266487 -0.08617575 0.14780861
0.14793539 -0.074917905 0.1274913 0.07889102 -0.02176821 -0.14917089 0.004044249 -0.13915427
0.072203994 -0.067755766 -0.12917908 0.0057528545 -0.031765163 0.033841792 0.01889385 0.085008554
0.047458272 -0.11875398 -0.00016509581 0.083787404 -0.004608291 0.059574973 -0.1008218 0.13125305
-0.009507575 -0.008192056 0.08648186 0.12872717 0.05065732 0.056562148 0.049645204 0.0731778
0.018178634 -0.11931627 -0.07629671 -0.026953682 0.010651809 0.06693091 -0.08988034 -0.05002497
-0.011656825 0.08761835 0.08064363 -0.011376512 0.1030654 -0.016503936 0.04024251 -0.06955148
-0.070530735
00000000: 1317 be3d 84a1 bf3d b9a4 77bd a687 c33d
00000010: 20ca 0ebe 5505 86bc 39e4 fa3d c574 f33c
00000020: 4e1d a93d 336e 14be 28f6 e1bd e23b 02be
00000030: 7d78 033e 1c70 89bd 075f 163d e499 4d3d
00000040: 4148 0f3e e79e 943d c68c 013e 5a36 823d
00000050: 0ab2 e53d 7ca6 e43d f942 f93d 565c f23d
00000060: a845 dcbd 6c2c 363d 8ff9 753d 6307 92bd
00000070: 4ce3 e53c 55ae b73d d5e8 293d b472 953d
00000080: db7c 973d 97a2 0b3e 0652 08be a39b c53d
00000090: 01f8 e7ba 4f4a f1bd cea9 8a3c aa77 87bc
000000a0: 9147 a339 3b1a 8abd b8ea 4e3d d26f debd
000000b0: 4f93 493d 2c11 363d a20d d63d de44 2ebd
000000c0: d1e4 d3bd f632 893d 5649 92bd 3ba8 01bd
000000d0: 3cad 1ebd 503f b1bd 903d ebbb 2680 dbbd
000000e0: 4b74 023e 0403 273d d30f a8bd 241d 823d
000000f0: 4ece 14be df97 1d3d e64e 6dbd 02eb d53d
00000100: d178 f33d 3dc4 57bd cfd3 0abe 6db1 383d
00000110: b0d4 84bd bcc3 b23d 3f31 e63d 8f2a 15be
00000120: a5b8 f83d cd6e aa3d d6fe 0a3e c6df 9b3d
00000130: d461 063e 1dfe 723d 3ce5 053e 6e87 adbd
00000140: 558a c7bc cb3e 99bd bbf4 173e 5bb0 b53d
00000150: 04b7 dabd 6145 df3d 510e ab3d bd29 ea3b
00000160: 1c9c 9cbd dc33 da3d 7c11 6c3d 5430 5abd
00000170: 03d1 a53d a5a2 e93c c70e 093d c40e 053e
00000180: f9c2 883c 5e93 23bd d117 60bd ce7d 06be
00000190: 0d2d d7bd 2ee9 96bc cb6c cf3d 65d0 66bd
000001a0: 78cb c9bc a45e 11be a78c 8abd 391b 3bbd
000001b0: f5fa e1ba 1557 493c 9ce0 163e 7b1c cebd
000001c0: 5b2b 00be 7815 d13c 4fcf 0d3b f7bb dd3c
000001d0: 3d72 133e 5e11 d1bc 25e6 11bd e5cb 813c
000001e0: 4f0d a43d 2700 90bc fb27 db3d 9bf9 d2bd
000001f0: 8cd2 24bd 6445 a63d b9d3 293d da55 cebc
00000200: 8167 463d c09a c3bd fb1e 64bd e843 b8bd
00000210: 2149 083d d00e b0bd 0887 50bd eb2d b93d
00000220: d40f 21bc 104f 9dbd 1cf4 2b3d d89e 3a3d
00000230: ec42 173d 1f9d f83d da87 133e 49ae 7ebd
00000240: 02a0 a2bb d1a4 17be 1cc1 9cbd 4cb0 8abd
00000250: f8d6 03be 2cc9 083e 9506 58bd 6466 403c
00000260: 10e5 c93d 0eda b2bd 5ebb 33bd 3963 c93d
00000270: 4e5a 443d ac6a 85bd ede4 b6bd a9d4 bb3d
00000280: f3bd ba3d 8da0 063e 1dbb 0f3e 8f5d f7bd
00000290: d189 0e3d 8383 a93d 0ae8 fe3d bd5b 10bd
000002a0: d88d 9abc cdab f2bd 5779 963c 8016 8d3c
000002b0: dd2d 06bd 5a69 39bd e97c b0bd 245b 173e
000002c0: 607c 173e 8f6e 99bd 148d 023e 9d91 a13d
000002d0: 3f53 b2bc 41c0 18be 9f85 843b 757e 0ebe
000002e0: b0df 933d 89c3 8abd 8547 04be 7182 bc3b
000002f0: 301c 02bd b19d 0a3d 46c7 9a3c f718 ae3d
00000300: 9b63 423d 4935 f3bd 921d 2db9 bb98 ab3d
00000310: 2601 97bb e304 743d a97b cebd 3367 063e
00000320: a9c5 1bbc f937 06bc 671d b13d 0ed1 033e
00000330: 0d7e 4f3d b6ad 673d c558 4b3d 3ede 953d
00000340: 5ceb 943c 175c f4bd 7341 9cbd f8cd dcbc
00000350: ed84 2e3c 1313 893d 2f13 b8bd fce6 4cbd
00000360: 45fc 3ebc 4071 b33d 7d28 a53d 8d64 3abc
00000370: f413 d33d 4333 87bc 55d5 243d 0271 8ebd
00000380: 6b72 90bd

cnn.0.bias f4 [5]
-0.015596412 0.0019455956 -0.104811616 -0.06580624 0.083500445
00000000: 1888 7fbc 5b03 ff3a 79a7 d6bd 6cc5 86bd
00000010: 4802 ab3d

cnn.2.weight f4 [5, 5, 3, 3]
-0.051239014 0.13659501 0.021357344 -0.06390872 -0.064314656 -0.08025964 0.12656522 -0.08565425
-0.046862576 0.02297634 0.12741274 0.13923371 0.10759577 -0.09590485 -0.08040664 0.023774814
-0.06372991 0.061327264 0.14619549 -0.019299181 -0.112410806 0.02904453 -0.06158352 0.022812283
-0.1101094 0.09476042 0.06760541 0.0282489 -0.06180032 -0.030271344 0.0078005963 -0.14730462
-0.08760017 0.07442448 0.1171094 -0.01277244 0.1243144 -0.14605384 -0.013139849 -0.008815426
-0.11358724 -0.083450966 -0.14111872 0.01943989 0.14663415 -0.0628664 -0.12585862 -0.081742175
-0.13031806 -0.09892157 0.119106226 0.13594067 -0.08500965 0.041011993 0.13709545 -0.00397756
0.1300343 0.0075167255 0.014085864 0.000263783 0.056399725 -0.006137545 -0.019704008 0.054455824
0.023829209 -0.100142464 0.0030928433 -0.14799935 -0.05002686 -0.07498998 -0.13797359 0.00999355
0.05037472 -0.08715475 -0.12116867 -0.07459522 -0.086470276 -0.021098852 0.030311968 0.085750885
0.020344967 -0.094510764 -0.05280581 0.11355781 0.052584674 0.04038024 0.13340946 0.13144037
0.12320679 -0.033552337 0.06339239 -0.08982323 0.1465456 -0.062081736 0.08024814 0.06142859
-0.1411552 0.05753255 -0.118281946 0.034577195 0.00080620206 -0.052890763 0.10579215 -0.055335455
-0.126165 0.11475026 -0.036192052 0.13422902 -0.06476985 -0.12718101 -0.086676344 0.093013816
-0.029583389 -0.11424401 0.0704693 0.06313095 0.04146934 -0.04295159 -0.056042265 -0.12768975
-0.0008980409 0.12255167 0.14800791 -0.077913165 -0.03394529 0.09694131 -0.1234106 0.08603461
-0.09677796 0.046849586 0.01752222 0.080640785 0.1438854 -0.14037801 0.01761596 -0.03453762
0.084870435 0.12106912 -0.022243906 -0.13211453 -0.11238621 -0.14555742 0.004900387 -0.12801225
-0.091135986 -0.04606147 -0.07148641 -0.03209506 -0.1497803 -0.10963978 -0.10024685 -0.083029374
-0.090687804 -0.086824834 -0.04421455 0.12872289 -0.076274924 -0.060715616 0.081487685 0.13116649
0.015875377 -0.06233923 0.092550546 0.041163933 0.08637213 0.050113615 0.015173808 -0.11968642
0.024855128 0.0941953 0.08915747 -0.103626415 -0.0030830023 0.097014 0.025105393 0.137868
0.14049806 -0.04654485 -0.11901068 -0.06822808 0.047602423 -0.10110124 0.10200037 -0.082499154
-0.10872289 0.03442053 0.13824789 0.100085884 -0.13631922 -0.07884884 -0.08527951 0.11052453
0.0342549 0.044218034 0.0943326 0.1275923 0.0019041831 -0.13740744 -0.05204486 0.14720699
0.1042318 -0.061676618 0.045498803 -0.06054564 -0.010402632 -0.00675154 0.12511908 -0.049647953
-0.09016096 0.092561886 0.1408242 -0.12764527 -0.11490452 -0.009242509 -0.02329625 -0.05462278
0.010735607 -0.10669094 0.080401994 0.03453594 -0.100764036 0.04616812 -0.00014234305 -0.12998207
-0.049896937
00000000: 00e0 51bd 90df 0b3e 99f5 ae3c 93e2 82bd
00000010: 67b7 83bd 2b5f a4bd 509a 013e 7f6b afbd
00000020: f9f2 3fbd e138 bc3c 7c78 023e 4893 0e3e
00000030: 2c5b dc3d c369 c4bd 3dac a4bd 66c3 c23c
00000040: d484 82bd 4c32 7b3d 45b4 153e 5119 9ebc
00000050: a337 e6bd cbee ed3c 003f 7cbd d3e0 ba3c
00000060: 0981 e1bd c011 c23d b574 8a3d 3d6a e73c
00000070: 5522 7dbd 9cfb f7bc 259c ff3b 06d7 16be
00000080: b867 b3bd dd6b 983d 0ed7 ef3d 7f43 51bc
00000090: 8c98 fe3d 238f 15be 8548 57bc 946e 10bc
000000a0: 6da0 e8bd 57e8 aabd 6d81 10be 6740 9f3c
000000b0: 4327 163e 19c0 80bd 15e1 00be 7168 a7bd
000000c0: 1972 05be 6497 cabd f7ed f33d 0834 0b3e
000000d0: 8a19 aebd 31fc 273d c062 0c3e 3156 82bb
000000e0: b627 053e dd4e f63b 65c8 663c 5b4c 8a39
000000f0: 6603 673d 761d c9bb 4d6a a1bc 120d 5f3d
00000100: 7935 c33c 7e17 cdbd 4db1 4a3b 248d 17be
00000110: f7e8 4cbd 5994 99bd f348 0dbe fdbb 233c
00000120: b955 4e3d 317e b2bd 4827 f8bd 61c5 98bd
00000130: 5417 b1bd 80d7 acbc ce50 f83c 299e af3d
00000140: 7daa a63c dc8e c1bd e84a 58bd ff90 e83d
00000150: 0763 573d c065 253d 7d9c 083e 4e98 063e
00000160: d753 fc3d 2d6e 09bd dfd3 813d 3ef5 b7bd
00000170: 0d10 163e 6b49 7ebd 2359 a43d 8c9c 7b3d
00000180: fd8a 10be 40a7 6b3d ce3d f2bd d1a0 0d3d
00000190: 4e57 533a fca3 58bd 8ea9 d83d 6ea7 62bd
000001a0: 6631 01be 2f02 eb3d 1e3e 14bd 5573 093e
000001b0: 0ea6 84bd bd3b 02be 5e83 b1bd 077e be3d
000001c0: dd58 f2bc c3f8 e9bd 3552 903d cd4a 813d
000001d0: c1db 293d 02ee 2fbd 938c 65bd 1ac1 02be
000001e0: 816a 6bba 5ffc fa3d 638f 173e f090 9fbd
000001f0: 370a 0bbd 2a89 c63d b2be fcbd ea32 b03d
00000200: 8633 c6bd 5ae5 3f3d c28a 8f3c ff26 a53d
00000210: b256 133e 41bf 0fbe 594f 903c 5277 0dbd
00000220: 8dd0 ad3d 16f3 f73d da38 b6bc 0849 07be
00000230: be2a e6bd 010d 15be 6d93 a03b a515 03be
00000240: 81a5 babd f4aa 3cbd 7867 92bd 1c76 03bd
00000250: 0260 19be d28a e0bd 384e cdbd 4e0b aabd
00000260: 87ba b9bd 38d1 b1bd 511a 35bd efcf 033e
00000270: 0736 9cbd f0b0 78bd 04e3 a63d 8250 063e
00000280: 140d 823c 6c57 7fbd 248b bd3d 839b 283d
00000290: dfe3 b03d ef43 4d3d 909b 783c 271e f5bd
000002a0: fb9c cb3c 77e9 c03d 3198 b63d 163a d4bd
000002b0: 320c 4abb 47af c63d d3a9 cd3c 452d 0d3e
000002c0: b9de 0f3e d0a5 3ebd dfbb f3bd 2abb 8bbd
000002d0: c2fa 423d 2b0e cfbd 92e5 d03d 51f5 a8bd
000002e0: 1baa debd 8bfc 0c3d db90 0d3e d4f9 cc3d
000002f0: 4497 0bbe 807b a1bd 06a7 aebd af5a e23d
00000300: de4e 0c3d f81d 353d 7331 c13d 8ea7 023e
00000310: c895 f93a 89b4 0cbe fe2c 55bd 6ebd 163e
00000320: 7b77 d53d 9fa0 7cbd f45c 3a3d b4fe 77bd
00000330: cd6f 2abc 063c ddbb 371f 003e a75b 4bbd
00000340: 4fa6 b8bd 1691 bd3d 3834 103e 71b5 02be
00000350: 1053 ebbd e46d 17bc c7d7 bebc 23bc 5fbd
00000360: 66e4 2f3c c880 dabd cda9 a43d 8f75 0d3d
00000370: 605d cebd c81a 3d3d ec41 15b9 051a 05be
00000380: bb60 4cbd

cnn.2.bias f4 [5]
-0.0069122408 0.020615702 -0.04724049 -0.0020671105 0.13624428
00000000: 1480 e2bb 43e2 a83c 3e7f 41bd 5c78 07bb
00000010: 9f83 0b3e

network.0.weight f4 [120, 405]
0.004549606 -0.0054553533 0.041819483 -0.008018435 0.027025845 -0.044404015 0.019051665 0.017585672
0.04365652 -0.013898371 -0.038520876 -0.048822876 -0.049324974 -0.044519246 -0.03217401 -0.032847025
-0.040289767 0.008048983 0.034111053 -0.022452343 0.030517213 -0.04425319 -0.04589465 -0.030830787
-0.04178245 0.043163367 -0.002574763 -0.00404483 0.04543747 -0.038936283 0.026261238 0.04657852
0.0028472051 0.044595897 0.016290227 -0.012981743 -0.04394135 -0.040243037 0.02214218 -0.038553633
0.001855655 -0.024341963 0.031165102 0.034835503 -0.00360189 -0.014764389 0.0032632817 -0.041486327
0.011020097 -0.005189095 -0.0057582366 -0.047040634 -0.026108464 -0.03832528 -0.046034183 -0.019058447
0.02400351 0.00050173124 0.03835726 0.029363796 0.004648867 0.036865093 0.0063707503 0.017101552
-0.0299351 -0.024268914 0.026748551 0.0076492555 -0.036893796 -0.019969473 0.005264532 -0.045179535
-0.010729132 0.025764536 0.007916792 0.02731861 0.008222377 0.0051026293 -0.007397415 -0.004317035
-0.019927267 -0.040145077 0.004237551 0.029349418 -0.017799987 -0.021270495 0.032200962 -0.028393084
0.050588604 0.009430873 -0.0008603551 0.01666045 0.02971722 -0.04232107 0.031591658 0.026206924
0.020481935 0.04498769 -0.008871001 0.026914332 0.018846884 0.024551576 -0.028301617 -0.03836039
-0.041294776 -0.009686851 0.019745493 -0.040987093 0.031049633 -0.0028163914 -0.016486384 -0.0037774371
0.03157393 0.020380117 -0.016012179 -0.026727768 0.039996274 0.012114548 0.009880816 0.02798594
0.018394623 0.012968012 0.009456991 0.045909837 -0.026720146 -0.034351327 -0.017684883 0.03827969
0.03582504 -0.018411094 0.030173937 0.01200903 -0.031817425 0.048760843 0.0045199813 0.021656586
-0.027514461 -0.036227662 0.017104592 0.02437326 -0.017060902 -0.032435056 -0.018117055 0.04216532
-0.0068118875 -0.023849176 0.0020606986 0.031136854 -0.031737402 -0.03387226 0.049794983 -0.03991153
-0.044652488 0.011409392 -0.047176085 -0.037785266 -0.035909694 0.021902086 -0.032450333 0.0400776
0.04674267 -0.03798371 0.0043588616 -0.03424424 -0.033765204 -0.028919535 -0.045907617 0.036831066
-0.02136764 0.045649264 -0.027349567 0.020381065 0.042994406 -0.04744468 0.049137037 0.025059288
0.03316744 -0.013857617 -0.033224452 -0.031896655 0.0124173695 0.036740676 0.007195813 -0.0020324613
0.048110913 0.011055798 0.018875765 0.021468488 -0.007555077 -0.021990353 0.024259413 0.043766692
0.003892624 -0.04939306 0.016191997 -0.036954205 0.039834667 -0.0024114386 -0.01330781 -0.040608678
-0.0014287027 0.035702072 -0.0114933895 -0.03048378 0.003769823 0.019380694 0.0252146 -0.04958832
-0.049359668 -0.0013842287 0.002372746 -0.028600331 0.0033435044 0.02625609 -0.006542036 0.04240209
0.0008005036 -0.048794135 -0.029957892 -0.016184816 0.013284139 -0.008907288 0.011322874 -0.0056713675
-0.030968593 -0.010418222 -0.03152615 -0.027047193 -0.03971172 0.014265454 -0.024590647 -0.040718976
0.0072649173 -0.04775338 -0.019412918 0.0058529484 -0.012663896 0.041194644 0.03987174 0.006982162
-0.028449861 0.006003004 -0.030010955 -0.012694802 0.0019254023 -0.012445257 0.025367958 0.0043718633
-0.020088006 0.030833887 -0.03134535 -0.033975847 -0.029203478 -0.04125401 0.04286639 0.013671446
00000000: dc14 953b d2c2 b2bb e84a 2b3d c15f 03bc
00000010: 4e65 dd3c fce0 35bd 3d12 9c3c d40f 903c
00000020: 2ed1 323d feb5 63bc 11c8 1dbd 7ffa 47bd
00000030: fc08 4abd d059 36bd e5c8 03bd 9a8a 06bd
00000040: e206 25bd e2df 033c 08b8 0b3d faed b7bc
00000050: 3cff f93c d542 35bd 07fc 3bbd d990 fcbc
00000060: 1324 2bbd 12cc 303d 5bbd 28bb 7e8a 84bb
00000070: a41c 3a3d a77b 1fbd cf21 d73c 1ec9 3e3d
00000080: 2d98 3a3b 30aa 363d 1573 853c 60b1 54bc
00000090: d8fb 33bd e2d5 24bd 8463 b53c 6aea 1dbd
000000a0: 7339 f33a cc68 c7bc f54d ff3c acaf 0e3d
000000b0: b00d 6cbb 56e6 71bc c8dc 553b 91ed 29bd
000000c0: a38d 343c 4909 aabb 97af bcbb aead 40bd
000000d0: 6be1 d5bc f8fa 1cbd 578e 3cbd 7620 9cbc
000000e0: 02a3 c43c 9d86 033a 811c 1d3d 588c f03c
000000f0: 8655 983b daff 163d bac1 d03b 8e18 8c3c
00000100: 743a f5bc 9acf c6bc c71f db3c 9ba6 fa3b
00000110: f31d 17bd 0597 a3bc 1882 ac3b 2d0e 39bd
00000120: 3ec9 2fbc 2610 d33c 6fb5 013c 47cb df3c
00000130: 26b7 063c f533 a73b 0466 f2bb ea75 8dbb
00000140: 823e a3bc 2a6f 24bd 27db 8a3b 316e f03c
00000150: 47d1 91bc 763f aebc 28e5 033d 9d98 e8bc
00000160: ff35 4f3d f383 1a3c 7489 61ba 7f7b 883c
00000170: 8771 f33c dc58 2dbd 4166 013d e7af d63c
00000180: bbc9 a73c 0345 383d ad57 11bc 727b dc3c
00000190: c864 9a3c 6320 c93c cbd8 e7bc c91f 1dbd
000001a0: b624 29bd 99b5 1ebc 4dc1 a13c 15e2 27bd
000001b0: cd5b fe3c 3593 38bb 740e 87bc e18e 77bb
000001c0: aa53 013d 34f4 a63c f92b 83bc 31f4 dabc
000001d0: 22d3 233d 197c 463c 25e3 213c c542 e53c
000001e0: 52b0 963c c977 543c 7ff1 1a3c f40b 3c3d
000001f0: 35e4 dabc fab3 0cbd e3df 90bc 2acb 1c3d
00000200: 47bd 123d ddd2 96bc 552f f73c 86c1 443c
00000210: fd52 02bd 73b9 473d 5a1c 943b 2769 b13c
00000220: 0266 e1bc 7563 14bd ee1e 8c3c 6eaa c73c
00000230: 4ec3 8bbc 9fda 04bd 386a 94bc 8bb5 2c3d
00000240: 4136 dfbb 595f c3bc c90c 073b b712 ff3c
00000250: 14ff 01bd a4bd 0abd d3f5 4b3d 467a 23bd
00000260: 87e5 36bd 75ee 3a3c b63b 41bd b9c4 1abd
00000270: 0b16 13bd 016c b33c a4ea 04bd 6928 243d
00000280: 3e75 3f3d cf94 1bbd c8d4 8e3b b043 0cbd
00000290: 624d 0abd a9e8 ecbc a009 3cbd 2cdc 163d
000002a0: 300b afbc b9fa 3a3d 330c e0bc 31f6 a63c
000002b0: e71a 303d 5a55 42bd eb43 493d 2349 cd3c
000002c0: 95da 073d 0f0b 63bc 5d16 08bd 11a6 02bd
000002d0: 3972 4b3c 647d 163d dbca eb3b 0b33 05bb
000002e0: f30f 453d 6123 353c 59a1 9a3c afde af3c
000002f0: 9490 f7bb 1d25 b4bc adbb c63c b444 333d
00000300: 651b 7f3b 6150 4abd 14a5 843c 4b5d 17bd
00000310: ad29 233d 3a09 1ebb 0009 5abc 4955 26bd
00000320: 4f43 bbba 563c 123d c54e 3cbc 1fb9 f9bc
00000330: 220f 773b 43c4 9e3c d98e ce3c 1f1d 4bbd
00000340: 5d2d 4abd 026f b5ba 1280 1b3b 3e4b eabc
00000350: b21e 5b3b 0317 d73c 935e d6bb d0ad 2d3d
00000360: e3d8 513a 5cdc 47bd 416a f5bc 0596 84bc
00000370: b8a5 593c e0ef 11bc 9383 393c e1d6 b9bb
00000380: d9b1 fdbc 31b1 2abc 9021 01bd 1392 ddbc
00000390: c2a8 22bd a7b9 693c 5372 c9bc f1c8 26bd
000003a0: 8b0e ee3b 0c99 43bd d707 9fbc 17ca bf3b
000003b0: 3b7c 4fbc b7bb 283d 8d50 233d 9fca e43b
000003c0: af0f e9bc d9b4 c43b 89d9 f5bc dcfd 4fbc
000003d0: c85d fc3a 31e7 4bbc 77d0 cf3c d941 8f3b
000003e0: 9a8f a4bc 5997 fc3c fb63 00bd 422a 0bbd
000003f0: 223c efbc f7f9 28bd ab94 2f3d 33fe 5f3c

network.0.bias f4 [120]
0.029181503 -0.009897524 0.04178794 -0.020370295 0.014423596 -0.02795242 0.039401047 -0.013989084
-0.013233369 0.048751317 -0.042249806 -0.022546452 -0.027169077 0.022000372 -0.026050057 -0.031601556
0.019762572 -0.028250126 0.017369602 0.039164014 -0.00731602 0.022500578 0.00054597505 -0.026059061
0.001441816 0.026569122 -0.031474393 0.028741306 0.0036405176 -0.04871667 -0.0095533235 0.006215468
0.024593487 -0.009365262 0.032959495 -0.018560013 -0.018104967 0.034552813 -0.0029029103 -0.031185899
0.015889777 -0.03898137 -0.03474855 0.0039375667 0.049064334 -0.0088506825 -0.0110343825 -0.030975174
-0.02084258 0.04507801 -0.017730812 -0.021569561 -0.043450695 -0.04133677 0.0012669304 -0.0038331668
0.035070486 0.033397894 -0.009768633 0.014892932 0.007951145 0.001152783 0.0037737268 0.01625684
-0.0009448133 0.040424835 0.028513364 -0.006587537 -0.015275869 0.03986097 -0.027147532 0.019231815
-0.047746737 0.0067627714 0.045665823 0.044094678 0.02790067 0.029124865 -0.03012207 -0.00047684132
-0.03581678 -0.04243409 0.012180753 -0.0019593232 -0.04662306 0.036879715 -0.039639544 -0.020605627
-0.006389007 -0.04752126 -0.007234137 -0.01727115 0.037983995 0.00066399237 -0.027608788 0.011185062
-0.042734846 -0.007908714 0.048786577 -0.018157272 0.030308256 0.01117594 0.0396028 0.037892386
0.041259553 -0.032606557 0.015092926 -0.004128595 -0.022683416 -0.0156072285 0.018013034 0.04579869
0.016098117 -0.011335017 0.04143082 -0.019081295 0.025472736 -0.0121828085 -6.345907e-05 0.03710707
00000000: 0c0e ef3c 3929 22bc d529 2b3d 9bdf a6bc
00000010: f250 6c3c 79fc e4bc fe62 213d 7932 65bc
00000020: c6d0 58bc 76af 473d 220e 2dbd 56b3 b8bc
00000030: af91 debc 203a b43c ee66 d5bc a270 01bd
00000040: 1ee5 a13c cf6c e7bc b24a 8e3c 726a 203d
00000050: 39bb efbb 2253 b83c c41f 0f3a d079 d5bc
00000060: 51fb bc3a 7da7 d93c 4beb 00bd e372 eb3c
00000070: c095 6e3b 228b 47bd 8b85 1cbc 20ab cb3b
00000080: 4878 c93c c270 19bc 8900 073d 2b0b 98bc
00000090: de50 94bc 4087 0d3d c13e 3ebb 9279 ffbc
000000a0: 472b 823c eeaa 1fbd 7f54 0ebd b406 813b
000000b0: aff7 483d 7402 11bc 8ec9 34bc a6bf fdbc
000000c0: 0fbe aabc b8a3 383d 3540 91bc a6b2 b0bc
000000d0: 5bf9 31bd bf50 29bd 210f a63a de35 7bbb
000000e0: 12a6 0f3d 3bcc 083d 9e0c 20bc 7c01 743c
000000f0: 8545 023c fb18 973a a150 773b 112d 853c
00000100: 59ad 77ba 8394 253d dc94 e93c 44dc d7bb
00000110: a347 7abc 4245 233d 8064 debc 0a8c 9d3c
00000120: 1592 43bd 3d9a dd3b 160c 3b3d 9f9c 343d
00000130: f28f e43c 4597 ee3c 8fc2 f6bc 8f00 fab9
00000140: 9eb4 12bd 5ecf 2dbd c891 473c fd67 00bb
00000150: d2f7 3ebd 2f0f 173d 135d 22bd 22cd a8bc
00000160: e05a d1bb a7a5 42bd 570c edbb 3a7c 8dbc
00000170: 1b95 1b3d c60f 2e3a d32b e2bc 8d41 373c
00000180: bc0a 2fbd 8d93 01bc 6fd4 473d 8fbe 94bc
00000190: 0549 f83c 4a1b 373c 8c36 223d 0c35 1b3d
000001a0: c7ff 283d 748e 05bd 5248 773c 2a49 87bb
000001b0: 92d2 b9bc 76b5 7fbc 1290 933c 6897 3b3d
000001c0: 33e0 833c 82b6 39bc 5db3 293d 6050 9cbc
000001d0: 33ac d03c 679a 47bc 5415 85b8 95fd 173d

network.2.weight f4 [84, 120]
-0.082964875 -0.0114747435 0.0055536027 0.0140890125 0.068805836 0.050153352 -0.049073376 0.03694401
0.07940114 0.058238585 0.08023546 0.08355919 0.0012972318 -0.0539977 0.0041762777 -0.04715976
-0.054985363 -0.033940427 0.035558697 0.0848388 -0.0792911 0.0050234515 0.05702962 -0.034426723
0.008913493 -0.08849655 -0.049028356 -0.03848926 0.07150813 -0.06013654 -0.015046141 0.042946734
0.082549855 -0.06749681 0.055248976 -0.021814946 0.06833033 0.051242962 -0.046997998 -0.008767627
-0.035421938 0.0386669 -0.00948763 -0.085419156 -0.012861798 -0.015341333 0.015956182 -0.038151745
-0.014627196 0.08026419 -0.0036493256 -0.015503163 -0.019560661 0.0313912 -0.042220768 0.08904289
0.09024086 -0.06300575 -0.030410763 0.060309734 0.053570494 -0.026818242 0.060142983 0.0073157144
-0.05962539 -0.00028148078 -0.028054621 0.049598172 -0.010002797 0.00016593284 0.0074801347 0.026732795
-0.012354009 0.03749488 -0.039928842 0.08121393 -0.009134729 0.06312481 0.085329205 0.07555329
-0.08100457 -0.080390885 -0.0056462656 0.047256168 -0.050022148 0.059840262 -0.08126428 0.07651603
-0.07472997 0.08504522 -0.021260438 -0.025412166 0.023448167 -0.036152955 0.06268212 0.015432962
0.08739943 -0.009820747 0.052529857 0.07669586 -0.07568121 -0.029237926 -0.07659904 0.06027014
-0.027553754 -0.04691343 -0.025089398 0.08827857 0.08908746 0.039991327 -0.012850001 0.0054543894
-0.032681968 0.07415115 -0.01656745 0.017940369 0.05464745 -0.063217685 -0.020021558 0.088301376
-0.046563588 -0.044739578 -0.061134346 0.08008693 -0.051764563 -0.0103277415 0.03154426 0.04902039
0.08723661 0.052441385 -0.016371818 0.039443776 -0.08232909 -0.020038959 -0.050766733 0.0014435004
0.015750408 -0.078944 -0.03360618 -0.051850934 0.07374205 -0.014969868 0.04492547 0.025586043
-0.07707314 0.029065235 -0.008964172 -0.06800192 0.053485267 0.0331808 0.009336595 0.07778964
0.06316678 0.008503329 -0.006401506 -0.018312695 -0.04895514 -0.011545467 0.055177 0.052303266
0.06443061 0.08590965 -0.065389685 -0.049572263 -0.024712633 0.027125286 0.045001622 0.027617209
0.08700562 -0.057097383 -0.07478642 -0.08828516 0.035890996 -0.07202655 0.0853974 0.012444582
0.038007785 -0.06451255 0.018608822 -0.061329573 0.03675295 0.058997028 0.026879346 -0.04223661
0.07838598 0.06623331 -0.078871556 -0.03957089 -0.08728228 -0.019868184 -0.073154345 0.049243215
-0.025408195 0.08405905 0.05044919 -0.008885558 -0.067343555 -0.072426975 0.073645726 0.00841022
-0.068869054 -0.06323584 -0.08492163 -0.06735145 0.055980373 0.027237525 0.00073634874 -0.073436394
-0.06687353 0.006958656 0.07324819 0.08359793 0.06895197 0.04961861 0.082951814 0.025260108
-0.073805474 0.082505375 -0.042079058 0.008375615 -0.06082701 -0.07469422 0.039271813 -0.073603004
0.084671594 0.05810021 -0.07901419 0.031450238 -0.011720944 0.08114378 0.029240875 0.026028767
-0.05953735 -0.025942383 0.0030165107 0.0047961753 -0.014573753 -0.06766202 0.066007115 -0.04990735
-0.0009571186 -0.047382575 0.072773375 0.032704365 -0.03610006 -0.023116628 0.0055065174 -0.06002578
-0.03640796 -0.07806176 0.09081371 -0.089450166 -0.013110458 -0.0013326376 -0.04041504 0.07942064
00000000: 7de9 a9bd 9000 3cbc fffa b53b 9ad5 663c
00000010: 13ea 8c3d 9a6d 4d3d 2a01 49bd 9a52 173d
00000020: 119d a23d 958b 6e3d 7d52 a43d 1521 ab3d
00000030: e007 aa3a b12c 5dbd 28d9 883b 982a 41bd
00000040: 5538 61bd 1e05 0bbd ffa5 113d f7bf ad3d
00000050: 5f63 a2bd c49b a43b e497 693d 0903 0dbd
00000060: e609 123c ae3d b5bd f5d1 48bd eaa6 1dbd
00000070: db72 923d bc51 76bd 1784 76bc eae8 2f3d
00000080: e60f a93d c43b 8abd c04c 623d 42b5 b2bc
00000090: c6f0 8b3d 24e4 513d f980 40bd 18a6 0fbc
000000a0: 9816 11bd 2f61 1e3d 0172 1bbc 3df0 aebd
000000b0: 4aba 52bc 375a 7bbc 8ab6 823c 0145 1cbd
000000c0: e8a6 6fbc 8d61 a43d 8629 6fbb fb00 7ebc
000000d0: ae3d a0bc 0f94 003d afef 2cbd 1e5c b63d
000000e0: 33d0 b83d 2909 81bd fe1f f9bc 5707 773d
000000f0: bc6c 5b3d eeb1 dbbc 7d58 763d a9b8 ef3b
00000100: c139 74bd b693 93b9 ced2 e5bc 7427 4b3d
00000110: c5e2 23bc 42fe 2d39 eb1b f53b bcfe da3c
00000120: 7868 4abc 3b94 193d 6d8c 23bd 7d53 a63d
00000130: d5a9 15bc 9547 813d 14c1 ae3d afbb 9a3d
00000140: b9e5 a5bd faa3 a4bd 4f04 b9bb af8f 413d
00000150: 06e4 4cbd 101b 753d e36d a6bd 70b4 9c3d
00000160: 070c 99bd 302c ae3d 5f2a aebc 2d2d d0bc
00000170: 5f16 c03c 1f15 14bd 7c5f 803d 89da 7c3c
00000180: 79fe b23d 33e7 20bc 8c29 573d b812 9d3d
00000190: c0fe 9abd 6084 efbc f5df 9cbd d3dd 763d
000001a0: 69b8 e1bc 4c28 40bd 4888 cdbc 65cb b43d
000001b0: 7c73 b63d f2cd 233d d088 52bc bcba b23b
000001c0: 87dd 05bd 8fdc 973d 76b8 87bc aef7 923c
000001d0: 01d6 5f3d 4678 81bd 4004 a4bc 5ad7 b43d
000001e0: 76b9 3ebd d940 37bd 0268 7abd 9e04 a43d
000001f0: 1407 54bd b035 29bc 8e34 013d 9bc9 483d
00000200: 1ca9 b23d c7cc 563d 311e 86bc cc8f 213d
00000210: 279c a8bd be28 a4bc c7f0 4fbd d633 bd3a
00000220: 0007 813c 64ad a1bd a2a6 09bd a561 54bd
00000230: 1206 973d 2d44 75bc c503 383d d299 d13c
00000240: 86d8 9dbd 371a ee3c 76de 12bc 9744 8bbd
00000250: 5e13 5b3d 97e8 073d 85f8 183c 2d50 9f3d
00000260: 965d 813d 8c51 0b3c b9c3 d1bb 8104 96bc
00000270: 2f85 48bd 3329 3dbc 4701 623d f33b 563d
00000280: 32f4 833d 66f1 af3d 07eb 85bd 490c 4bbd
00000290: 2672 cabc d935 de3c 9f53 383d 7c3d e23c
000002a0: 0130 b23d f2de 69bd 9f29 99bd dace b4bd
000002b0: 7002 133d a882 93bd d5e4 ae3d 5ce4 4b3c
000002c0: 0dae 1b3d 281f 84bd 8771 983c b834 7bbd
000002d0: 438a 163d dea6 713d 1332 dc3c 4c00 2dbd
000002e0: d488 a03d 54a5 873d 6987 a1bd 1615 22bd
000002f0: 0dc1 b2bd 9ac2 a2bc f2d1 95bd 41b3 493d
00000300: d924 d0bc 2727 ac3d cfa3 4e3d bb94 11bc
00000310: 6beb 89bd 9854 94bd 92d3 963d 05cb 093c
00000320: 380b 8dbd cb81 81bd 64eb adbd 8fef 89bd
00000330: ad4b 653d 3b21 df3c 8707 413a d265 96bd
00000340: fdf4 88bd 7005 e43b 2603 963d 6435 ab3d
00000350: b136 8d3d e23c 4b3d a4e2 a93d 49ee ce3c
00000360: 5327 97bd 94f8 a83d 175b 2cbd e039 093c
00000370: be25 79bd 49f9 98bd 7bdb 203d 2cbd 96bd
00000380: 4d68 ad3d 7cfa 6d3d 31d2 a1bd f7d1 003d
00000390: 3409 40bc b62e a63d 8f8a ef3c 483a d53c
000003a0: 70dd 73bd 1f85 d4bc a7b0 453b 3c29 9d3b
000003b0: c0c6 6ebc 6392 8abd bd2e 873d a66b 4cbd
000003c0: 24e7 7aba 3b14 42bd 350a 953d 03f5 053d
000003d0: a8dd 13bd 155f bdbc 0470 b43b 98dd 75bd
000003e0: 8320 15bd d8de 9fbd 8afc b93d a631 b7bd
000003f0: 3fcd 56bc e6ab aeba 3e8a 25bd 4aa7 a23d

network.2.bias f4 [84]
-0.03394877 -0.007421566 0.040176526 -0.015608255 -0.039560966 -0.0052853352 0.06926313 0.06942015
0.009572522 0.010973898 -0.046591707 -0.0860111 0.0030912666 0.06325315 0.033266976 -0.041242734
-0.07169381 -0.029660746 -0.028504113 0.06765891 -0.043256454 -0.08429084 -0.041759968 0.054658018
0.026710251 -0.036210578 0.06676733 0.08548525 -0.07750201 0.06962069 0.08763464 0.028220015
-0.014055719 0.06115862 0.08092716 -0.046231255 -0.026533606 0.07823036 0.08614775 0.088451475
-0.02530786 -0.074438475 -0.009920422 0.0065615545 0.06238089 -0.007812445 0.03684335 -0.06675637
0.055399448 0.08564246 -0.035456132 0.088580266 -0.020503914 -0.045863904 -0.07152183 0.014406601
0.002611409 -0.03515655 0.08536009 -0.07890896 -0.058313273 0.06307658 0.04048031 -0.010825758
-0.053519752 0.02971865 0.018212607 -0.017280016 0.071543574 -0.08868796 0.009402121 -0.013255975
-0.013733206 -0.027228385 0.08830161 -0.013796933 0.004072232 -0.017740777 -0.05749004 -0.03242233
-0.040404387 -0.07056454 0.04416909 -0.07650722
00000000: de0d 0bbd 9c30 f3bb 2490 243d c4b9 7fbc
00000010: ae0a 22bd 9b30 adbb d4d9 8d3d 272c 8e3d
00000020: 11d6 1c3c ddcb 333c f2d6 3ebd 9626 b0bd
00000030: d996 4a3b de8a 813d f442 083d 24ee 28bd
00000040: 34d4 92bd 18fb f2bc 7581 e9bc c190 8a3d
00000050: ae2d 31bd ada0 acbd 800c 2bbd 16e1 5f3d
00000060: 75cf da3c 8b51 14bd 4fbd 883d e412 af3d
00000070: 60b9 9ebd 4b95 8e3d ca79 b33d a92d e73c
00000080: f549 66bc 7681 7a3d 24bd a53d fc5c 3dbd
00000090: 015d d9bc 3d37 a03d 3b6e b03d 0c26 b53d
000000a0: 6e52 cfbc 3373 98bd 4489 22bc 4f02 d73b
000000b0: 1b83 7f3d 8aff ffbb 0de9 163d 90b7 88bd
000000c0: 88ea 623d 5065 af3d 733a 11bd 9269 b53d
000000d0: d3f7 a7bc cadb 3bbd 0a7a 92bd aa09 6c3c
000000e0: 2c24 2b3b 5100 10bd 45d1 ae3d 059b a1bd
000000f0: e6d9 6ebd 4b2e 813d aece 253d 855e 31bc
00000100: 8737 5bbd 8774 f33c 9b32 953c d28e 8dbc
00000110: 7085 923d 08a2 b5bd 5b0b 1a3c 972f 59bc
00000120: 3e01 61bc 100e dfbc 79d7 b43d 880c 62bc
00000130: 5c70 853b 1b55 91bc ad7a 6bbd 47cd 04bd
00000140: 127f 25bd 2484 90bd a6ea 343d d1af 9cbd

network.4.weight f4 [21, 84]
-0.093103 0.074894145 0.025002176 -0.046690397 -0.074677244 0.033229094 0.02911681 0.02106354
-0.049566865 -0.101371035 -0.093195476 0.086097226 0.091119014 0.093763806 -0.054092404 -0.008237727
0.016163746 0.106858045 0.073508255 0.016172308 0.09689462 0.087169714 -0.100869335 -0.102674045
0.08501263 -0.0497058 -0.061366037 0.069031514 0.07681809 -0.045426767 -0.06173571 0.045725584
-0.01958652 -0.011845713 0.06082503 0.076116405 -0.009040598 -0.029224062 0.0044118324 -0.10667565
0.045764048 0.10199849 0.10613715 0.058276653 0.081341565 0.04946341 0.08109672 -0.017828383
0.022811444 0.09123522 -0.09694546 0.0723443 -0.028690087 0.10429602 0.034653135 -0.09845358
0.069778435 -0.08523701 -0.084306896 -0.102755904 0.05141008 0.09527111 -0.008981285 0.056781903
0.040881544 -0.0031998316 -0.005389862 0.043201454 -0.065257296 -0.057657987 -0.06528544 0.09672573
0.08715583 0.040028155 -0.009722488 -0.043000806 0.033797376 -0.037605155 -0.048970822 0.10269752
-0.066442534 -0.10737319 -0.09182235 0.10168913 -0.029643655 -0.0012881935 0.00371379 -0.020744963
0.005512555 0.006546209 0.060482614 -0.08894455 -0.065134674 0.1077424 -0.0989587 -0.086928345
-0.03909992 0.033331927 -0.09438309 0.06425894 -0.0728357 0.07732761 -0.03519484 0.10666058
-0.09645181 -0.01762117 0.106074706 0.052113555 0.0040087574 0.09232822 -0.07325699 -0.06661206
-0.009808011 -0.022923853 0.10458703 -0.039807163 0.0681697 0.08261627 0.048036456 -0.04610152
0.10736636 0.02895167 -0.082916886 -0.03667484 0.021804495 0.10133715 -0.04550564 -0.06413073
0.054194156 -0.056315456 0.011910704 -0.08014002 0.023037305 -0.0511978 -0.029674819 0.10006424
0.05613714 0.04494983 0.030016808 0.08011619 -0.07798717 -0.06337904 -0.008945356 0.062240697
-0.053040236 0.09153316 -0.062288523 -0.079880744 0.03441892 0.042276315 -0.075441875 0.0993342
0.006772454 0.0550158 -0.08615947 0.04077668 -0.08112266 -0.07198716 0.08074411 0.02329609
0.012624608 0.08144116 -0.04310897 -0.021112379 -0.06522866 0.09037996 -0.037615485 -0.07155198
-0.07422099 0.053992487 -0.0056847655 -0.032544427 0.078185566 0.091607496 -0.011009573 -0.0820836
0.041767832 0.0018637314 0.04972661 0.0006707997 0.057727925 0.07312048 -0.09113802 0.10671091
0.071060516 -0.07783231 0.013439276 0.05465613 -0.038835105 -0.04737264 0.066433534 0.094806075
-0.07589606 -0.036141332 -0.071714364 0.083350025 0.042244904 0.0060433764 -0.056588024 -0.09231647
-0.056844108 0.01016346 0.066567086 -0.062346015 -0.06871501 0.09234155 -0.011444995 -0.00784579
0.023784742 -0.08385426 0.047554925 0.06953518 0.10661478 -0.10086497 -0.033734538 0.099611446
0.004622339 0.04554714 -0.07759755 -0.09190963 -0.052411772 0.083201 -0.10061608 -0.026141925
-0.07491507 -0.059999343 0.10004075 0.05375141 -0.078590415 -0.026841009 -0.10260915 -0.095029116
-0.10174663 -0.01698112 0.03677264 -0.066293485 -0.086216405 -0.08888577 0.046438716 0.09913235
-0.079094484 -0.085453235 0.05829512 0.10448321 0.0766858 -0.102015115 -0.0007158943 0.09364375
-0.034874666 -0.05578589 -0.019506602 -0.10663577 -0.010292528 0.08562622 0.0874261 0.06473233
00000000: c9ac bebd 1a62 993d 5dd1 cc3c 6e3e 3fbd
00000010: 62f0 98bd 3b1b 083d 6086 ee3c 728d ac3c
00000020: a006 4bbd 9e9b cfbd 45dd bebd be53 b03d
00000030: 9b9c ba3d 3d07 c03d ff8f 5dbd 88f7 06bc
00000040: d569 843c 64d8 da3d 7f8b 963d ca7b 843c
00000050: b070 c63d 0986 b23d 9594 cebd c546 d2bd
00000060: 1a1b ae3d 4f98 4bbd f45a 7bbd 6560 8d3d
00000070: ce52 9d3d 6b11 3abd 95de 7cbd c04a 3b3d
00000080: e973 a0bc 8514 42bc ab23 793d ebe2 9b3d
00000090: 041f 14bc 4d67 efbc 2291 903b c378 dabd
000000a0: 1573 3b3d 96e4 d03d 6f5e d93d 80b3 6e3d
000000b0: 6896 a63d 259a 4a3d 0a16 a63d d40c 92bc
000000c0: 11df ba3c 88d9 ba3d 578b c6bd 4029 943d
000000d0: 7907 ebbc 2799 d53d 72f0 0d3d 08a2 c9bd
000000e0: ffe7 8e3d be90 aebd 18a9 acbd b071 d2bd
000000f0: 6093 523d 801d c33d 3d26 13bc 2494 683d
00000100: 6873 273d 44b4 51bb 719d b0bb 02f4 303d
00000110: 9ea5 85bd c82a 6cbd 5fb4 85bd 2418 c63d
00000120: c17e b23d 90f4 233d 124b 1fbc 9d21 30bd
00000130: 1e6f 0a3d dd07 1abd a195 48bd 1453 d23d
00000140: 0613 88bd 7ae6 dbbd 5b0d bcbd 6442 d03d
00000150: 40d7 f2bc 9ad8 a8ba 0f63 733b 57f1 a9bc
00000160: aaa2 b43b 9581 d63b 9ebc 773d 8f28 b6bd
00000170: 5465 85bd 0ca8 dc3d dcaa cabd 7d07 b2bd
00000180: 3d27 20bd 0f87 083d ec4b c1bd 319a 833d
00000190: e22a 95bd f05d 9e3d 7728 10bd dd70 da3d
000001a0: 8788 c5bd 465a 90bc b23d d93d 0675 553d
000001b0: e55b 833b 9416 bd3d c307 96bd e76b 88bd
000001c0: c8b1 20bc ceca bbbc ba31 d63d d60c 23bd
000001d0: 8e9c 8b3d b832 a93d e0c1 443d f3d4 3cbd
000001e0: e5e2 db3d 0d2c ed3c 54d0 a9bd 5b38 16bd
000001f0: 579f b23c da89 cf3d 1f64 3abd f956 83bd
00000200: b1fa 5d3d 09ab 66bd 1d25 433c 7320 a4bd
00000210: bbb8 bc3c c9b4 51bd 9b18 f3bc 7bee cc3d
00000220: 0ff0 653d 501d 383d cfe5 f53c f513 a43d
00000230: bdb7 9fbd dfcc 81bd 8b8f 12bc 1af0 7e3d
00000240: b840 59bd bd75 bb3d 4022 7fbd 8498 a3bd
00000250: dafa 0c3d ee29 2d3d 4581 9abd bb6f cb3d
00000260: 76eb dd3b 3f58 613d 6074 b0bd 7305 273d
00000270: a323 a6bd 016e 93bd 2b5d a53d 71d7 be3c
00000280: 72d7 4e3c 9fca a63d 0893 30bd def3 acbc
00000290: 9b96 85bd 2119 b93d b212 1abd d889 92bd
000002a0: 2d01 98bd 3a27 5d3d 4547 babb 4e4d 05bd
000002b0: c11f a03d b69c bb3d 7f61 34bc 721b a8bd
000002c0: bf14 2b3d 7348 f43a 21ae 4b3d 9bd8 2f3a
000002d0: 1e74 6c3d 31c0 953d 92a6 babd 408b da3d
000002e0: 2d88 913d 8c66 9fbd 6930 5c3c 1bdf 5f3d
000002f0: 8f11 1fbd d009 42bd 4e0e 883d b029 c23d
00000300: 656f 9bbd ef08 14bd fbde 92bd 6bb3 aa3d
00000310: fe08 2d3d 8407 c63b d8c8 67bd 6b10 bdbd
00000320: 5ed5 68bd a484 263c 5354 883d 895e 7fbd
00000330: 75ba 8cbd 911d bd3d ca83 3bbc a18b 00bc
00000340: 38d8 c23c c8bb abbd f4c8 423d 7668 8e3d
00000350: da58 da3d 4b92 cebd 3a2d 0abd 1601 cc3d
00000360: fd76 973b a38f 3a3d 77eb 9ebd 1e3b bcbd
00000370: baad 56bd 4965 aa3d ce0f cebd 9727 d6bc
00000380: 126d 99bd dfc1 75bd 2ae2 cc3d 702a 5c3d
00000390: 03f4 a0bd ade1 dbbc bf24 d2bd a09e c2bd
000003a0: 8a60 d0bd fd1b 8bbc e89e 163d e1c4 87bd
000003b0: 3a92 b0bd be09 b6bd 8636 3e3d e705 cb3d
000003c0: 4afc a1bd 1b02 afbd ddc6 6e3d 4bfb d53d
000003d0: 720d 9d3d 4ded d0bd daaa 3bba 4bc8 bf3d
000003e0: bdd8 0ebd bf7f 64bd 4fcc 9fbc db63 dabd
000003f0: fea1 28bc cd5c af3d 750c b33d 6292 843d

network.4.bias f4 [21]
-0.1026188 -0.075869754 -0.07446571 0.085871026 0.07691472 0.10741588 -0.104627594 -0.06674959
-0.023847181 -0.024317026 0.087089196 0.08554238 0.03857041 0.0446554 -0.08813966 0.019246168
-0.022262529 0.086759396 0.065064594 0.098071165 0.08154206
00000000: ce29 d2bd 9a61 9bbd 7a81 98bd 26dd af3d
00000010: 7785 9d3d dbfc db3d fe46 d6bd 02b4 88bd
00000020: 2a5b c3bc 8034 c7bc d25b b23d d830 af3d
00000030: 02fc 1d3d 95e8 363d 9182 b4bd 24aa 9d3c
00000040: e85f b6bc e9ae b13d 9640 853d 89d9 c83d
00000050: 86ff a63d

value_head.weight f4 [1, 84]
-0.09897562 -0.01678218 0.09838493 0.062280722 -0.014931078 0.06934838 -0.08997865 -0.10567449
-0.095008016 0.00715733 -0.09495107 -0.072810315 -0.056569904 -0.09076611 -0.063314684 -0.051603958
0.002809989 0.06760924 0.05189639 0.05763498 0.012404481 -0.04418907 0.06640652 0.021732438
0.063087374 0.0775732 0.070251524 0.05873019 -0.095321424 0.048011467 -0.09093226 -0.017678048
0.017861953 -0.03637816 0.0180842 -0.0020798002 -0.091497906 -0.10125287 0.06084296 0.1060353
0.047750745 -0.07807464 -0.040140506 -0.054174233 0.056085568 -0.104029335 0.03348753 -0.020917185
0.06538465 0.04110694 -0.016101053 0.0031147124 -0.04967314 0.01694219 0.059871655 0.0114743775
0.07513836 0.005464261 -0.044651017 -0.08321108 -0.06406395 -0.057553817 0.02639055 0.08921809
-0.054818667 0.024410669 0.08265465 0.09503053 -0.09463114 0.036167346 0.041334987 -0.106842175
0.06961591 -0.013220476 -0.09130019 0.06812183 0.10343931 0.09898994 -0.04488536 0.009864201
-0.05013445 0.002762137 0.01109787 0.011576351
00000000: bbb3 cabd c87a 89bc 0a7e c93d 121a 7f3d
00000010: 7ba1 74bc 8606 8e3d ba46 b8bd de6b d8bd
00000020: 9093 c2bd 0988 ea3b b575 c2bd 931d 95bd
00000030: d8b5 67bd 95e3 b9bd 21ab 81bd ac5e 53bd
00000040: cb27 383b b776 8a3d 4f91 543d a812 6c3d
00000050: 2a3c 4b3c 99ff 34bd 2400 883d 3a08 b23c
00000060: f433 813d b3de 9e3d 08e0 8f3d 118f 703d
00000070: e137 c3bd aca7 443d b13a babd 8ed1 90bc
00000080: 3b53 923c 4401 15bd 5125 943c 424d 08bb
00000090: 4163 bbbd aa5d cfbd 7836 793d 0929 d93d
000000a0: 4996 433d 99e5 9fbd 5f6a 24bd cde5 5dbd
000000b0: fbb9 653d 550d d5bd 382a 093d 845a abbc
000000c0: 63e8 853d c05f 283d 5be6 83bc 3420 4c3b
000000d0: 1076 4bbd 59ca 8a3c fb3b 753d 07ff 3b3c
000000e0: 24e2 993d 8b0d b33b fce3 36bd 926a aabd
000000f0: f633 83bd 8dbd 6bbd ff30 d83c f9b7 b63d
00000100: 8a89 60bd e2f8 c73c d746 a93d 5e9f c23d
00000110: f9cd c1bd 3624 143d e04e 293d 12d0 dabd
00000120: c992 8e3d b29a 58bc 98fb babd 7583 8b3d
00000130: fdd7 d33d 3dbb ca3d b6d9 37bd 759d 213c
00000140: c859 4dbd f804 353b d7d3 353c bcaa 3d3c
