pretrained/blue_agent_episode_250.pt (torch, 248522 bytes, 10 tensors)

cnn.0.weight f4 [5, 5, 3, 3]
00000000: d15a 9b3d ea20 f3bd 2592 d2bd 55b4 99bd
00000010: 9179 61bd c26a 483c 8648 7c3d 5b0a 94bd
00000020: 1acf 163e 53d5 023e 2fdd 9bbc 4618 13be
00000030: 5551 0ebe fc34 023e b842 b139 429f 9abd
00000040: c881 30bd 8eaf cebd 61ae bf3c 83ce f3bd
00000050: 885c 113e b497 63bd 1fb1 463d f238 75bc
00000060: e81a 763d 465f 823b 9a35 bd3d 607b e43d
00000070: 7d08 16bd 5794 8f3c b74c 9b3d 4b7d 52bd
00000080: dd90 c53d e9a2 d13d d8fc b0bd 9572 01be
00000090: 03dd 9abd a995 15be 3dd8 4cbd b1b0 c7bd
000000a0: 8b54 14be 5c44 c6bd 0365 0cbb 3b97 3fbd
000000b0: 67a7 893d f41d 94bc 6ce0 833d c202 f0bd
000000c0: bc83 9fbc ecf1 68bc 4797 04be 1e3d a43d
000000d0: 947c cfbc f4d0 a9bc 1b18 3fbd 83fc 053e
000000e0: df60 97bc 44cb efbd 22fe c7bc d559 7abd
000000f0: 6672 e3bc bd57 1dbe 9237 9e3c 1512 763d
00000100: 7150 163e d4d2 d63d 2330 debd 5034 6b3d
00000110: ff66 05bd 5e3e d4bd 0dd7 ba3d 68d9 933d
00000120: 598f 9cbd 9ed0 d93d b597 19be c7ff ffbc
00000130: f096 be3d 48d0 0ebe 68e7 e4bd a8e1 893d
00000140: 21b9 a0bd 3c67 f2bd bc09 c2bd a756 0f3c
00000150: f13c 623d 26a2 1bbe 094f 5c3b 7188 e0bc
00000160: 866c b2bd 4310 b23d 0adc 02be ce65 513c
00000170: fb93 efba f06e 0dbe feea 66bc 60d6 fdbd
00000180: aaba a6bd e231 93bb e646 b8bd 1ee1 b1bd
00000190: 959a 0dbe 29f5 fabd 1a20 14be 1973 b43d
000001a0: a385 753d 88cc 0c3e 3ac1 c33d 6b8e dcbd
000001b0: 55c1 e6bd 9394 04bd 40a7 edbd 530b c63c
000001c0: 83af 6dbc 5386 6ebd f8f2 973d f54a 813d
000001d0: 5b0f 8e3c 7087 a43d 3f3c 0f3e 0dfb 763d
000001e0: 3906 a43d 9be3 adbd 66d4 643d f12c cebc
000001f0: 2c3e ed3d 62c2 8ebc 53f6 673d b24c cdbd
00000200: 377e f23d 0d00 053d 5178 bf3d c308 50bd
00000210: c8ef dd3d b854 a63d 05e5 943d 8999 74bd
00000220: fbc6 cbbd cd31 97bd ddba 7e3d bb8b 28bc
00000230: ea35 ac3d d6ca 8d3d 70c3 bbbd 1807 b13d
00000240: 8a1b 0abe bf29 6fbd 058b a8bc a30c d03d
00000250: 8f4a 31bd 9d54 c83d c97f 803d fd3a 913c
00000260: 6266 b5bc 872f 093d 9340 09be 1a16 623d
00000270: b918 15bd d581 d3bd 81c9 813d fe1d 053d
00000280: d8c1 fa3d 1395 173e 0707 173e d6da 5abd
00000290: b46f ee3d 7265 833c febd f1bd 0866 a6bd
000002a0: cc9d c63d 5059 0d3d 4143 0e3e 9a56 9f3c
000002b0: 6b22 2b3d 63df 983d c22a 10bd 3949 1ebd
000002c0: e909 9fbd af37 033e dd55 113e a954 063e
000002d0: 0d04 f73d 4832 8cbd 3dec e93d 0936 1f3e
000002e0: 3e08 78bd 3a47 05be df97 1b3e 4d06 163e
000002f0: 44cf 083d 4c64 be3d 853a 40bd 1d0a 08be
00000300: de31 5abc f7ee efbd 9af1 e63d 1326 53bd
00000310: 9dc3 113e f1a0 9b3c 13ab f63d 5147 df3b
00000320: 4309 af3c 4f72 7e3c df20 e13d b88c 2bbd
00000330: f806 d93d 9169 c23c 259f b03d cf0e 293e
00000340: 2fa6 7d3c f138 093d c43c f0bc 3458 b83d
00000350: 9213 2c3e b2eb 8d3c 3da0 903c 9565 eebb
00000360: 1887 d5bd d7cc 1f3e fbe4 06be 6fc5 febd
00000370: 7bf1 edbd de1b 823d 87ed f33b f50c 7e3d
00000380: 1815 e73b
0.07585681 -0.11871512 -0.10281781 -0.07505099 -0.055047575 0.012232484 0.0615926 -0.07228538
0.1472744 0.12776689 -0.019026367 -0.14364728 -0.13898213 0.12715524 0.0003380978 -0.07549907
-0.04309252 -0.10092078 0.02339858 -0.11904623 0.14195454 -0.055564597 0.04850876 -0.01496719
0.060084254 0.0039786426 0.09238739 0.111563444 -0.03662919 0.017526789 0.075829916 -0.05138902
0.09646771 0.10236151 -0.08641976 -0.12641366 -0.07561686 -0.14607872 -0.05001091 -0.09750498
-0.14485376 -0.09681007 -0.0021422512 -0.046775084 0.067213826 -0.018080689 0.064392895 -0.11719276
-0.019471996 -0.014217835 -0.12948333 0.0801947 -0.025327958 -0.02072952 -0.04665385 0.13084607
-0.018478809 -0.11708692 -0.024413172 -0.061120827 -0.02776451 -0.15365501 0.019313607 0.060075838
0.14679123 0.10489431 -0.10849025 0.057422936 -0.032568928 -0.10363458 0.09123049 0.07219201
-0.07644529 0.10635494 -0.14999278 -0.031249894 0.09306133 -0.1394664 -0.1117695 0.06732494
-0.078478105 -0.11836097 -0.09474513 0.008748687 0.0552339 -0.15198573 0.0033616445 -0.02740881
-0.087121055 0.08694508 -0.1277925 0.01278062 -0.0018278355 -0.1381185 -0.014094112 -0.123944044
-0.08141072 -0.0044920305 -0.08997898 -0.08685516 -0.138285 -0.12253792 -0.14465371 0.08811016
0.0599419 0.13749897 0.095583394 -0.107693516 -0.11267344 -0.032368254 -0.11604166 0.024175322
-0.014507177 -0.05823357 0.074193895 0.06313125 0.017341306 0.08033645 0.13987826 0.060298014
0.080089994 -0.08490678 0.05586662 -0.025167914 0.11584124 -0.017426673 0.056631397 -0.10024394
0.1184048 0.03247075 0.093491204 -0.050789606 0.1083675 0.081216276 0.072702445 -0.059716735
-0.09950062 -0.073825456 0.062189925 -0.010287221 0.08408721 0.069234535 -0.09168136 0.08643931
-0.13487068 -0.05838942 -0.020574102 0.1015866 -0.043283995 0.09781764 0.06274373 0.017728323
-0.022143546 0.03349259 -0.1340354 0.05519686 -0.03640053 -0.10327498 0.06337262 0.032499306
0.12244004 0.14802961 0.14748774 -0.053431354 0.116423994 0.016039584 -0.11803816 -0.0812493
0.09698066 0.034509003 0.13892843 0.019450475 0.04178087 0.07464483 -0.035197027 -0.03864405
-0.07765562 0.1281421 0.1419291 0.13118233 0.120613195 -0.06845528 0.11422012 0.15547957
-0.060554735 -0.13015452 0.15194653 0.14650841 0.03340079 0.09296474 -0.04693081 -0.13285108
-0.013317553 -0.11715501 0.112765506 -0.051549982 0.14234777 0.018997641 0.120443486 0.0068139215
0.021366721 0.015530183 0.10992598 -0.041882247 0.10597032 0.023731979 0.086241044 0.16509555
0.015481516 0.03350157 -0.02932585 0.090011984 0.1680434 0.017324302 0.017654533 -0.007275293
-0.10426158 0.15605484 -0.13173287 -0.12440001 -0.11618324 0.063529715 0.007444087 0.062024076
0.007052075

cnn.0.bias f4 [5]
00000000: 2f87 083d ac2a c23d 3910 eb3c cbcd 22bd
00000010: 0333 c0bd
0.033332046 0.09480795 0.028694259 -0.03974704 -0.0938473

cnn.2.weight f4 [5, 5, 3, 3]
00000000: 72a3 0fbd 1bbe e5bd fb36 fb3d e431 c43a
00000010: bb6c 963d c7b0 a53d c1e9 db3c 8046 eebd
00000020: bf29 b23c 8c1e 12be 6593 8dbd 2bf4 043e
00000030: 29f4 0d3d 54e6 54bd c774 093e 6726 a6bc
00000040: 361b 1d3e 939b 133e a4b5 b4bd 2973 153d
00000050: 052d 30bd 6d4a bc3d cbdf 0cbe d6df 17bc
00000060: 4434 ba3d 3313 d3bd ae82 c6bd 9563 a7bd
00000070: 4b5a 953d bfed 6dbd 6754 8fbd 5e20 a23d
00000080: 5f22 2f3c 5aab 67bd 9f67 a63c d09c fa3d
00000090: 9e16 9dbd cc40 9f3d 1777 a3bc f7e8 ed3d
000000a0: aa88 e93d 735c 09be 924b 4b3d bc3a c7bd
000000b0: 9263 25bd 60a8 e8bc ca57 8c3d a432 0a3d
000000c0: b8eb efbd d58d c33d 4be5 ab3d ce2d 11bd
000000d0: b3c2 e4bd ade2 043e b764 fabd d51b e5bd
000000e0: b61b 193d 3c1b 86bd 51fe 543d 90ae f0bd
000000f0: f070 97bd f03d 183e 7ca9 203e 0f25 0a3e
00000100: 6321 9ebd 43f1 d83d 5e2e dfbd 9f2a d73d
00000110: 3913 a5bd a224 123d caa8 f8bc 868f 013d
00000120: 33f2 6f3d 3a3e 9e3d 856f e5bd 33c8 f2bd
00000130: be31 8fbd 0747 c5bd e212 903c 8873 39bd
00000140: b57f dd3c 94e1 cabb 0f3e 9d3d 9dfa 903d
00000150: e7be 093e e24a 303e fde6 49bd 0c3c 9d3c
00000160: 6aba 2f3d 3bf7 163e 53fd 3d3d 6eab 1d3e
00000170: 75a1 2a3c 3128 eb3d 1ce3 a1bd 6f50 2e3d
00000180: d088 b2bd 35e6 f1bd c5af df3c fc2d dbbd
00000190: a9f5 cbbc 4a0c b43d 21cc eb3d 4176 c5bd
000001a0: 8bc9 e63d bb67 bd3d a184 dabd aaef f6bb
000001b0: dba4 6dbd d177 d1bd 7bac e4bc 9c78 7f3d
000001c0: ec1c 7d3d 41ff f1bd 4c03 4d3d fcff 8f3d
000001d0: 2488 ecbd 7136 7f3c 3622 143d b4c0 c7bd
000001e0: 8953 94bc 8bcb 163e 607d d13d f41c 9a3d
000001f0: 0f1b e5bb c042 213e 4e4d e3bc 0d62 babd
00000200: ca39 1a3e 853c 883d 199c 5cbd 05c6 c33d
00000210: c746 293e 6939 e93d 99aa e83d 3bc8 1ebd
00000220: d28c 16bd dc17 ebbd 9ee4 da3d 6632 ac3d
00000230: f229 8f3d 70cf 95bc 88de 843d 3f85 94bd
00000240: 0af6 3d3d 2cd3 5b3d 584f 0dbe 716a 3c3d
00000250: 2996 e1bd 9337 09be 1734 9d3d e01c c33d
00000260: 5904 f23d 142f d63c 7c86 92bd 9aae 213d
00000270: 47b4 923b 8849 df3d cc2c a9bc 6c06 f43d
00000280: 867e bfbd 2750 0bbe 6db0 573d 6089 df3c
00000290: 4a14 043e 8039 3e3d 88ca 033e 1c5c 84bd
000002a0: 5573 33bd 892c 89bd 12a4 9c3c 5efa f1bd
000002b0: 0674 063e 16dc 1e3e 8c1f 893c 869c a8bc
000002c0: da0d 003e 2591 b23d 5c97 94bd 37e3 97bc
000002d0: c386 a43d a194 9ebd 231e 24bd 13a4 e3bd
000002e0: 11a5 c13d 7599 e6bd 2b1e 6cbc 8c57 1f3e
000002f0: f126 f33d 000f 253e d610 4c3d f24a 8e3d
00000300: ed0b 323c 1f31 66bd 7977 013e dbf5 5a3c
00000310: 0e02 1cbd dab8 c9bd cbab b33d 8ef2 433b
00000320: 83ea c93d 92f3 d73d 3eab d63d 423e d5bd
00000330: 9f15 9f3d 8a06 423c 4b11 2bbb 6834 e53c
00000340: 623a e43d e778 b0bd f237 9a3d 6740 df3d
00000350: f01a c53d 3780 e03d f7d2 bbbd bf2c 86bd
00000360: 726f 243d a397 28bb 20ea 3c3d 97ef 213e
00000370: 5d64 f73d 6b70 2a3d de02 b73c c389 febd
00000380: 9152 dd3c
-0.035067983 -0.112179 0.12266346 0.0014968482 0.073449574 0.08090358 0.026844861 -0.116345406
0.021748422 -0.14269465 -0.06912879 0.12983768 0.034656677 -0.05197747 0.13423453 -0.020281984
0.15342411 0.14414816 -0.08823708 0.03648678 -0.043011684 0.09193883 -0.13757245 -0.009269675
0.09092 -0.10306396 -0.09692894 -0.08173291 0.07292613 -0.05808806 -0.0699852 0.0791633
0.010689347 -0.056559898 0.020313082 0.12236941 -0.076703295 0.07776031 -0.019954247 0.116167
0.1140302 -0.13414173 0.049632616 -0.097279996 -0.04037816 -0.0284006 0.06852682 0.0337397
-0.11714882 0.09548537 0.083933435 -0.035444073 -0.111699484 0.12977095 -0.12226241 -0.11186949
0.037379943 -0.06548163 0.052000348 -0.11752045 -0.07394588 0.14867377 0.15689653 0.13490699
-0.07721212 0.10592892 -0.10897516 0.10506176 -0.08060307 0.035679467 -0.030353922 0.031631015
0.05858059 0.077267125 -0.11202911 -0.11854591 -0.069919094 -0.09632688 0.017587129 -0.045276195
0.027038435 -0.006191442 0.07677852 0.07079051 0.1345173 0.17216066 -0.049292553 0.019193672
0.042902388 0.14742748 0.046384167 0.15397426 0.010414471 0.11482275 -0.07904646 0.042557176
-0.08717501 -0.11811487 0.027305493 -0.1070213 -0.024897413 0.087914065 0.11513544 -0.09641696
0.1126891 0.09248301 -0.10669828 -0.0075358944 -0.058018547 -0.10227931 -0.027914276 0.06237088
0.06179516 -0.11816264 0.050051972 0.07031247 -0.11549404 0.015576945 0.03616544 -0.09753552
-0.018106239 0.14726083 0.102289915 0.075250536 -0.006991751 0.1574812 -0.027746823 -0.09100733
0.15061107 0.06652168 -0.053859804 0.095592536 0.16530906 0.11387903 0.11360664 -0.038765173
-0.03675539 -0.1147916 0.106881365 0.0840805 0.06990422 -0.01828739 0.06487757 -0.07251977
0.04637722 0.053668186 -0.13799798 0.045999948 -0.11014969 -0.13400106 0.07675951 0.09526992
0.118172355 0.026145495 -0.07154557 0.039473154 0.004477057 0.10902697 -0.020651244 0.119152874
-0.09350304 -0.13604794 0.052658487 0.027287185 0.12898365 0.046441555 0.12870228 -0.06462881
-0.04381116 -0.066979475 0.019121204 -0.11815332 0.13130197 0.15513644 0.016738676 -0.020582449
0.12505284 0.0871909 -0.07255432 -0.018540962 0.08033516 -0.077431925 -0.040067803 -0.11115279
0.09455312 -0.11259738 -0.0144114895 0.1556074 0.11872662 0.16119003 0.049820744 0.069478884
0.010867101 -0.05619919 0.12643231 0.013364281 -0.038087897 -0.09849711 0.08773001 0.0029899213
0.09859183 0.10544504 0.104818806 -0.10412265 0.07767796 0.011842379 -0.0026102837 0.02797909
0.11143948 -0.0861681 0.07530202 0.10900956 0.096242785 0.10961955 -0.09171098 -0.065515034
0.040145345 -0.0025725148 0.046121716 0.15814053 0.1207969 0.041611116 0.022340234 -0.1242862
0.02701691

cnn.2.bias f4 [5]
00000000: 295e 8bbd 3089 253e c243 e63d 1c68 c7bd
00000010: 7d57 3dbc
-0.06805069 0.16165614 0.112433925 -0.09736654 -0.011556503

network.0.weight f4 [120, 405]
00000000: 797b c6bb c134 cd3c 7983 45bc 85be 79bc
00000010: 2456 943c e68e 30bd 1505 0dbd bd24 44bd
00000020: a36e 4fbb 58b3 f53c b828 023d 1a6f 02bd
00000030: 707d bebc c19e 333c 31ff 09bd 36e6 943c
00000040: 40c6 243d 6df4 333d 1f65 f03c ba33 15bc
00000050: ccca 0ebd 5a0b 42bd f5f9 d9bb 3b87 0dbd
00000060: 501a 29bd e152 c63c 4b2a 4abd 71bc 2c3d
00000070: 54c8 a63b f276 293d 49bd d6bc c988 463d
00000080: 10c3 09bd 3262 e43c e13b f13c 40b0 373d
00000090: 1804 04bd c2a1 22bc 44e6 91bc bdac ce3c
000000a0: 30b2 293d d741 c83b 5ab4 8cbc d930 273d
000000b0: 8eb8 0cbd 82d4 e33c e2ae 0f3d d4e2 24bd
000000c0: fb95 a4ba 1db8 e13b 284c bf3c 5798 313d
000000d0: 4dd8 de3b 196b c13b c90e 1a3c 7a18 29bd
000000e0: 0374 3e3d 7aa8 033c 9ce3 4a3d 8e5f cc3c
000000f0: eafd a63c 209c a23b 81be 193d a214 e33c
00000100: 4848 dbba d4b1 19bd 8528 01bc 8e46 e53c
00000110: 247d 1cbd 4e55 b9bb c1a5 e13c 4130 ed3c
00000120: 2e72 a5bc e0fd 87bc 4d10 b83b b19f 2e3b
00000130: 4a4a 643c 17bf 263d aa5a 373d 0e53 313d
00000140: c6e9 703c c0e2 243d bec6 743c 7d1a 423c
00000150: 62ec 12bd 3748 d5bc efb8 9ebc f753 14bd
00000160: 500a debc 448f 14bd 4c41 993c 2c4d e0bc
00000170: a297 be3c f2af 133c a37e 363c 8444 0a3d
00000180: b0bd ce3c 3213 ad3b 08d9 43bd 7d5c 083c
00000190: 2bb9 22bd d527 14bd 893e 0e3d 5885 f2bc
000001a0: 352f 973c 6713 cebc 5a14 e43c 74b4 2c3d
000001b0: a2aa c23b 6283 273c e5ae 233d c386 47bb
000001c0: 3ed6 82b9 388a 913c 73fb 2bbd 59e2 bb3c
000001d0: 720d c2bc 2c01 003d 91b4 4d3d 265d 01bd
000001e0: 4861 613c bcdc 1d3d 695c 1d3d 76b9 c1bc
000001f0: 8602 abbb 8c2f 19bd 08ce 21bd 5a2d 273d
00000200: 920b 913b e93c b2bc 0571 7d3c 133e f6bc
00000210: d04e 3fbd 030c b23b bf29 05bd 00a6 0ebd
00000220: aeef 823c 2775 f93b a6c1 a53c c520 25bd
00000230: 93e6 d83b 708c debc 1362 513c 8785 863c
00000240: c956 2f3c 8bd7 b23c 940d c53c 55e5 d7bc
00000250: 0ee0 99bc 8f8c f6bc 9c5c b33c ac30 f2bc
00000260: 1fd9 6e3c 0a98 9dbc d18b 42bc af3d c7bb
00000270: d615 03bd 794b 1f3d c997 63bb 6d70 4a3d
00000280: d1e5 263b 2493 a13c 5b96 dd3c 8f56 0e3d
00000290: a7ff 4b3d 9cf4 923c 82e8 303d 521e bc3b
000002a0: 92a6 cbbc 3de9 bfbc e15a d3bc bab7 973c
000002b0: 1494 b2bc 0f3a ba3b be45 1abc 7415 70bc
000002c0: 1d23 b33c fff9 d6bc 1b67 4c3d f845 893c
000002d0: c5d8 aebc 4a8d b63c 4d88 2c3d 1b19 bebc
000002e0: e50d db3c 7db4 aa3c b75b 19bd 4bd6 adbc
000002f0: 7c62 8e3c 4813 20bd ef17 2b3d d03b 2ebd
00000300: 82d9 31bc 8ffa df3c a595 b0ba a4c4 013d
00000310: 7ed9 3abd 92ba 88ba 8f22 28bd 86ff e1bc
00000320: c9a8 ffbc 2f36 3e3d 6bc9 cbbc 0050 413d
00000330: 6b64 1abd d307 04bd 8014 b93c 7c53 203d
00000340: 47a2 9b3c ef74 a1bc 4543 1dbd 602d 433d
00000350: db6d 803c 1ddd 483d 6ad5 4ebc 7c71 413d
00000360: 1654 943b ef9f 24bd eef2 1dbd fa42 a23a
00000370: 1e09 23bd 0aab f53c fb61 8c3a 771f fd3c
00000380: b6a7 d83c 0a4d 933a 379f adbc 494c 3fbd
00000390: 91b6 843b 2c94 c7bc 2f9e fe3c 8a2d 10bc
000003a0: ba47 dd3c 2b35 d23c b198 19bd d20f e73b
000003b0: f5a5 3a3c 4cf8 433d ae2a 6fba 23e2 0f3d
000003c0: dd80 a33b fffb bd3c 4cf9 0bbd 42bb 54bc
000003d0: bfe3 f43c 4663 80bc c49b 11bd 37e7 9d3c
000003e0: fafc 3fbd ef46 2dbd fdbc 3e3d facf f7bc
000003f0: 609f e63b 20c3 9b3c dae6 a13b ced6 42bd
-0.0060571996 0.02504957 -0.012055271 -0.015243177 0.018107481 -0.04310503 -0.034428675 -0.0478866
-0.0031651638 0.029992744 0.031777114 -0.031844236 -0.023253173 0.010963143 -0.033690635 0.01817618
0.04022813 0.043934274 0.029345093 -0.009106571 -0.03486137 -0.047374107 -0.0066521117 -0.034552794
-0.04128486 0.024209442 -0.04935674 0.0421719 0.005089799 0.0413732 -0.026213305 0.048470292
-0.03363329 0.027878854 0.029447498 0.04484582 -0.032230467 -0.009926261 -0.017809995 0.025228852
0.0414297 0.0061113643 -0.017175842 0.04081807 -0.034355693 0.027811293 0.03507889 -0.040255383
-0.0012556905 0.006888403 0.023351744 0.043358173 0.0068006874 0.0059026596 0.009402939 -0.04128311
0.046497356 0.008035773 0.04953347 0.024947908 0.020384748 0.004962459 0.037535194 0.0277198
-0.0016729916 -0.037523106 -0.007883196 0.027987745 -0.03820528 -0.005655921 0.027544858 0.028953673
-0.020196047 -0.01660055 0.0056171776 0.0026645476 0.0139337275 0.04070958 0.0447642 0.043292098
0.014704173 0.04025531 0.014939962 0.011847136 -0.035869963 -0.026035411 -0.019375293 -0.036212888
-0.027104527 -0.03626944 0.018707894 -0.027380548 0.023265664 0.009014117 0.011138591 0.033756748
0.025236934 0.0052818293 -0.0478144 0.008322832 -0.03972737 -0.0361708 0.034727607 -0.029604599
0.018455127 -0.025155736 0.027841736 0.04216428 0.005940751 0.010224195 0.039961714 -0.0030445314
-0.00024955155 0.017766103 -0.041987848 0.02293508 -0.023688052 0.031251118 0.05022103 -0.031582974
0.013756104 0.038540587 0.038418207 -0.023648005 -0.0052188067 -0.03739886 -0.039503127 0.040814735
0.004426428 -0.02175756 0.0154688405 -0.030058896 -0.04670602 0.005433561 -0.032510515 -0.03482628
0.015983429 0.0076128426 0.02023394 -0.040314455 0.0066192835 -0.027166575 0.01277973 0.016421093
0.010701844 0.021831295 0.024054326 -0.026354471 -0.018783595 -0.03009632 0.021894746 -0.029564224
0.014578133 -0.019237537 -0.011874155 -0.0060803513 -0.032003246 0.038890336 -0.0034727922 0.049423624
0.002546657 0.019723482 0.027049234 0.034750517 0.049804356 0.017938904 0.043190487 0.005740919
-0.0248597 -0.023426646 -0.02580017 0.018520225 -0.021799125 0.0056831907 -0.009416042 -0.014653552
0.02186733 -0.026242254 0.049903017 0.016756997 -0.021343598 0.022284169 0.042122174 -0.02320533
0.026740024 0.020838017 -0.03744098 -0.021220347 0.017380945 -0.039080888 0.04177087 -0.04253751
-0.010855081 0.027341155 -0.0013472332 0.03168167 -0.045617573 -0.0010431579 -0.041048583 -0.027587663
-0.031208413 0.046438392 -0.024876317 0.047195435 -0.037693422 -0.032234024 0.022592783 0.039142117
0.018998278 -0.019709079 -0.03839423 0.047650695 0.015677383 0.049038995 -0.012624124 0.047227368
0.0045266254 -0.040191587 -0.038561754 0.001237958 -0.039803617 0.029988784 0.0010710353 0.030898793
0.026447158 0.0011238169 -0.021194084 -0.04670361 0.004050084 -0.024362646 0.031081287 -0.00879992
0.027011741 0.025660118 -0.037499133 0.0070514465 0.011392106 0.047844216 -0.0009123486 0.03512777
0.004989727 0.02319145 -0.034173295 -0.012984099 0.029893754 -0.015672337 -0.03554894 0.01927529
-0.046872117 -0.042303976 0.046566952 -0.030250538 0.007038042 0.019013941 0.0049408497 -0.047568135

network.0.bias f4 [120]
00000000: badf 8d3c b73d da3c 814d b93c ba2b bf3b
00000010: 6d66 ab3c 1b0b 36bc 6386 8f3b b83f f63c
00000020: a25d 64bc c0d5 2e3d 9543 22bc 91a1 b53c
00000030: 939a 873c 620f 803a bd82 afbc de88 3cbd
00000040: 6fd0 ae3c 49f7 b13c 5482 ca3c 6f2b 193d
00000050: 75ec 793c 71af 783d fa48 eabc 5382 433d
00000060: 57d1 75bc 483e 4cbc f272 c63c 4965 2abc
00000070: 02da 173d 6ad0 25bb 52d6 bdbc 31c8 21bd
00000080: 6f88 08bd d185 84bc 7dc1 363d c7fd cfbc
00000090: c244 4bbc c68f 1c3d 8cd2 cfba 31d7 0bbd
000000a0: 82ba 84bc 539b 853c d081 22bc 0645 243c
000000b0: e346 ffbc 6c9d eebc 931c c03c 6fce 403c
000000c0: 6ac9 933c f79d 01bd b968 a4bc 3a1f adbc
000000d0: 7a81 8bbc 434e 3d3d 20d5 d9bc 1e99 7ebc
000000e0: 1dfa cdbc 7dec 12bd 7465 3bbd f8c1 85bb
000000f0: d0f3 10bd 1ada a2bb 4ee0 263d 5de2 e83c
00000100: c26e eebb 81a6 4cbd e8bf 31bc 2a67 c9bc
00000110: 7882 0b3c 320d 8d3b f519 48bd 2325 09bd
00000120: e534 e83c 2e53 adbc 78c9 ffbc 2a97 80bc
00000130: c101 90bc 102d 743c 3253 2abd c324 dfbc
00000140: 5304 d03b 5efb 983c 2037 d6bc 37af 2cbc
00000150: 6151 003c da38 9dbb 6d04 873a ef2c 263d
00000160: cb20 223c 2747 4bbc c0d6 26bd 726d cbbb
00000170: a52d 093a abfb 3fbd e431 0d3c 5c29 49bd
00000180: 8bc2 b4ba 44c2 833c 8177 413d da28 ad3c
00000190: 6d2b e3bc 7bb4 54bc 472f 0d3d 06f8 4f3d
000001a0: 8966 10bd 8662 5b3d 6507 ea3c 7540 3bbd
000001b0: 2b83 1ebd bf84 69bb 9ce4 503d 3ff6 3fbd
000001c0: 68f6 5e3d 9672 c63c 674d 553c 54d8 ac3b
000001d0: 7303 30b9 05b2 a83c d606 433c c03c 0f3d
0.017318595 0.026640756 0.022619965 0.00583407 0.020922864 -0.011111046 0.004380034 0.03005968
-0.013938339 0.042684317 -0.009903808 0.022171767 0.016553199 0.000977021 -0.021424646 -0.046028964
0.021339623 0.02172436 0.024720348 0.037394937 0.01525413 0.06071419 -0.028599251 0.04773171
-0.015003524 -0.012466021 0.024224732 -0.010400125 0.037073143 -0.0025301226 -0.023173485 -0.039497558
-0.03333324 -0.01617709 0.04461812 -0.025389565 -0.01240653 0.03822305 -0.0015855595 -0.03414077
-0.016202215 0.016309416 -0.009918645 0.010026222 -0.031161731 -0.029127799 0.023451125 0.011767968
0.018040378 -0.031644788 -0.020069467 -0.021133054 -0.017029513 0.046217214 -0.026590884 -0.015539436
-0.025143677 -0.035870064 -0.04575105 -0.004081961 -0.035388768 -0.0049698474 0.040741257 0.02842825
-0.007276387 -0.049963478 -0.010848977 -0.024585325 0.008514993 0.0043045515 -0.04885288 -0.033482682
0.028345535 -0.021157827 -0.031223997 -0.01569708 -0.017578961 0.014903322 -0.041583247 -0.027239209
0.0063481717 0.018674549 -0.026149333 -0.010539821 0.007831902 -0.004798037 0.0010301002 0.040570196
0.009895514 -0.012407101 -0.040732145 -0.0062081153 0.0005232937 -0.04687087 0.008617852 -0.04911171
-0.0013790888 0.016083844 0.04723311 0.021137644 -0.027730668 -0.012982483 0.034468915 0.050773643
-0.035254035 0.053560756 0.02856798 -0.045715768 -0.03869931 -0.0035632101 0.05099927 -0.046865698
0.05443421 0.02422456 0.013018942 0.0052748118 -0.00016785953 0.020592699 0.011903485 0.034970045

network.2.weight f4 [84, 120]
00000000: 7eca f93c dc75 16bc 40e8 553d ba9d a5bd
00000010: 020b 41bd 68a1 b7bd 2ba0 b5ba cfa6 97bd
00000020: 468a 9abc f51a 4a3d 26f5 443a 4323 1cbd
00000030: f37d 1a3d 9b6c a53c c3d7 eabb f2a1 93bd
00000040: 9f68 96bb 660d 0ebd 3fc3 403b ea1a 05bb
00000050: 64b3 5e3d d4fe 03bb 772b a93c 00d5 783c
00000060: 9a72 85bd ab53 9ebd fb4d dabc 1fe5 f73c
00000070: a996 31bc ed14 413d 4287 a33b 02cc 5fbd
00000080: 4903 acbd 4bee 1b3d 7883 a03d 7d1e 053d
00000090: e2b2 7cbd b735 383d 9d4b 963d 8b41 9dbd
000000a0: 0228 abbd 595c 773c 1157 e2bc d223 953d
000000b0: be91 6dbd b46e 52bb ff97 b8bd 376e a73d
000000c0: 43f7 b2bd 1574 8dbc c87a a23c 30c1 c9bc
000000d0: 8a69 0dbc e873 20bd 712b 983c 77b3 63bc
000000e0: d955 38bd 2ced a1bd 5fec 0bbd 24d0 2f3d
000000f0: 9503 a93d 82e5 8fbd 828d 773b a805 dab9
00000100: 5315 3d3d bc02 6bbd cb34 243d 25a2 4fbc
00000110: c7a4 b23c 2ed8 fabc b03c 873d 69bd 94bd
00000120: 24bd a43d 08a9 0dbc 6b34 93bd 62b8 843d
00000130: ad3f 8a3d 753e a4bd e373 1a3d 3140 55bd
00000140: 6370 a63c 578a 9f3d 9c44 9cbd 670d 6a3d
00000150: a675 35bd c409 e5bc ba03 9fbd 5dc6 76bd
00000160: f2c3 82bd cc67 07bd b2d4 a4bd 6244 2f3d
00000170: 1eb6 06bd 6897 ab3d e00a 26bc a641 4a3d
00000180: 9bf4 863b 5d5f a7bd 03bd 4dbd 7fd8 fabc
00000190: 1d1e 3ebd ac6a 83bb 46f0 67bc 60a9 4e3d
000001a0: 8a6f 023b a715 813d ba27 39bd 7481 61bc
000001b0: 5699 68bd 6311 c4bc aded 5a3d 5d69 91bd
000001c0: fe7c cf3c 5d0a ac3d 5d01 d53c fe24 b3bc
000001d0: c5ad b33d cb9c acbd a330 46bc 5e38 a73d
000001e0: 5d72 f33c 02c6 583d 5d7b 453d ad0f 813d
000001f0: 2379 cdbc 7332 afbd 4bb9 963d d5cf 2cbd
00000200: 107a 853d ab8c fbbb 665d 7f3d 9a81 1dbd
00000210: 12ae 8a3d e7d1 1bbd 09db 783b f1e6 523d
00000220: 45da 74bd b06d cebc 9324 9bbd 2338 53bd
00000230: 1393 2dbd f2c1 8fbd b04b b03d 48f6 8abc
00000240: ba64 93bb 6ba6 06bd 2ea4 973b 5527 603c
00000250: c806 7a3d 69aa b6bc 6c17 95bd c2f8 3e3d
00000260: ef99 803c 2ead 523c 8498 843c 5912 b33d
00000270: f06d aabd 09b4 b93d e074 cebc 7829 fb3c
00000280: 8f60 0e3d de48 e83b 2650 83bc 5c53 543d
00000290: 25af 053d e774 9abc 830b 40bd bcb7 91bd
000002a0: 6a51 f7bc db6a 003d 6960 bfbc 50e1 01bd
000002b0: 2891 673b b4fe 113d b65b 0a3d 4ccc f6bc
000002c0: 739b f43c 07ff 2a3c 7e37 f0bc 802c adbd
000002d0: 7a8a 083d 0f1e a33d 4363 39bd 720e 6e3c
000002e0: 442e 6a3c 645c b0bd ce56 aa3d 197f 893d
000002f0: eb2b 07bd 435b 393d 0145 5b3d 6add a2bd
00000300: c2e8 ae3c 1e4a 0ebd ace0 a8bd e343 663b
00000310: 687b a5bd a2ce 893d 835f 07bd c2f8 80bd
00000320: b217 ce3b e941 52bd 9087 7cbd 1c3e 8abd
00000330: dcc8 cebc 349e 67bc 480b aabd d5da edbc
00000340: 4a40 1bbd baf5 a33d c4a4 72ba d914 a7ba
00000350: 4a1d dc3c 3344 a2bc 85e4 9d3c e25f 90bd
00000360: 4d45 b2bd d93d af3c 65cd a83d 4a73 51bd
00000370: ec42 12bb dd5a b73c f42e ad3d 5096 db3c
00000380: 52dd b1bb 7a63 263c e21b 983d a4f8 9a3d
00000390: 08ea 9b3d 3afc 8cbc a365 26bc 033c aabd
000003a0: c195 763d f731 a63d f269 b6bd 7c44 1e3b
000003b0: 286e 4cbc 4f42 a23b 1e4d 2c3d c0a8 9c3d
000003c0: 6914 a63c e592 94bc 139c 1fbd 5464 43bc
000003d0: 46ae 603d 5146 a83d 1f9e 373c ac1a 873d
000003e0: 6309 73bc abb5 063d 57d6 b4bc 5ffc 3ebb
000003f0: 10aa a73d 72ac 423b 8434 913c 73c8 883d
0.030492064 -0.009183373 0.052223444 -0.080867246 -0.04712964 -0.08966333 -0.0013856938 -0.07404863
-0.018864762 0.049342114 0.00075133366 -0.038119566 0.03771777 0.020193389 -0.007166834 -0.07208623
-0.0045901085 -0.034680746 0.002941325 -0.0020310231 0.0543703 -0.0020140903 0.020650608 0.015187502
-0.06515999 -0.07730802 -0.026648512 0.03026062 -0.010839143 0.047139097 0.004990489 -0.054637916
-0.08399064 0.03806905 0.07837576 0.03249978 -0.061694033 0.0449731 0.07338641 -0.07678517
-0.0835724 0.015097701 -0.027629407 0.07282223 -0.05800032 -0.0032109441 -0.09013366 0.08175319
-0.08738568 -0.017267266 0.019833937 -0.024628252 -0.0086311195 -0.039173037 0.018575402 -0.013897768
-0.045003746 -0.07906565 -0.034160968 0.042923108 0.08252636 -0.07026197 0.0037773554 -0.00041584414
0.046162914 -0.057375655 0.04008941 -0.012672936 0.021807088 -0.03062066 0.06603372 -0.072626896
0.08043888 -0.008646257 -0.07187732 0.06480481 0.067504264 -0.08019725 0.037708174 -0.05206317
0.020317262 0.07790058 -0.07630274 0.057141688 -0.04430165 -0.027958758 -0.07764383 -0.060247768
-0.0638503 -0.033057973 -0.08048381 0.042789824 -0.032888524 0.08378488 -0.010134429 0.049379013
0.0041185147 -0.08172486 -0.050229084 -0.030620812 -0.046415437 -0.004010519 -0.014156407 0.050454497
0.0019902908 0.06302958 -0.0452039 -0.013763774 -0.056786858 -0.023934072 0.05344932 -0.071001746
0.025328156 0.08400414 0.026001627 -0.021868225 0.08773378 -0.084283434 -0.012096557 0.08165048
0.029717619 0.05292321 0.04821335 0.06301818 -0.025082177 -0.08554544 0.073595606 -0.04219039
0.06517422 -0.007676681 0.06234493 -0.038453676 0.067714825 -0.038041975 0.0037972352 0.051489774
-0.05977847 -0.025198787 -0.07575335 -0.051567208 -0.04237659 -0.07019414 0.08608186 -0.01696314
-0.0044980915 -0.032873552 0.004627726 0.0136812525 0.061041623 -0.022298055 -0.07279858 0.046623953
0.015698401 0.012858672 0.016186006 0.08743734 -0.0832175 0.09067542 -0.025202215 0.030659422
0.034760054 0.0070887646 -0.016029429 0.05183731 0.032637734 -0.018854572 -0.04688598 -0.07115123
-0.030190188 0.031351905 -0.023361402 -0.031709015 0.0035334323 0.035643294 0.03377887 -0.030126713
0.02985928 0.01043678 -0.029323336 -0.08455753 0.033335187 0.079647176 -0.04526068 0.014529811
0.014293257 -0.08611372 0.08317338 0.06713695 -0.033000868 0.04525305 0.053532604 -0.07952388
0.021351222 -0.034738652 -0.08245978 0.0035135678 -0.080801785 0.06728865 -0.03305007 -0.06297447
0.006289446 -0.051332388 -0.06165272 -0.06750128 -0.025242262 -0.01413684 -0.08302933 -0.029035011
-0.037903108 0.08005853 -0.00092561194 -0.0012747302 0.026869435 -0.01980791 0.019274006 -0.07049538
-0.08704624 0.021391796 0.08242301 -0.05113534 -0.002231772 0.022382194 0.08456221 0.026805073
-0.0054279948 0.010155553 0.07427193 0.07566956 0.07612997 -0.017210115 -0.010156068 -0.083122276
0.06020141 0.08114999 -0.08906926 0.0024149707 -0.012477435 0.0049517523 0.042065732 0.07649374
0.020273404 -0.018136451 -0.038967203 -0.011925776 0.0548537 0.08216537 0.011207133 0.06596884
-0.014833781 0.032888096 -0.022074861 -0.0029142124 0.08186734 0.0029704836 0.017725237 0.06678858

network.2.bias f4 [84]
00000000: 757b 66bd 6b59 86bc 37c4 113c 5526 423d
00000010: 758e 943d f56f a4bd 3165 2a3d bfff 89bc
00000020: 60a4 1b3d 6b5a 61bd 632f 9c3d 205a a93d
00000030: db5b 793b 4905 9d3d 6ab9 b03d 9e6b 0dbc
00000040: a9a2 d63c 7992 04bd add6 fd3c 141c 983d
00000050: dc6a 923d ce54 99bd eadf 06bd b06d 1f3a
00000060: 4728 e8bc 3c67 8fbd 0ea3 45bc cd99 aabd
00000070: 96d3 a13d 33a0 0bbc 21a6 2e3d 5504 5f3d
00000080: f92e 5bbd 4f54 703d 67f6 67bd 2f35 05bd
00000090: ff63 a0bd 7748 073d c029 9fbc 69f6 a1bd
000000a0: c66d 50b9 629a abbb 0b05 8e3d ef87 e93c
000000b0: 6008 143d fd14 79bd efe6 98bd e721 f8bb
000000c0: db10 84bd 3d89 b93d 0b4e 7f3d 9bf6 96bd
000000d0: bd44 b53d 66fd 4f3d f104 a1bd 2b2b 7f3d
000000e0: 1e97 4f3d 641e aebd 05c0 b53d b573 65bd
000000f0: ccd2 40bd 5600 3ebd 788b 4ebd c90b 4cbd
00000100: cb53 ad3d a9fb d9bc 00f6 be3d 49f3 cdbc
00000110: 32db 9f3d 6a9a d33b c6a1 a8bd b8c5 4abd
00000120: 03d5 e3bc 014e 1bbd b65e 953d a8fb 88bd
00000130: cb4c 7dbd 85f0 d13b 0793 2c3d c666 a8bd
00000140: 6758 62bd fcdd c83c 43f9 893d d868 4dbd
-0.05627008 -0.01640006 0.008896879 0.047399838 0.07253734 -0.080291666 0.04160041 -0.016845582
0.037998557 -0.05501787 0.07626226 0.08269143 0.0038049135 0.07667024 0.08629115 -0.008631615
0.02620061 -0.03236625 0.030986154 0.074272305 0.07149288 -0.07486878 -0.032928385 0.00060817134
-0.028339518 -0.07002112 -0.012062801 -0.083301164 0.07901685 -0.008522081 0.0426389 0.05444749
-0.053511593 0.058674153 -0.056631472 -0.032521423 -0.07831573 0.033028092 -0.019429088 -0.07908327
-0.0001987732 -0.0052369097 0.069345556 0.028507201 0.0361408 -0.06081103 -0.07465922 -0.007572401
-0.064485274 0.09059379 0.062330287 -0.07371255 0.088510014 0.05077877 -0.078622706 0.062297028
0.050681226 -0.0850189 0.088745154 -0.05601855 -0.04707603 -0.04638704 -0.050425977 -0.049815927
0.08463248 -0.026609259 0.093242645 -0.025140421 0.0780548 0.0064576166 -0.08233981 -0.049504966
-0.027811533 -0.037916187 0.07293455 -0.066886246 -0.061840814 0.006406846 0.042132404 -0.082227275
-0.05526009 0.024519913 0.06736996 -0.050148815

network.4.weight f4 [21, 84]
00000000: ebda 05bd 301a 423a 9181 153d fea6 263b
00000010: 728c 893d 260b 7fbd 9281 62bd 374e 453b
00000020: 5711 7bbd 71d3 bb3a d9d0 b23d b241 8a3d
00000030: 5664 87bd 29ec adbd 01c1 d0bd ff73 a7bd
00000040: 618b b23a 702b c53d e0be e63d 854d c63d
00000050: c175 533d b900 083d 6eba 2d3d 34c3 b0bd
00000060: 5432 8d3c 9701 9abc 4ff3 26bd c995 8a3d
00000070: ac09 183a 2ed6 b9bd 463e c53d 6ed8 b3bc
00000080: bd01 16bb bf8e ee3d 2abb d13d 7361 bfbd
00000090: d9bb d7bd c8dc aa3d 1289 273d 0c10 16bd
000000a0: 050d 123b 71c3 0bbd 281f 033c 04b4 45bd
000000b0: 9708 a1bd 524b b2bd 81af 8d3d 9364 21bd
000000c0: 1d47 3a3d c5e3 bc3d e21f 3abd eb58 763d
000000d0: 8b5c 79bd cf53 8fbd fb82 bc3d ea62 2f3d
000000e0: caf6 0e3d 4f2e 9abc 1c52 cc3d 6f92 a33c
000000f0: e02f b03d 886b 023d ec10 df3c e0de b13c
00000100: 6100 95bd 36d2 493d 444b 1c3b a69e 7dbd
00000110: 4368 c13d ef67 3f3d 4e04 973d d35e a5bd
00000120: 6618 c03d 4810 6c3c a787 1e3d 5bd9 36bb
00000130: 51b6 ec3c a463 a8bd 2cc7 debc a505 a63c
00000140: 6a8b 37bd 0382 85bd a72b e53d 2d2a 83bd
00000150: be64 123c e992 de3b 719e 82bd 8d12 b23d
00000160: b9f0 c53d 7abb cdbd 31a3 32bd 3f3a 7e3d
00000170: 1c8e 9abd 9b1c e5bb fc64 dc3d 293d 97bd
00000180: 979d 2dbd 8722 d7bd 0d76 c23a 5e81 163c
00000190: 1c4c 653d 3cf2 e53c 23f2 6ebc f188 c53a
000001a0: 534b cdbc b444 093d 698c 67bd eec9 0bbd
000001b0: 718a b1bb b21e 9cbd 42c5 ba3d 16f2 b73d
000001c0: c902 ca3d 1b06 b9bd c5fb dd3d da0a fabc
000001d0: 0b4a 413d c88c 763d 6140 313d a5c2 b0bd
000001e0: 0cce 3dbd 1570 e23d d4ac 00bd 5042 df3d
000001f0: ec34 663d 069d e23d f04a a03d 3c39 c23d
00000200: e0f6 193c 3f58 d43d 89dd efbc 000d 853c
00000210: c245 cbbd d487 373d c37c 94bd 863d 813d
00000220: 45ee 7a3c c745 e9bc 0b6b 493d 73fe f53d
00000230: f0e5 cf3d a795 6ebd 8bb0 a6bd 8a10 34bd
00000240: e6a6 063d 7c9a c53d 7691 8abd d2c6 22bd
00000250: d532 c7bc 2152 26bc 8825 9ebd 88f5 fabc
00000260: 0743 95bd 308a 57bc 3bef cd3d 5c61 533d
00000270: cd20 8dbd a5e1 903d 4720 0cbd 1ab2 1a3d
00000280: 77e1 4b3c ac16 72bd 0978 77bd d97d 3e3d
00000290: 1cf2 41bd 34c4 3d3d 2865 623d b51e c6bd
000002a0: 5c1a 803d b4cb 1ebd ac0a 773d 952d a2bd
000002b0: 2f86 80bd 3345 e33c 5c29 4cbd 8682 bf3c
000002c0: 449a a9bc 0430 3dbd d72e 77bd 8fa7 083d
000002d0: 1b55 b6bd 5ddf b6bd 9811 9e3d b449 1bbd
000002e0: 5d09 e53d c0a7 babd 207a 813d 279f 333d
000002f0: da3c 0d3d 9551 44bd 2491 c53d 14ca 48bd
00000300: bbfb 03bd 3d91 03bd 5a00 99bd 9cf8 9dbd
00000310: 675b 563d bf9d e1bb d8b3 413d c08c d3bd
00000320: 27ab 313d 406d 57bd 15f7 24bd ee9a d03d
00000330: 5856 753d 152d 9c3d f724 98bc 2496 c73d
00000340: cc0f a7bd c3fa 763d 6f1a c93d d0aa aa3d
00000350: 2e46 b43c d899 9c3c 8aea c73d 3e5c cebd
00000360: afbe 69bd 31ec 643c b6ba d23c c274 5bbd
00000370: 407b 7a3d 6791 8c3d 9852 533d 1dd9 d83d
00000380: 1e9b 123d 486b a0bd 1299 ca3c ff01 243d
00000390: 3e5d b3bc d369 65bd 309a 6fbd ae29 98bd
000003a0: 614b e13c 1036 51bd 0243 8a3d c5e7 90bc
000003b0: 93f3 11bd e0e7 cb3d efdf 7ebd 8f21 603b
000003c0: 5244 e53a d3b3 f03c cc3b 923c 90da 8a3d
000003d0: 16d0 0fbc 82a1 18bd 9f45 b6bd 44ea ab3c
000003e0: c0e3 99bd 7329 bcbd 054b a8bd 386b 53bc
000003f0: 2ca1 b1bd d15a a0bd 3202 ab3c f445 d3bd
-0.03267948 0.0007404415 0.036500517 0.0025429125 0.06716241 -0.06226649 -0.05529935 0.0030106434
-0.061295833 0.0014329982 0.08731241 0.06750812 -0.066109344 -0.084923096 -0.101930626 -0.081764214
0.001362186 0.09627426 0.11266875 0.096827544 0.05162597 0.033203814 0.04241412 -0.08630982
0.017235912 -0.018799586 -0.04075938 0.067668505 0.0005799781 -0.09074055 0.09631018 -0.021953788
-0.002288922 0.116483204 0.10240777 -0.09344759 -0.10533876 0.08342892 0.040902205 -0.036636397
0.0022285592 -0.034121934 0.008003034 -0.04826738 -0.078629665 -0.087057725 0.0691824 -0.039402556
0.045477975 0.09223131 -0.045440562 0.060143393 -0.06087927 -0.06998407 0.0920467 0.04281894
0.034903325 -0.01882091 0.099765986 0.019967286 0.086028814 0.03184083 0.027229749 0.02171272
-0.07275463 0.04927274 0.0023848573 -0.061918877 0.094437145 0.04672998 0.07373868 -0.08074727
0.09379654 0.014408179 0.038703587 -0.002790055 0.028895529 -0.0822213 -0.027194582 0.020266363
-0.04481069 -0.065189384 0.11189967 -0.06404529 0.008935152 0.0067924154 -0.063778765 0.086949445
0.09665055 -0.10045524 -0.043612663 0.062067267 -0.075466365 -0.0069919354 0.10761449 -0.07384712
-0.042386618 -0.105046324 0.0014836207 0.009186117 0.055980787 0.028069608 -0.014584097 0.0015070719
-0.025060331 0.033512786 -0.05653039 -0.034128122 -0.005418115 -0.07623042 0.09119655 0.08981721
0.098638125 -0.09034368 0.10839037 -0.030522753 0.047189754 0.060192853 0.043274287 -0.086308755
-0.04633908 0.11056534 -0.03141482 0.1090132 0.056202814 0.11065106 0.07826793 0.09483573
0.0093972385 0.10368394 -0.02928044 0.01624155 -0.099254146 0.04480727 -0.07250359 0.06310563
0.015315597 -0.028475655 0.04917435 0.12011423 0.10151279 -0.05824819 -0.08139142 -0.043961085
0.03287401 0.09648606 -0.06766026 -0.03974039 -0.02431623 -0.010151417 -0.07722002 -0.030634657
-0.07288175 -0.013155505 0.10055395 0.05160652 -0.06891022 0.07074288 -0.03421047 0.037767507
0.012443892 -0.059103653 -0.06041721 0.046506736 -0.047350034 0.046329692 0.05527225 -0.09673826
0.06255028 -0.038768485 0.060312912 -0.0791885 -0.062755935 0.027742958 -0.04984413 0.023377668
-0.020703442 -0.04618837 -0.060347404 0.03336292 -0.08902951 -0.08929322 0.077181995 -0.037912086
0.111834265 -0.09114027 0.063221216 0.04385295 0.03448186 -0.047929365 0.09646824 -0.04902084
-0.03222249 -0.032120932 -0.0747077 -0.07713434 0.05233326 -0.00688526 0.047290653 -0.1032958
0.043376114 -0.052594423 -0.0402747 0.101858005 0.059896797 0.07625786 -0.018572314 0.09745434
-0.0815731 0.06029774 0.09819495 0.08333361 0.02200612 0.019116327 0.09761532 -0.100761876
-0.057066616 0.013972328 0.025723796 -0.053578146 0.061152697 0.06863671 0.05159244 0.10588286
0.035792463 -0.07832962 0.024731193 0.040040966 -0.021895047 -0.056009125 -0.058496654 -0.07429825
0.027501764 -0.05107695 0.06751062 -0.017688641 -0.03563268 0.09956336 -0.06222528 0.003419969
0.0017491675 0.029382622 0.017850779 0.06779969 -0.008777639 -0.0372634 -0.08899998 0.02098573
-0.07514143 -0.09187593 -0.08217434 -0.012903981 -0.08673319 -0.07829822 0.02087507 -0.10316077

network.4.bias f4 [21]
00000000: 2485 ccbc a76f c5bd e8f4 31bd 8dad ba3b
00000010: 106f 10bd d462 5cbd 3af6 e93d 971d 29bd
00000020: b7b2 ff3c 2227 4b3d a933 cbbb 802d babd
00000030: c1a3 c13d ac19 b6bd 0edc b5bd d37e 9e3d
00000040: b7bb ddbc c583 6e3d eaf4 403d de90 d6bd
00000050: d120 ad3d
-0.02496583 -0.096404366 -0.04344645 0.0056969584 -0.035262167 -0.053805187 0.11423917 -0.041287985
0.031213148 0.049597867 -0.0062012267 -0.0909071 0.09455062 -0.08891615 -0.08879863 0.077390336
-0.027067048 0.058231134 0.04710857 -0.1047685 0.08453525
