pretrained/blue.pt (torch, 248142 bytes, 10 tensors)

cnn.0.weight f4 [5, 5, 3, 3]
00000000: 3fc7 a53d 5caf efbd fb56 c9bd aa68 8fbd
00000010: 5aee 5bbd 12b0 8c3c 0789 873d be2c 91bd
00000020: 33cd 1b3e d748 0a3e 72c2 59bc 3f69 0cbe
00000030: 8bdd 06be cde7 093e 2306 073c a052 8cbd
00000040: a8e3 0cbd 1957 c1bd 9dc2 fb3c 6fc1 e7bd
00000050: 1a0f 183e 9dc7 44bd 5293 653d 75e4 e5bb
00000060: 2a49 893d d930 523c bb83 ca3d fbec ec3d
00000070: ad7b 0ebd ffa9 aa3c 1f9b a33d 2a35 4bbd
00000080: c3c9 cb3d 352a db3d 2c90 acbd b622 fdbd
00000090: 5b52 92bd 754a 13be e84d 3fbd 220c bfbd
000000a0: b98d 12be 62f9 bfbd 04e6 263b 3071 36bd
000000b0: 8e73 8f3d b0ea 6ebc 45ee 883d 33d1 ecbd
000000c0: f69a 81bc 64dd 40bc 5d5b 02be 151b ab3d
000000d0: 8967 bebc 327f 9cbc 1f3b 2fbd 663b 0d3e
000000e0: c25d 65bc 7ab8 e9bd 9f37 a9bc 53d8 70bd
000000f0: 70b1 d3bc e0d6 19be d434 bd3c ace8 823d
00000100: 458c 1d3e 6109 e03d a7c1 d7bd 16e7 7a3d
00000110: eb2d f7bc c049 d0bd 7ce4 c13d fa96 9b3d
00000120: 2c3f 98bd b9e9 dc3d ac5b 18be 5e95 f0bc
00000130: e41b c13d cfb4 0dbe 7cf6 e0bd e78a 8c3d
00000140: 6ae7 9fbd f2dc edbd add9 bebd 437c 233c
00000150: 190f 6a3d 934e 1abe c0f7 903b 5146 d0bc
00000160: 4ea4 afbd 5be4 b23d 213e 02be a60b 683c
00000170: 4610 6fba 34a5 0dbe a6ac 52bc d7ca fcbd
00000180: b7f6 a6bd 6f78 57bb 1265 b7bd e175 abbd
00000190: 0c86 0bbe 1906 f6bd 7f5c 10be 52cb c03d
000001a0: c759 883d d995 133e 13ff cd3d 9754 d3bd
000001b0: d74d e0bd d6c6 f8bc c007 e9bd 689b e33c
000001c0: 3db5 0bbc e34d 53bd 109a a53d 9a7f 8b3d
000001d0: d6e7 b23c cdb4 ac3d 01fb 123e 34f9 843d
000001e0: f9a8 aa3d 0886 a6bd fe16 753d 0fea b2bc
000001f0: a4f9 f43d 7cf2 64bc 8353 783d 36c4 c5bd
00000200: 0c1b fc3d e55a 123d b3eb c63d 0547 3fbd
00000210: d4d8 e43d f93a ae3d ed19 9c3d d086 65bd
00000220: 252e cabd 1ad3 8cbd afa8 863d 9429 0fbc
00000230: f7f0 b53d be56 943d bc45 b9bd 5a29 ba3d
00000240: 295b 05be 16fc 5abd 122e 63bc b21e e03d
00000250: eb0b 1abd bae5 d73d aa99 8f3d 69c8 d33c
00000260: 529f 71bc 2e04 1c3d b206 04be c66f 7d3d
00000270: 2de5 e9bc 732a c7bd 566b 913d 8e99 233d
00000280: 2bcb 053e 8e1f 1f3e 7e4c 1c3e f4a9 45bd
00000290: d607 f83d ae9c a93c b09c e8bd 675a 9ebd
000002a0: af1f d03d 047c 213d 80ff 123e a222 ca3c
000002b0: ca6d 403d 1f82 a23d dd0d fabc 4af4 0bbd
000002c0: 4bc6 96bd 3314 083e 9972 163e c11f 0b3e
000002d0: ef83 ff3d 15f9 85bd e05f f13d a44a 233e
000002e0: bdcc 67bd b7e9 00be d261 1f3e 4f4b 183e
000002f0: d574 133d 5704 cc3d 6a27 2abd 1c71 04be
00000300: 909b d6bb 7e77 e2bd 7f94 f43d 4751 3dbd
00000310: 610c 193e 982f d33c f01f 023e 6da5 463c
00000320: 1677 cb3c c914 b83c fddb ee3d f51b 10bd
00000330: 2cd4 e33d 83ea fc3c 16a3 be3d 981a 2f3e
00000340: cf38 a63c bced 1f3d 94d3 cfbc 8caa c33d
00000350: 6aad 303e 510e bd3c 6b7f b43c 3899 05bb
00000360: 990a c9bd 76c3 243e 2a1a 01be 2897 f6bd
00000370: 6f25 e2bd ff7b 8b3d b6b9 5a3c 791e 883d
00000380: 3428 4c3c
0.08094644 -0.11703369 -0.09831043 -0.07002385 -0.053694107 0.0171738 0.06617933 -0.07088612
0.15214996 0.13504349 -0.013290988 -0.13712023 -0.1317045 0.13467331 0.008241209 -0.06851697
-0.034396797 -0.09440441 0.030732447 -0.113161914 0.14849511 -0.04804193 0.0560487 -0.0070157596
0.06703408 0.012829029 0.09888407 0.11568638 -0.034785915 0.020833014 0.079885714 -0.049611248
0.09950592 0.1070141 -0.08425936 -0.12360136 -0.07144614 -0.14383872 -0.046705157 -0.09328486
-0.14311875 -0.09373738 0.002546669 -0.044541538 0.07004462 -0.014582321 0.06686071 -0.11563339
-0.015820961 -0.011771534 -0.12730165 0.08354775 -0.023242729 -0.01910362 -0.04278099 0.1379219
-0.013999404 -0.11412139 -0.020656405 -0.058800053 -0.025841445 -0.15023375 0.02309648 0.06392035
0.1538554 0.10939289 -0.10534983 0.061255537 -0.030173263 -0.10170317 0.09467408 0.07597156
-0.07433924 0.107867666 -0.1487872 -0.029368099 0.09429148 -0.13838504 -0.10984513 0.06862431
-0.078078106 -0.116144076 -0.09318862 0.009978357 0.057143304 -0.15069036 0.0044240654 -0.025424154
-0.085762605 0.087349616 -0.12719013 0.014162933 -0.00091195514 -0.13832551 -0.012858545 -0.12343376
-0.08152526 -0.003287818 -0.089548245 -0.08372093 -0.13625354 -0.12012882 -0.14097784 0.0941378
0.06657749 0.14412631 0.10058417 -0.103188686 -0.10952347 -0.03036825 -0.11378431 0.027784064
-0.008527097 -0.05158795 0.08086026 0.068114474 0.021839064 0.084329225 0.14353563 0.06492844
0.0833301 -0.08131033 0.05983638 -0.021840123 0.11961678 -0.013973828 0.060626518 -0.09656565
0.12309846 0.035731215 0.09712925 -0.04669859 0.11174169 0.08507342 0.076221325 -0.05603677
-0.098720826 -0.06876202 0.065751426 -0.00873794 0.08883851 0.07243107 -0.09046504 0.090899184
-0.13023056 -0.053463064 -0.0138659645 0.10943355 -0.037609022 0.10541864 0.07011731 0.025852399
-0.014747458 0.038089924 -0.12893179 0.061874174 -0.028551662 -0.097248934 0.07100551 0.039941363
0.13065784 0.15539381 0.15263554 -0.048257783 0.121108696 0.020704594 -0.11358011 -0.07732087
0.10162293 0.03942491 0.14355278 0.024674717 0.046979703 0.07934975 -0.030524189 -0.03416852
-0.0736204 0.13288955 0.14692153 0.13586332 0.12476336 -0.06541649 0.11785865 0.15946442
-0.056591738 -0.12589155 0.15564659 0.14872478 0.03600009 0.09961765 -0.041541494 -0.12933773
-0.006549306 -0.110579476 0.11942386 -0.04622009 0.14946128 0.02577953 0.12707496 0.0121244015
0.024837058 0.022470849 0.11663053 -0.035182912 0.11124453 0.030873543 0.0930845 0.17099988
0.02029076 0.03904508 -0.025369443 0.095540136 0.17253652 0.023078116 0.022033414 -0.0020385515
-0.098164745 0.16090187 -0.12607637 -0.120405495 -0.11042296 0.0681076 0.013349941 0.06646437
0.012460757

cnn.0.bias f4 [5]
00000000: d368 2f3d f0b9 cf3d 1cac 0f3d c6d6 f9bc
00000010: d8e6 b0bd
0.042824578 0.10142887 0.035076246 -0.03049792 -0.0863778

cnn.2.weight f4 [5, 5, 3, 3]
00000000: f651 00bd a445 dcbd 2fa9 013e 6336 bf3b
00000010: ec46 a23d 4a88 af3d 464c f93c 710f e3bd
00000020: d6a7 cb3c 2d19 0ebe fddb 84bd c3d7 083e
00000030: bab7 1d3d 73aa 46bd fc69 0d3e e4cb 85bc
00000040: 573a 223e 4c5e 183e efb8 aabd 0df7 273d
00000050: 8f7a 1abd 7dcf c53d 9c8a 07be e08a 87bb
00000060: 25ec c23d 3110 ccbd 1823 c0bd f3da 9cbd
00000070: 6124 a03d db04 53bd 593a 85bd 95de ac3d
00000080: fec5 823c 8c1f 50bd ca16 c63c 1223 023e
00000090: 5f39 8ebd 8c67 af3d b687 4bbc a4a0 fb3d
000000a0: f1e4 f83d c4f7 04be e6b2 663d 1ff4 b7bd
000000b0: 89e0 06bd 7a28 b2bc d72c 993d 5f3a 253d
000000c0: 629b e2bd 40fa d03d 3cdb b83d 7e73 ecbc
000000d0: d06b d7bd 3c83 0b3e 7ba2 efbd 2a87 dabd
000000e0: e771 2e3d 9d5d 76bd 6601 6a3d bd14 e6bd
000000f0: 2e95 8cbd 9090 1d3e 4fe1 253e 0b66 0f3e
00000100: 24b0 93bd 3569 e33d 58ba d4bd 92b9 e13d
00000110: 1558 9abd a0ba 263d 18bd cebc 02ca 163d
00000120: a9c7 833d 97ef a93d 81e5 d9bd 80e0 e6bd
00000130: a562 83bd af10 b9bd f1b3 bf3c 1ae0 21bd
00000140: 6efb 053d 75ed 053a 443b aa3d 1f36 9e3d
00000150: ccb1 103e 7009 373e a671 2fbd 83a0 d33c
00000160: 47d2 493d 649f 1d3e c0ec 593d 556c 243e
00000170: c4b6 8d3c 7dbe f83d bc2f 94bd 1d03 493d
00000180: 6a59 a4bd 183a e4bd 11d6 0b3d fedd cfbd
00000190: 162c a0bc 7811 bf3d e134 f73d 313a babd
000001a0: a21b f23d 3cbc c83d 7a24 cfbd 67e4 08bb
000001b0: 3db1 57bd f137 c6bd bec4 b6bc a17e 8a3d
000001c0: 428f 893d eae6 e6bd 2046 623d e4ac 9a3d
000001d0: 2095 e1bd b511 b13c 102e 2d3d 3a51 bbbd
000001e0: 1536 47bc cad6 1c3e 8894 dd3d 802f a63d
000001f0: 9dfa a0ba 3945 273e 4e38 aabc c860 acbd
00000200: fa4f 213e 378b 963d e3c9 40bd dcb4 d13d
00000210: 5654 303e 97f4 f63d 9e98 f63d fd33 04bd
00000220: ce4b ffbc 546d dbbd acfc e53d d004 bb3d
00000230: 2467 9b3d 8993 33bc 08e8 903d 5350 84bd
00000240: 1e51 543d b33f 723d b769 09be 626b 553d
00000250: f0a7 d4bd 51ee 03be 4a87 a83d c80d d03d
00000260: 81bd fd3d 2f64 fb3c 3320 86bd f5df 383d
00000270: a356 173c 81be ea3d be4c 80bc f4a1 fd3d
00000280: 97d6 b7bd ce0f 08be 79b2 6e3d c2ca 0b3d
00000290: fef2 093e 852d 553d 3408 093e 5618 6dbd
000002a0: 9235 21bd 0fb9 7abd c1e6 bb3c d2b6 e2bd
000002b0: 7dda 0d3e ed34 273e 48cb c23c 8b5f 47bc
000002c0: dc62 063e fab9 c13d 8c84 87bd 650f 14bc
000002d0: 8cc8 b53d c111 8dbd 7b1e 03bd bc8c d1bd
000002e0: 9125 d23d 1590 d4bd 8b4d c4bb 191f 283e
000002f0: 51e8 013e fa7a 2c3e e567 6a3d d17f 9d3d
00000300: 2a37 983c e8c9 46bd 82f7 083e 3473 ad3c
00000310: 9546 fabc d2d6 b9bd 6b00 c13d 56c8 1c3c
00000320: 258f d73d 2704 e53d 8c00 e43d d14f c7bd
00000330: e7ee ab3d f066 973c 255b 883b de54 103d
00000340: 3da9 f23d 8cea a0bd 0e6e a83d 87e8 ed3d
00000350: e244 d33d a4c0 ee3d 4081 adbd 4d3b 6ebd
00000360: 3c72 443d 15d9 b53b 1ab8 5f3d 1dee 293e
00000370: a720 043e bacd 4d3d f4ac f63c fd7b edbd
00000380: b08b 113d
-0.031328164 -0.107554704 0.12662195 0.005835341 0.079236835 0.08570917 0.030431878 -0.110869296
0.024860304 -0.13876791 -0.06487272 0.13363557 0.038505293 -0.048502397 0.13809961 -0.016332574
0.15842567 0.14879721 -0.083360545 0.04100709 -0.037714537 0.09658716 -0.13236469 -0.0041364282
0.09517697 -0.09964026 -0.093816936 -0.07658949 0.07819439 -0.051518302 -0.065052696 0.08440892
0.01596355 -0.050811335 0.024180789 0.12708691 -0.069445364 0.08564672 -0.012422493 0.12286499
0.12153042 -0.1298514 0.056322955 -0.08982109 -0.032928977 -0.021747816 0.07479256 0.04033887
-0.11064793 0.102039814 0.09026191 -0.028863665 -0.105186105 0.1362428 -0.117009126 -0.10670312
0.042589094 -0.06014787 0.05713024 -0.11234424 -0.06864391 0.15387177 0.1619923 0.1400377
-0.072113305 0.11104051 -0.10387105 0.11021723 -0.075363316 0.040705323 -0.025236651 0.036813743
0.064345665 0.08297651 -0.106394775 -0.11273289 -0.06415299 -0.09036385 0.023401232 -0.03952036
0.032710485 0.0005108931 0.08312085 0.077251665 0.14130324 0.17874694 -0.042832993 0.025833374
0.0492728 0.15392834 0.053204298 0.1605695 0.017299064 0.12145708 -0.07235667 0.049075235
-0.08024867 -0.11143893 0.034139697 -0.101497635 -0.019552272 0.09329504 0.12070633 -0.090931304
0.11821677 0.09801528 -0.10114379 -0.0020888092 -0.052659262 -0.09678639 -0.02231061 0.06762434
0.067167774 -0.11274512 0.055242658 0.075525075 -0.110147715 0.021614889 0.042280257 -0.09146352
-0.01215889 0.1531631 0.10819346 0.08114529 -0.001228172 0.16335 -0.020778801 -0.08416897
0.15753165 0.07350772 -0.047067534 0.10239574 0.17219672 0.120583706 0.12040828 -0.032276142
-0.031164076 -0.10714212 0.11229834 0.09131777 0.07588032 -0.010960468 0.070755064 -0.06460633
0.051835172 0.05914278 -0.13419233 0.05210436 -0.10383594 -0.12883879 0.08228929 0.101588786
0.123896606 0.03068742 -0.0654911 0.045135457 0.009236964 0.11462117 -0.015661594 0.12384406
-0.08976477 -0.13287279 0.058275674 0.03412891 0.134716 0.052045364 0.13382035 -0.057884537
-0.03935773 -0.061211642 0.02293718 -0.110700265 0.13852878 0.16328783 0.023778573 -0.012168775
0.1312365 0.094593 -0.06617078 -0.0090368735 0.08876142 -0.06888152 -0.03201149 -0.10231921
0.102610715 -0.10379044 -0.005990689 0.16418113 0.12686278 0.16843787 0.057227988 0.07690395
0.018580992 -0.048532397 0.13375667 0.021173097 -0.030551234 -0.09074177 0.09423908 0.009569248
0.105253495 0.111824326 0.11132917 -0.09732021 0.083951764 0.018481702 0.004161256 0.035237186
0.11848686 -0.07857236 0.08224116 0.11616617 0.10315873 0.11657837 -0.08471918 -0.058162022
0.047960505 0.00554956 0.054618932 0.1659474 0.12903081 0.050245024 0.030111767 -0.115959145
0.035533607

cnn.2.bias f4 [5]
00000000: 7ece 7fbd edd0 2a3e ca4c f13d deff b8bd
00000010: ab39 88bb
-0.062452786 0.16681261 0.117822245 -0.09033178 -0.004157265

network.0.weight f4 [120, 405]
00000000: 9724 cdbb dfbd d43c 713f 31bc 669c 6ebc
00000010: e046 993c f610 2ebd da3b 09bd bdbb 3ebd
00000020: e187 e1ba c410 fd3c 2453 073d 733d fabc
00000030: 5f0c b7bc b34f 383c e1dd 06bd b121 9f3c
00000040: d67f 283d 3ca4 313d 30c1 f93c 7b70 09bc
00000050: d562 08bd f34e 3ebd e954 b3bb f08e 07bd
00000060: 8e38 26bd c193 cc3c 3f27 45bd 68c0 353d
00000070: 9bbe d33b 6e2e 2b3d 56e1 cdbc f593 433d
00000080: 56b3 05bd 1a73 eb3c 5b8e f53c 519b 373d
00000090: edf7 f7bc fb6d 0fbc 3e65 84bc e282 dd3c
000000a0: abf4 2f3d 459c dc3b f7a0 85bc d33c 2b3d
000000b0: f488 08bd 3026 f63c d6d6 163d b1bd 1ebd
000000c0: 6119 683a 5a58 e63b 33fc ce3c 574f 373d
000000d0: c906 113c 6764 ce3b 27d8 2a3c ca48 23bd
000000e0: 5142 443d 812f 183c b4fa 4f3d e1a7 ca3c
000000f0: 0ad5 a53c 7bb5 ef3b c682 1c3d cb40 eb3c
00000100: dbfc fe39 5782 14bd 24af debb 7b40 eb3c
00000110: b337 15bd efc8 96bb 2dcc ec3c 23aa ed3c
00000120: 77f7 9dbc a6bb 71bc a818 ca3b 5615 883b
00000130: e95c 7c3c a52f 293d dbe5 3e3d 51de 353d
00000140: 560f 843c 597d 2c3d d5a5 893c 5c05 5f3c
00000150: fd83 0bbd b5b4 c8bc c5c0 90bc 4b24 0ebd
00000160: 23c0 d0bc 4605 0fbd eb3e a93c 7400 cfbc
00000170: 875d d03c 4807 343c f4d8 553c 52e5 113d
00000180: 55d1 de3c e003 eb3b aaba 3cbd ea6e 263c
00000190: dfe5 19bd d085 0cbd eeb6 163d 59b4 e1bc
000001a0: d2ac a63c 022a c0bc 60fd f23c 01fc 323d
000001b0: 5337 013c a5ea 493c 0a11 2d3d a23a 83ba
000001c0: 4b0a 093b 039f a03c 2f07 24bd e9ae ca3c
000001d0: 6c94 b4bc d14e 073d cdcd 553d 865f f4bc
000001e0: dd18 803c d0f6 243d d93d 253d 1cf0 b4bc
000001f0: dd93 57bb 82b1 11bd 1b0b 19bd 7b7c 2f3d
00000200: 3b71 d73b 5199 a2bc bdae 8d3c 0146 e7bc
00000210: f2db 37bd 375b f13b c5fb fbbc 52a1 07bd
00000220: 31a5 923c d1e3 1c3c e91c b33c 32f4 1cbd
00000230: 29c5 093c 03e3 d0bc a0c6 703c d0cc 933c
00000240: 978b 4c3c e5c1 c13c 2d3c d43c 1f90 c8bc
00000250: ec73 8abc f0db e7bc a761 c33c 7f2c e3bc
00000260: 6365 843c ed4a 90bc 1ce1 24bc 345d 8dbb
00000270: 2085 f6bc 441f 273d f8fc ecba 3513 513d
00000280: 314c 903b fea3 ae3c 28ed ee3c 5b57 173d
00000290: 5b85 553d 69bc a23c 7adb 393d 16db f73b
000002a0: d985 b8bc f5e2 afbc d640 c2bc 92c6 aa3c
000002b0: 06c0 a1bc 4369 fe3b 8dca f0bb 0197 52bc
000002c0: a3a4 c23c a6aa c8bc 9704 543d 572f 993c
000002d0: be4e 9bbc 5c25 c83c 0db5 353d 7b3a aabc
000002e0: be37 ee3c 7397 b93c 8bef 0fbd 66f6 9dbc
000002f0: 4aae a03c 59bb 16bd b110 353d 5429 26bd
00000300: 6be9 09bc 8684 f03c 6af4 143a 2649 0a3d
00000310: e2cb 32bd 9b4e 493a c29b 1cbd 0f58 d0bc
00000320: 4226 ecbc 709e 473d 0aba b2bc 1e31 493d
00000330: f7c3 0fbd 0ad4 fbbc 3c2d c93c 5375 293d
00000340: 5bf8 ad3c 6f11 91bc c61e 14bd c8cf 4a3d
00000350: a047 8f3c 97c8 503d fe4f 2fbc 1e40 493d
00000360: 9bb7 e93b a2f5 1abd b729 15bd 707a 5c3b
00000370: b008 19bd 43a7 023d 2ebe 553b e3d1 053d
00000380: c7b2 e83c 88ba 4c3b ca48 9cbc 61e5 36bd
00000390: 62a4 ce3b b2c4 b7bc 70d4 063d d696 e5bb
000003a0: 5d0b ec3c ab6c e23c 9cb1 11bd 9701 143c
000003b0: c730 5e3c ae4c 4c3d 6f5b 833a f21c 173d
000003c0: 9db5 e63b 8f5c cc3c bf10 03bd 8de6 31bc
000003d0: ed69 013d 1dd5 60bc 35b6 0ebd 2a77 a63c
000003e0: fd1a 41bd 6e60 2bbd 1d18 433d c2e5 e1bc
000003f0: 82da 203c c7f9 b03c 4a6d cc3b 05f2 3abd
-0.0062604654 0.025969444 -0.010818348 -0.0145636555 0.018710554 -0.042496644 -0.033504345 -0.04656576
-0.0017206633 0.030891784 0.033038273 -0.03054688 -0.022344766 0.0112494705 -0.032926444 0.019425245
0.04113754 0.043369517 0.030487627 -0.008388634 -0.03329738 -0.04646201 -0.0054727686 -0.0330953
-0.04058128 0.024972798 -0.04813313 0.044372946 0.006461931 0.041792326 -0.025131863 0.047748525
-0.03264173 0.028741408 0.029975107 0.044825856 -0.030269587 -0.008754249 -0.016161557 0.027039949
0.042957943 0.006732496 -0.016312106 0.041806053 -0.033333734 0.030047506 0.036825977 -0.038755123
0.00088538794 0.0070295753 0.025266742 0.0447534 0.008851715 0.00629859 0.010427511 -0.03986434
0.047914807 0.00928867 0.0507762 0.024738254 0.020243187 0.0073153353 0.038210653 0.02871742
0.00048635047 -0.036257114 -0.0067957807 0.02871727 -0.036430072 -0.00460159 0.028905952 0.029011792
-0.01928304 -0.0147542115 0.00616749 0.004152934 0.015403011 0.041305203 0.046605926 0.04440147
0.016120594 0.04211173 0.016802708 0.013612118 -0.03406142 -0.02450023 -0.017670045 -0.03470258
-0.025482243 -0.03491714 0.020659884 -0.02526877 0.025435222 0.010988064 0.013052214 0.035619088
0.027199427 0.007172093 -0.046076454 0.01015828 -0.037572738 -0.0343073 0.03679555 -0.027551817
0.020346079 -0.02345753 0.029661834 0.04369736 0.0078867255 0.01232401 0.042252578 -0.0010011981
0.0020910676 0.019607073 -0.040045913 0.024741607 -0.02204343 0.03303415 0.05219822 -0.029830705
0.015636856 0.04027444 0.040342186 -0.02208715 -0.003289453 -0.035569675 -0.037364107 0.042843323
0.0065747774 -0.019848498 0.017295236 -0.028231623 -0.04488749 0.00736561 -0.030759702 -0.03311283
0.017901035 0.0095758 0.021864371 -0.03831882 0.008408823 -0.025498873 0.014695793 0.018041998
0.012484453 0.023652026 0.0259076 -0.024482785 -0.016900979 -0.028303117 0.023850275 -0.027731178
0.016161626 -0.017613852 -0.010063436 -0.004314089 -0.030092776 0.0408013 -0.0018080762 0.051043708
0.004403614 0.021318432 0.02916582 0.036948543 0.05212913 0.019865232 0.045375325 0.007563959
-0.022524761 -0.021470526 -0.023712557 0.020846639 -0.019744884 0.007764013 -0.0073483647 -0.012853385
0.023760146 -0.024495434 0.05176219 0.018699331 -0.018958446 0.024431877 0.044362117 -0.020779839
0.029079314 0.022655224 -0.035140555 -0.019282531 0.019614358 -0.036799762 0.04420537 -0.040566757
-0.008417468 0.029360067 0.00056821725 0.033761166 -0.04365147 0.00076792546 -0.03823448 -0.025432615
-0.028826836 0.048735082 -0.021817226 0.049119107 -0.035098996 -0.030740757 0.024557702 0.041371655
0.02123659 -0.017708508 -0.03616216 0.049514562 0.017490208 0.050972547 -0.010700224 0.049133413
0.007132483 -0.03783191 -0.036416736 0.0033642314 -0.0373618 0.031897794 0.0032614577 0.032670867
0.02840556 0.003123911 -0.019077677 -0.044652347 0.006306217 -0.022432659 0.03291744 -0.0070065064
0.028814012 0.027639708 -0.035569772 0.009033582 0.013561434 0.049877815 0.0010021756 0.03689284
0.007040693 0.02494648 -0.031998392 -0.01085819 0.03159516 -0.013722685 -0.034841735 0.020320494
-0.04714488 -0.04184001 0.047630418 -0.027575377 0.009817721 0.021603478 0.006238614 -0.045640964

network.0.bias f4 [120]
00000000: dd23 963c 12bf e03c 884d b93c 5472 f53b
00000010: 23fc aa3c 67b3 35bc 90ad 8e3b fb76 023d
00000020: cc8c 65bc 55a5 363d cd5a 1ebc 91a1 b53c
00000030: 4fcd 983c 610f 803a be7c 8ebc 36d8 3cbd
00000040: cf05 b03c 49f7 b13c ba55 da3c c953 213d
00000050: 42c6 783c 0303 7f3d d1d5 d1bc 7c2c 473d
00000060: 09f1 77bc 483e 4cbc ea72 c63c 74c2 24bc
00000070: 7108 1e3d f796 8fba c6c9 b5bc 31c8 21bd
00000080: 79b5 08bd 4266 84bc fcbd 363d 72f4 cfbc
00000090: 728b 30bc 47bc 203d 4267 daba ef9c 0cbd
000000a0: 97d3 7cbc 009f 853c a2f1 04bc 7798 3e3c
000000b0: a59d ffbc a408 d5bc 01a2 c73c 54d8 403c
000000c0: 1ec5 a03c f79d 01bd 63fc 94bc e013 9ebc
000000d0: 8b9a 8abc 4188 3d3d ef69 dbbc 2f5b 52bc
000000e0: 1b52 cfbc 9648 12bd 413e 3bbd 56d3 7cbb
000000f0: 08f5 10bd 25dc 83bb 3f29 2f3d 40e2 e83c
00000100: 6223 e9bb 5aaa 4cbd 6f71 31bc 929b c6bc
00000110: b591 083c 6aac 8c3b 084e 47bd ba0c 09bd
00000120: 358b f83c 7001 97bc d5a8 00bd 3787 80bc
00000130: 2b11 90bc 186c 883c 3228 2bbd 26fe debc
00000140: 49c7 fb3b f9d4 a43c 1032 d9bc 26b8 1dbc
00000150: 8b77 1a3c da38 9dbb 50c0 253b 8c00 2e3d
00000160: 27bb 213c ab35 4abc ea42 23bd f17e b0bb
00000170: fc10 093a 13ac 3ebd 1f5e 323c dd53 49bd
00000180: b182 b5ba 2bd6 833c 28f7 473d a629 ad3c
00000190: 5ea3 e3bc 7bb4 54bc ce28 0d3d b1e3 553d
000001a0: 545a 0abd e748 623d 10ab e93c fe48 3bbd
000001b0: a387 17bd 8591 69bb 1fbc 593d 3b04 40bd
000001c0: 02f9 663d f588 d13c 1219 543c e67d ac3b
000001d0: d062 60b9 25b4 a83c 4b2f 543c e8c9 143d
0.018327648 0.02743486 0.022619978 0.0074904356 0.020872181 -0.011090136 0.0043541864 0.03185175
-0.014010619 0.044591267 -0.009665203 0.022171767 0.018652586 0.0009770208 -0.017393466 -0.046104632
0.021487145 0.02172436 0.026652206 0.039386544 0.015183987 0.06225873 -0.02561465 0.048626408
-0.015133151 -0.012466021 0.024224717 -0.010056127 0.03858227 -0.0010955025 -0.02219094 -0.039497558
-0.03337619 -0.016162042 0.044614777 -0.025385115 -0.010775434 0.039242055 -0.0016662853 -0.03432935
-0.015431306 0.016311169 -0.00811425 0.01163303 -0.0312031 -0.026005097 0.024369242 0.011770327
0.019625243 -0.031644788 -0.018186754 -0.019296587 -0.016919395 0.04627252 -0.026783912 -0.012839123
-0.025307706 -0.035713755 -0.045713667 -0.0038578114 -0.03538993 -0.004024046 0.042763945 0.028428197
-0.0071148137 -0.049967147 -0.010830267 -0.024244104 0.0083355205 0.0042930143 -0.0486584 -0.033459403
0.030339817 -0.018433303 -0.03141101 -0.015689475 -0.017586311 0.016653106 -0.04178638 -0.027220797
0.0076836688 0.020121085 -0.02651313 -0.009626424 0.009427915 -0.004798037 0.002529163 0.04248099
0.009871281 -0.012341897 -0.039858736 -0.0053862263 0.0005228666 -0.04655082 0.010886698 -0.049152244
-0.0013848153 0.016093334 0.04881969 0.021138024 -0.02778786 -0.012982483 0.034462743 0.052219097
-0.03377755 0.055245306 0.028523952 -0.045723908 -0.036994588 -0.0035639715 0.053157922 -0.046879034
0.056389816 0.025578002 0.01294543 0.0052640317 -0.00021399115 0.020593712 0.012950729 0.036325365

network.2.weight f4 [84, 120]
00000000: 7eca f93c dc75 16bc 40e8 553d ba9d a5bd
00000010: 020b 41bd 68a1 b7bd 2ba0 b5ba cfa6 97bd
00000020: 468a 9abc f51a 4a3d 26f5 443a 4323 1cbd
00000030: f37d 1a3d 9b6c a53c c3d7 eabb f2a1 93bd
00000040: 9f68 96bb 660d 0ebd 3fc3 403b ea1a 05bb
00000050: 64b3 5e3d d4fe 03bb 772b a93c 00d5 783c
00000060: 9a72 85bd ab53 9ebd fb4d dabc 1fe5 f73c
00000070: a996 31bc ed14 413d 4287 a33b 02cc 5fbd
00000080: 4903 acbd 4bee 1b3d 7883 a03d 7d1e 053d
00000090: e2b2 7cbd b735 383d 9d4b 963d 8b41 9dbd
000000a0: 0228 abbd 595c 773c 1157 e2bc d223 953d
000000b0: be91 6dbd b46e 52bb ff97 b8bd 376e a73d
000000c0: 43f7 b2bd 1574 8dbc c87a a23c 30c1 c9bc
000000d0: 8a69 0dbc e873 20bd 712b 983c 77b3 63bc
000000e0: d955 38bd 2ced a1bd 5fec 0bbd 24d0 2f3d
000000f0: 9503 a93d 82e5 8fbd 828d 773b a805 dab9
00000100: 5315 3d3d bc02 6bbd cb34 243d 25a2 4fbc
00000110: c7a4 b23c 2ed8 fabc b03c 873d 69bd 94bd
00000120: 24bd a43d 08a9 0dbc 6b34 93bd 62b8 843d
00000130: ad3f 8a3d 753e a4bd e373 1a3d 3140 55bd
00000140: 6370 a63c 578a 9f3d 9c44 9cbd 670d 6a3d
00000150: a675 35bd c409 e5bc ba03 9fbd 5dc6 76bd
00000160: f2c3 82bd cc67 07bd b2d4 a4bd 6244 2f3d
00000170: 1eb6 06bd 6897 ab3d e00a 26bc a641 4a3d
00000180: 9bf4 863b 5d5f a7bd 03bd 4dbd 7fd8 fabc
00000190: 1d1e 3ebd ac6a 83bb 46f0 67bc 60a9 4e3d
000001a0: 8a6f 023b a715 813d ba27 39bd 7481 61bc
000001b0: 5699 68bd 6311 c4bc aded 5a3d 5d69 91bd
000001c0: fe7c cf3c 5d0a ac3d 5d01 d53c fe24 b3bc
000001d0: c5ad b33d cb9c acbd a330 46bc 5e38 a73d
000001e0: 0579 f33c 1ec9 583d 5d7b 453d 1f15 813d
000001f0: 2379 cdbc 7332 afbd 4bb9 963d dacc 2cbd
00000200: 107a 853d 3d4a fbbb 8a61 7f3d 9a81 1dbd
00000210: 09b2 8a3d e7d1 1bbd 405f 7b3b f1e6 523d
00000220: 45da 74bd b06d cebc 4b20 9bbd f330 53bd
00000230: 1393 2dbd 96bf 8fbd 7985 b03d d2ec 8abc
00000240: ba64 93bb 6ba6 06bd 2ea4 973b e230 603c
00000250: 7a0b 7a3d 509a b6bc 9610 95bd c2f8 3e3d
00000260: ef99 803c 2ead 523c 8498 843c 5912 b33d
00000270: 0d5d aabd 94b4 b93d e074 cebc 7829 fb3c
00000280: e466 0e3d e848 e83b 9d11 83bc d462 543d
00000290: 25af 053d 9f94 99bc 6e05 40bd bcb7 91bd
000002a0: 7f44 f7bc db6a 003d 952c bfbc f3b0 01bd
000002b0: 2891 673b b4fe 113d b65b 0a3d 3588 f6bc
000002c0: 739b f43c 07ff 2a3c 7e37 f0bc 802c adbd
000002d0: 7a8a 083d 6720 a33d f454 39bd 720e 6e3c
000002e0: 442e 6a3c 645c b0bd ce56 aa3d a782 893d
000002f0: eb2b 07bd 435b 393d 0145 5b3d 6add a2bd
00000300: ee1e af3c 5339 0ebd ace0 a8bd e343 663b
00000310: 687b a5bd acd0 893d 835f 07bd c2f8 80bd
00000320: 3774 ce3b 343a 52bd 9087 7cbd 9b37 8abd
00000330: c77f cebc 349e 67bc 6d02 aabd 60d2 edbc
00000340: 4a40 1bbd baf5 a33d a02f 70ba 1e9d a6ba
00000350: 4a1d dc3c 3344 a2bc 5905 9e3c e25f 90bd
00000360: 4d45 b2bd d93d af3c ddce a83d 4a73 51bd
00000370: df41 12bb dd5a b73c f42e ad3d 759b db3c
00000380: 5a06 b1bb 3576 263c e21b 983d a4f8 9a3d
00000390: 69ee 9b3d 3afc 8cbc ae41 26bc 033c aabd
000003a0: 25a0 763d c935 a63d f269 b6bd 7c44 1e3b
000003b0: 286e 4cbc 4f42 a23b 9751 2c3d 88aa 9c3d
000003c0: cbd3 c23c 4573 80bc 139c 1fbd ed0f 0ebc
000003d0: 9da9 613d d84d a83d d39f 373c 5628 8c3d
000003e0: a776 72bc 428b 103d 4a8a 9ebc 5ffc 3ebb
000003f0: f18d ad3d 72ac 423b 9c3f b53c 3419 893d
0.030492064 -0.009183373 0.052223444 -0.080867246 -0.04712964 -0.08966333 -0.0013856938 -0.07404863
-0.018864762 0.049342114 0.00075133366 -0.038119566 0.03771777 0.020193389 -0.007166834 -0.07208623
-0.0045901085 -0.034680746 0.002941325 -0.0020310231 0.0543703 -0.0020140903 0.020650608 0.015187502
-0.06515999 -0.07730802 -0.026648512 0.03026062 -0.010839143 0.047139097 0.004990489 -0.054637916
-0.08399064 0.03806905 0.07837576 0.03249978 -0.061694033 0.0449731 0.07338641 -0.07678517
-0.0835724 0.015097701 -0.027629407 0.07282223 -0.05800032 -0.0032109441 -0.09013366 0.08175319
-0.08738568 -0.017267266 0.019833937 -0.024628252 -0.0086311195 -0.039173037 0.018575402 -0.013897768
-0.045003746 -0.07906565 -0.034160968 0.042923108 0.08252636 -0.07026197 0.0037773554 -0.00041584414
0.046162914 -0.057375655 0.04008941 -0.012672936 0.021807088 -0.03062066 0.06603372 -0.072626896
0.08043888 -0.008646257 -0.07187732 0.06480481 0.067504264 -0.08019725 0.037708174 -0.05206317
0.020317262 0.07790058 -0.07630274 0.057141688 -0.04430165 -0.027958758 -0.07764383 -0.060247768
-0.0638503 -0.033057973 -0.08048381 0.042789824 -0.032888524 0.08378488 -0.010134429 0.049379013
0.0041185147 -0.08172486 -0.050229084 -0.030620812 -0.046415437 -0.004010519 -0.014156407 0.050454497
0.0019902908 0.06302958 -0.0452039 -0.013763774 -0.056786858 -0.023934072 0.05344932 -0.071001746
0.025328156 0.08400414 0.026001627 -0.021868225 0.08773378 -0.084283434 -0.012096557 0.08165048
0.029720793 0.052926175 0.04821335 0.06302857 -0.025082177 -0.08554544 0.073595606 -0.04218755
0.06517422 -0.007668762 0.06234888 -0.038453676 0.06772239 -0.038041975 0.0038356334 0.051489774
-0.05977847 -0.025198787 -0.07574519 -0.051560353 -0.04237659 -0.07018964 0.08619208 -0.016958628
-0.0044980915 -0.032873552 0.004627726 0.01368353 0.0610461 -0.022290379 -0.07278554 0.046623953
0.015698401 0.012858672 0.016186006 0.08743734 -0.08318529 0.09067646 -0.025202215 0.030659422
0.034766093 0.007088769 -0.01599961 0.051852062 0.032637734 -0.018747626 -0.04688018 -0.07115123
-0.030184029 0.031351905 -0.023336688 -0.031662893 0.0035334323 0.035643294 0.03377887 -0.030094245
0.02985928 0.01043678 -0.029323336 -0.08455753 0.033335187 0.07965165 -0.045247033 0.014529811
0.014293257 -0.08611372 0.08317338 0.06714373 -0.033000868 0.04525305 0.053532604 -0.07952388
0.021377053 -0.034722637 -0.08245978 0.0035135678 -0.080801785 0.06729254 -0.03305007 -0.06297447
0.006300475 -0.051325038 -0.06165272 -0.06748887 -0.025207413 -0.01413684 -0.08301244 -0.029030979
-0.037903108 0.08005853 -0.000916237 -0.001271162 0.026869435 -0.01980791 0.01928966 -0.07049538
-0.08704624 0.021391796 0.08242581 -0.05113534 -0.0022317094 0.022382194 0.08456221 0.026807526
-0.0054023685 0.010160019 0.07427193 0.07566956 0.076138325 -0.017210115 -0.010147495 -0.083122276
0.06021132 0.081157275 -0.08906926 0.0024149707 -0.012477435 0.0049517523 0.042069998 0.07649714
0.023782631 -0.015679965 -0.038967203 -0.008670789 0.055093396 0.082179725 0.011207539 0.06843631
-0.014798797 0.035289057 -0.01935305 -0.0029142124 0.08474339 0.0029704836 0.022125058 0.0669426

network.2.bias f4 [84]
00000000: 757b 66bd a958 86bc a19d 1d3c ea25 423d
00000010: 8fd3 953d bb3c a7bd 3b65 2a3d c1a3 79bc
00000020: 60a4 1b3d 6b5a 61bd 8dfe 9d3d 135a a93d
00000030: 66c1 5b3b 4905 9d3d 4db9 b03d 9eeb febb
00000040: d8b7 dd3c 2b93 04bd 777b 003d 0210 993d
00000050: d89d 933d 3cef 9abd eadf 06bd 2b9a 9d3a
00000060: 02e5 ebbc 3c67 8fbd 0ea3 45bc f59b aebd
00000070: b39b a23d 33a0 0bbc 0a93 333d cd4f 613d
00000080: 1106 5bbd 419d 713d 67f6 67bd 2f35 05bd
00000090: ff63 a0bd b6e6 083d 302a 9fbc ec3c a2bd
000000a0: 0569 053a 629a abbb 60a5 903d 147e f23c
000000b0: 0c14 183d 2c0a 65bd efe6 98bd e721 f8bb
000000c0: 3e5c 77bd 62a8 bb3d 280e 803d 9bf6 96bd
000000d0: c234 b63d 0894 523d 1fe0 a2bd 83da 823d
000000e0: 51ee 523d 6911 aabd 12c2 b53d b573 65bd
000000f0: af12 48bd 93e7 37bd 788b 4ebd 2628 52bd
00000100: 3bba ac3d a9fb d9bc a6fb bf3d 4bf3 cdbc
00000110: 6783 9f3d 6a9a d33b 42ee a9bd b8c5 4abd
00000120: 03d5 e3bc 014e 1bbd c38e 973d 548a 88bd
00000130: cb4c 7dbd 6df0 d13b 0793 2c3d c666 a8bd
00000140: 6758 62bd ca5e d03c 5f45 8c3d d868 4dbd
-0.05627008 -0.016399698 0.009620101 0.04739944 0.07315742 -0.0816588 0.041600447 -0.015236796
0.037998557 -0.05501787 0.07714567 0.082691334 0.0033532022 0.07667024 0.08629093 -0.0077795526
0.027065203 -0.032366913 0.031367745 0.074737564 0.07207841 -0.075651616 -0.032928385 0.0012024095
-0.028795723 -0.07002112 -0.012062801 -0.0852584 0.079398535 -0.008522081 0.0438414 0.055007745
-0.053472582 0.05898786 -0.056631472 -0.032521423 -0.07831573 0.033423148 -0.019429296 -0.07921776
0.00050891965 -0.0052369097 0.07062793 0.029601134 0.037128493 -0.055917904 -0.07465922 -0.007572401
-0.060390703 0.09162976 0.062527 -0.07371255 0.088967815 0.051410705 -0.07952904 0.06389334
0.051496807 -0.08304102 0.088749066 -0.05601855 -0.048845943 -0.04489858 -0.050425977 -0.05130782
0.08433958 -0.026609259 0.0937417 -0.025140425 0.07788735 0.0064576166 -0.08297397 -0.049504966
-0.027811533 -0.037916187 0.074002765 -0.06667009 -0.061840814 0.006406835 0.042132404 -0.082227275
-0.05526009 0.025435824 0.06849169 -0.050148815

network.4.weight f4 [21, 84]
00000000: ebda 05bd 1920 423a da47 1b3d efa6 263b
00000010: bb1f 8c3d 0d84 81bd 9281 62bd 343e 4b3b
00000020: 5711 7bbd 71d3 bb3a 2d93 b53d b241 8a3d
00000030: f814 86bd 29ec adbd efc0 d0bd 6327 a4bd
00000040: 47f9 413b ac2b c53d 4b35 e73d 771e c93d
00000050: 2969 573d 2ac9 063d 6eba 2d3d 659d adbd
00000060: 9309 923c 9701 9abc 4ff3 26bd 1424 843d
00000070: 6416 ec3a 2ed6 b9bd 2daf c83d a3c9 a7bc
00000080: 5815 b8ba 30ee f03d 2abb d13d 7361 bfbd
00000090: d9bb d7bd 9bb0 ad3d 1a89 273d ba4c 19bd
000000a0: 89c1 7b3b 71c3 0bbd 8793 193c 12db 3ebd
000000b0: f986 9ebd 6055 afbd 81af 8d3d 9364 21bd
000000c0: 9ebe 443d 5aa8 bf3d 33d5 34bd eb58 763d
000000d0: e031 75bd 02a5 8cbd 2daf ba3d 586a 353d
000000e0: c6e6 123d 9a38 83bc 1c52 cc3d 6f92 a33c
000000f0: fa88 ae3d 5966 0a3d ec10 df3c 1aa7 a93c
00000100: bba9 93bd 36d2 493d ab6a 6c3b a69e 7dbd
00000110: f648 c23d ef67 3f3d 8848 983d d35e a5bd
00000120: 6618 c03d 4810 6c3c 713f 243d f623 91ba
00000130: 51b6 ec3c a463 a8bd 2cc7 debc a505 a63c
00000140: 6a8b 37bd 9f67 82bd 4ff5 e73d 2d2a 83bd
00000150: be64 123c 1294 de3b 6249 7dbd 8d12 b23d
00000160: 8589 c93d a8e9 cfbd 31a3 32bd 393c 7d3d
00000170: 1c8e 9abd 9b1c e5bb 2249 e03d 293d 97bd
00000180: 5361 2abd 8722 d7bd 0c79 c23a 24b0 3a3c
00000190: d174 6e3d 4ff3 e53c 5c44 6bbc 2b30 603b
000001a0: 6e8a c2bc 8441 093d 698c 67bd f84d 03bd
000001b0: c4b3 93bb b21e 9cbd 42c5 ba3d 2b44 bb3d
000001c0: d373 cd3d 1b06 b9bd 12c0 e23d 1a59 e9bc
000001d0: dc35 473d ff11 7d3d 6140 313d a5c2 b0bd
000001e0: 0cce 3dbd e835 e63d e7ac 00bd e21f df3d
000001f0: 0ea7 6f3d 069d e23d bf42 a43d cb01 c73d
00000200: 721f 363c 83ba dd3d 89dd efbc 000d 853c
00000210: 49f3 c2bd e45d 3f3d abc8 90bd 863d 813d
00000220: a7c8 883c 108e d9bc 367f 523d e034 fa3d
00000230: 5e86 d23d 679e 5dbd 7db0 a6bd 8a10 34bd
00000240: 80c5 143d 4e5f cb3d 7691 8abd 9147 27bd
00000250: 9166 c0bc 2152 26bc 79b6 9abd 88f5 fabc
00000260: 752f 94bd 308a 57bc 3e2c cf3d 5c61 533d
00000270: cd20 8dbd a5e1 903d d6f2 03bd dff9 243d
00000280: 77e1 4b3c ae16 72bd 0978 77bd d97d 3e3d
00000290: 1cf2 41bd 34a6 463d aff5 693d b51e c6bd
000002a0: 5c1a 803d a4cb 1ebd 37c2 813d 952d a2bd
000002b0: cb1d 76bd b181 db3c 5c29 4cbd e3c5 ea3c
000002c0: 449a a9bc 0430 3dbd 5761 6bbd 8fa7 083d
000002d0: 5130 b4bd 5ddf b6bd 9811 9e3d 121b 0dbd
000002e0: 16ee eb3d aea7 babd 0366 823d 9e30 3f3d
000002f0: e46b 153d 336f 44bd 2491 c53d 4524 3bbd
00000300: 31f2 ffbc 3d91 03bd 5a00 99bd 63ba a0bd
00000310: dee0 603d bf9d e1bb 417d 503d 162c cdbd
00000320: 45ad 423d 4abb 4dbd 15f7 24bd ee9a d03d
00000330: 5856 753d cfd9 a13d c724 98bc fe75 c83d
00000340: e5da 9fbd c3fa 763d 8927 cf3d 1226 b23d
00000350: d08a c93c dae9 bd3c 8aea c73d 3e5c cebd
00000360: 65ea 52bd d002 8a3c 44b1 e83c c274 5bbd
00000370: 7994 813d e774 923d e223 523d 8852 df3d
00000380: 88b1 1a3d 6d2c 96bd 7499 ca3c ff01 243d
00000390: 9b9a adbc bd55 54bd 309a 6fbd 8127 9abd
000003a0: a645 eb3c 1036 51bd c16d 8f3d c5e7 90bc
000003b0: 762a 0fbd e0e7 cb3d 3679 79bd 8f21 603b
000003c0: 5244 e53a d3b3 f03c 47f4 aa3c e9cb 923d
000003d0: 16d0 0fbc 82a1 18bd 9f45 b6bd 44ea ab3c
000003e0: c0e3 99bd 045b b5bd 5163 a2bd 386b 53bc
000003f0: 2ca1 b1bd c75a a0bd 7353 ba3c ef45 d3bd
-0.03267948 0.00074052956 0.03791032 0.002542909 0.068419896 -0.06324015 -0.05529935 0.0031012418
-0.061295833 0.0014329982 0.08865962 0.06750812 -0.06546968 -0.084923096 -0.10193049 -0.08015325
0.0029598044 0.096274704 0.11289462 0.09820264 0.052590523 0.03290669 0.04241412 -0.08477286
0.017826831 -0.018799586 -0.04075938 0.06452194 0.0018012044 -0.09074055 0.09799037 -0.02048189
-0.0014044447 0.11764181 0.10240777 -0.09344759 -0.10533876 0.084809504 0.040902235 -0.037426688
0.0038414916 -0.034121934 0.009373552 -0.04659564 -0.07740588 -0.08561206 0.0691824 -0.039402556
0.04803335 0.093582824 -0.044148635 0.060143393 -0.059862018 -0.0686741 0.091154434 0.04429087
0.035864614 -0.0160182 0.099765986 0.019967286 0.0852222 0.033789013 0.027229749 0.020709563
-0.07210108 0.04927274 0.0036074321 -0.061918877 0.094865724 0.04672998 0.07435709 -0.08074727
0.09379654 0.014408179 0.040099565 -0.0011073339 0.028895529 -0.0822213 -0.027194582 0.020266363
-0.04481069 -0.063674204 0.11326086 -0.06404529 0.008935152 0.0067925537 -0.06183756 0.086949445
0.09840683 -0.10151988 -0.043612663 0.06182501 -0.075466365 -0.0069919354 0.10951449 -0.07384712
-0.04159672 -0.105046324 0.00148371 0.011394534 0.058216874 0.02807012 -0.01435956 0.0034208398
-0.023747649 0.033509746 -0.05653039 -0.03205678 -0.0045075137 -0.07623042 0.09119655 0.091438614
0.10031857 -0.09034368 0.11071791 -0.02848487 0.04863535 0.06178474 0.043274287 -0.086308755
-0.04633908 0.112407506 -0.031414893 0.10894753 0.058508925 0.11065106 0.08020543 0.09717139
0.011115896 0.1082659 -0.02928044 0.01624155 -0.09519059 0.0467204 -0.070695244 0.06310563
0.016697241 -0.026556998 0.05139085 0.12217116 0.10279535 -0.054106142 -0.08139131 -0.043961085
0.036321163 0.09930287 -0.06766026 -0.040839735 -0.023486407 -0.010151417 -0.07554335 -0.030634657
-0.07235614 -0.013155505 0.101158604 0.05160652 -0.06891022 0.07074288 -0.03221401 0.04027736
0.012443892 -0.05910366 -0.06041721 0.046506736 -0.047350034 0.048498347 0.057119068 -0.09673826
0.06255028 -0.038768426 0.06335872 -0.0791885 -0.060087007 0.02679524 -0.04984413 0.028658813
-0.020703442 -0.04618837 -0.057465877 0.03336292 -0.08798278 -0.08929322 0.077181995 -0.034449644
0.11520021 -0.091140136 0.063671134 0.046677224 0.036479846 -0.04795761 0.09646824 -0.045688886
-0.031243416 -0.032120932 -0.0747077 -0.078480504 0.05490195 -0.00688526 0.0509007 -0.10018174
0.047528524 -0.05022744 -0.0402747 0.101858005 0.059896797 0.07902872 -0.018572224 0.0978813
-0.07805423 0.06029774 0.101149626 0.086986676 0.024602324 0.023182798 0.09761532 -0.100761876
-0.051493067 0.016847044 0.02840484 -0.053578146 0.06327147 0.071512036 0.05130375 0.109044135
0.037766963 -0.07332692 0.024731375 0.040040966 -0.021191886 -0.05183958 -0.058496654 -0.07527066
0.028719734 -0.05107695 0.07003356 -0.017688641 -0.034952603 0.09956336 -0.06090661 0.003419969
0.0017491675 0.029382622 0.020868434 0.07167799 -0.008777639 -0.0372634 -0.08899998 0.02098573
-0.07514143 -0.088552505 -0.07929099 -0.012903981 -0.08673319 -0.078298144 0.02274487 -0.10316073

network.4.bias f4 [21]
00000000: 40f1 c8bc a04e c4bd 61d9 2ebd 61e5 c93b
00000010: fc62 0ebd 520e 5abd 086f ea3d fbf7 26bd
00000020: bc1b 023d 7aad 4c3d 5c8f babb d6cc b9bd
00000030: dc25 c23d a28d b7bd d231 b6bd 5072 9b3d
00000040: 15cd e2bc 37e3 6a3d 9a54 3d3d 0b11 d8bd
00000050: b77a ac3d
-0.0245291 -0.09585309 -0.042687777 0.0061613773 -0.034762368 -0.053236313 0.11446959 -0.040763836
0.03176473 0.049970128 -0.0056933593 -0.090722725 0.09479877 -0.08962561 -0.08896221 0.07590163
-0.027685681 0.057345595 0.04622326 -0.10550126 0.084218435
