pretrained/blue_agent_episode_100.pt (torch, 248522 bytes, 10 tensors)

cnn.0.weight f4 [5, 5, 3, 3]
0.07026908 -0.12161869 -0.105742544 -0.0805445 -0.05766796 0.0077867424 0.055352565 -0.07462985
0.14179847 0.12428499 -0.019773677 -0.14787503 -0.14217149 0.118950084 -0.005441341 -0.078340404
-0.046550464 -0.10416138 0.020192211 -0.11950068 0.13777868 -0.058049385 0.040693298 -0.020941354
0.057296004 0.00063634 0.08911774 0.108888775 -0.037544094 0.018337954 0.07465759 -0.05199246
0.09539797 0.098214805 -0.087325916 -0.12888685 -0.07794048 -0.14730038 -0.049032282 -0.09861727
-0.14572878 -0.09787611 -0.006161259 -0.047837563 0.064568646 -0.015811352 0.06909425 -0.11432179
-0.0181776 -0.010457155 -0.12956868 0.08232372 -0.020661382 -0.018203637 -0.042167347 0.1290412
-0.015692584 -0.113855995 -0.020096088 -0.05324335 -0.025257448 -0.14862621 0.022192894 0.064492226
0.14473718 0.10760359 -0.10558819 0.061658714 -0.025020419 -0.10119658 0.09610677 0.07490684
-0.07515375 0.110521235 -0.14896286 -0.026491903 0.096684456 -0.13719042 -0.10917812 0.07241611
-0.07300307 -0.116797544 -0.09072141 0.009764092 0.05984032 -0.14846297 0.005660906 -0.02509304
-0.08218278 0.092192195 -0.1280203 0.02024126 -0.00030335566 -0.13769099 -0.0063052378 -0.12180342
-0.08297474 0.003558169 -0.08712164 -0.08413535 -0.13718145 -0.120609075 -0.14248368 0.08853078
0.061981045 0.14092731 0.099045455 -0.10697581 -0.11016219 -0.031242717 -0.11403567 0.02641703
-0.013885246 -0.05595102 0.07772218 0.066569544 0.01836268 0.07740344 0.14070688 0.054273583
0.08115657 -0.08907262 0.05554175 -0.02657956 0.11511396 -0.021168454 0.053547937 -0.09950465
0.11237046 0.033491217 0.08939309 -0.0511708 0.10683697 0.08055441 0.0688554 -0.058102388
-0.099843204 -0.07571292 0.06318003 -0.012001361 0.081682056 0.070658095 -0.09267051 0.0844043
-0.1370683 -0.060620822 -0.024181888 0.09626005 -0.045620874 0.09180441 0.056619875 0.011537771
-0.026572479 0.031357393 -0.13629702 0.051593944 -0.041761875 -0.10565445 0.05736217 0.026591562
0.116156526 0.14361942 0.14343369 -0.056592595 0.10982431 0.012986372 -0.122734524 -0.08336867
0.09356762 0.029599253 0.1331985 0.015382412 0.038605217 0.06838778 -0.037985474 -0.043365628
-0.07955985 0.12476624 0.13708359 0.12553836 0.10401898 -0.08288917 0.0982588 0.14003997
-0.07498784 -0.14740025 0.13538282 0.1330745 0.019238949 0.074064896 -0.0638901 -0.13774307
-0.034026045 -0.13588303 0.09214132 -0.062757105 0.11976664 0.005264714 0.1018471 -0.009733226
0.016807541 -0.0048961462 0.091452554 -0.062297232 0.09508941 0.0012962444 0.072798245 0.14870515
-0.0013513424 0.02034336 -0.041392528 0.0745246 0.15143265 -0.00018755982 0.0020838308 -0.018965393
-0.11986638 0.13959615 -0.14517583 -0.1357857 -0.13127068 0.047208864 -0.009838807 0.0470337
-0.0043453975
00000000: 3ce9 8f3d 3813 f9bd 8c8f d8bd 84f4 a4bd
00000010: 3d35 6cbd ee27 ff3b 5fb9 623d 89d7 98bd
00000020: 9e33 113e 2189 fe3d 68fc a1bc 8d6c 17be
00000030: 6795 11be 1a9c f33d 474d b2bb ef70 a0bd
00000040: b3ab 3ebd 9052 d5bd 236a a53c c6bc f4bd
00000050: db15 0d3e 31c5 6dbd 04ae 263d 348d abbc
00000060: 37af 6a3d 0ed0 263a 5d83 b63d 1401 df3d
00000070: d6c7 19bd 7a39 963c 14e6 983d 0cf6 54bd
00000080: 0360 c33d d824 c93d eed7 b2bd eafa 03be
00000090: 429f 9fbd e9d5 16be 13d6 48bd daf7 c9bd
000000a0: ed39 15be 4573 c8bd 63e4 c9bb 52f1 43bd
000000b0: 913c 843d cf86 81bc 4981 8d3d 8b21 eabd
000000c0: 31e9 94bc 7d54 2bbc a7ad 04be 5799 a83d
000000d0: 0f42 a9bc cb1f 95bc abb7 2cbd 6023 043e
000000e0: bc8d 80bc 552d e9bd 8da0 a4bc b315 5abd
000000f0: b5e8 cebc 7831 18be dfcd b53c 8014 843d
00000100: fc35 143e 455f dc3d 9f3e d8bd d98d 7c3d
00000110: 9ff7 ccbc 2740 cfbd a0d3 c43d c268 993d
00000120: 36ea 99bd f558 e23d b889 18be 8c05 d9bc
00000130: 8002 c63d a57b 0cbe c798 dfbd e64e 943d
00000140: a282 95bd 8d33 efbd 26cc b9bd 92f9 1f3c
00000150: 201b 753d ad06 18be 1f7f b93b eb8f cdbc
00000160: 724f a8bd 43cf bc3d c117 03be 00d1 a53c
00000170: b50b 9fb9 defe 0cbe 2b9c cebb 1274 f9bd
00000180: a9ee a9bd 2b30 693b d56c b2bd 284f acbd
00000190: 4b79 0cbe e401 f7bd 3ee7 11be a04f b53d
000001a0: d6df 7d3d 404f 103e 58d8 ca3d 2216 dbbd
000001b0: b79c e1bd baf0 ffbc 898b e9bd 8768 d83c
000001c0: f17e 63bc e62c 65bd ce2c 9f3d 9d55 883d
000001d0: 556d 963c b285 9e3d 7715 103e fa4d 5e3d
000001e0: 6a35 a63d b56b b6bd bf7f 633d 61bd d9bc
000001f0: dec0 eb3d 7769 adbc 1555 5b3d 18c9 cbbd
00000200: 7c22 e63d 162e 093d b913 b73d 7998 51bd
00000210: 57cd da3d b6f9 a43d 0f04 8d3d c5fc 6dbd
00000220: 987a ccbd 600f 9bbd 8864 813d 5ba1 44bc
00000230: ec48 a73d 31b5 903d 09ca bdbd 29dc ac3d
00000240: a25b 0cbe 8a4d 78bd 1819 c6bc fd23 c53d
00000250: f4dc 3abd f303 bc3d 3eea 673d eb08 3d3c
00000260: 87ae d9bc 9c70 003d 7291 0bbe 2c54 533d
00000270: 800e 2bbd 5c61 d8bd 98f4 6a3d 8cd6 d93c
00000280: 79e3 ed3d f810 133e 48e0 123e a3cd 67bd
00000290: 91eb e03d cbc4 543c 3d5c fbbd 31bd aabd
000002a0: 61a0 bf3d 227a f23c 3065 083e 8306 7c3c
000002b0: 8120 1e3d e40e 8c3d a896 1bbd 28a0 31bd
000002c0: 46f0 a2bd 7185 ff3d a45f 0c3e 218d 003e
000002d0: e707 d53d ccc1 a9bd e93b c93d a366 0f3e
000002e0: 3a93 99bd 17f0 16be cba1 0a3e af44 083e
000002f0: 009b 9d3c 56af 973d d0d8 82bd 850c 0dbe
00000300: e55e 0bbd ec24 0bbe 97b4 bc3d cc86 80bd
00000310: 3648 f53d 9f83 ac3b 3695 d03d 1c78 1fbc
00000320: f8af 893c da6f a0bb 7a4b bb3d 622b 7fbd
00000330: 3dbe c23d bfe6 a93a 3f17 953d 2a46 183e
00000340: 871f b1ba 1ea7 a63c 368b 29bd 5aa0 983d
00000350: 2911 1b3e b5ab 44b9 e190 083b 505d 9bbc
00000360: 817c f5bd 4bf2 0e3e f9a8 14be 680b 0bbe
00000370: d26b 06be 155e 413d f332 21bc 69a6 403d
00000380: d663 8ebb

cnn.0.bias f4 [5]
0.020978924 0.10386095 0.036630094 -0.04591074 -0.118087895
00000000: fedb ab3c 0db5 d43d 7009 163d e60c 3cbd
00000010: 11d8 f1bd

cnn.2.weight f4 [5, 5, 3, 3]
-0.039066423 -0.11472188 0.11752381 -0.0037990424 0.067343004 0.07364956 0.02293511 -0.12174089
0.019168602 -0.14762458 -0.074445665 0.12378405 0.029173654 -0.05672077 0.1278842 -0.025716046
0.14626053 0.13532378 -0.09570047 0.029946374 -0.050255273 0.084225476 -0.14253525 -0.016419703
0.08535144 -0.10580938 -0.09900975 -0.08895541 0.06425544 -0.06624841 -0.075447954 0.071640186
0.0051705684 -0.060752556 0.016814336 0.11943674 -0.08356125 0.07007776 -0.03082815 0.10839751
0.10441177 -0.13924415 0.04458633 -0.10619642 -0.047792204 -0.047285203 0.05062939 0.014324323
-0.13585767 0.07681648 0.06548799 -0.054438874 -0.12995158 0.11147582 -0.14134319 -0.13064452
0.01777871 -0.08434808 0.033622906 -0.13692251 -0.092696026 0.13036934 0.13802631 0.11527529
-0.09627235 0.08699571 -0.12906976 0.086012006 -0.10019292 0.015784739 -0.049240034 0.012619659
0.03936305 0.05923099 -0.13063642 -0.13724257 -0.08930994 -0.11447608 -0.0012034843 -0.06324648
0.009266268 -0.027343692 0.056205343 0.05114072 0.11229074 0.15125553 -0.06964085 -0.0025175856
0.021840781 0.12782516 0.02659646 0.13637596 -0.009031216 0.09743421 -0.09866302 0.025300669
-0.10676991 -0.13562945 0.007847427 -0.12651078 -0.04363785 0.06845346 0.09617407 -0.11510375
0.09313906 0.073703416 -0.12580863 -0.026607335 -0.077091314 -0.12095828 -0.047270782 0.04305434
0.043223426 -0.136281 0.030888582 0.05213549 -0.13452533 -0.0023901737 0.017863736 -0.11518247
-0.036700137 0.13025631 0.084642194 0.057681676 -0.025401834 0.14014636 -0.04975089 -0.11127685
0.12980531 0.04531976 -0.07479242 0.07573135 0.14390855 0.09367834 0.092907004 -0.04428264
-0.0427276 -0.11922146 0.103646316 0.07676259 0.063385904 -0.02380296 0.061354447 -0.0796304
0.039488085 0.04659233 -0.141734 0.03975046 -0.1159916 -0.13890603 0.07173358 0.08648846
0.11065489 0.021253552 -0.07785105 0.03085046 -0.0023432495 0.100529246 -0.025896322 0.113571376
-0.09757829 -0.14063817 0.046260167 0.020103566 0.1203338 0.038722664 0.12190316 -0.06958313
-0.050609455 -0.07018454 0.014037037 -0.12642853 0.12139801 0.14626355 0.0077811237 -0.027618676
0.11768257 0.07992564 -0.07677494 -0.026030308 0.06510306 -0.09631022 -0.05658091 -0.12874739
0.07842239 -0.12928322 -0.028330268 0.13828495 0.10304506 0.14198418 0.031419404 0.0500579
-0.00567526 -0.07496353 0.1088486 -0.004386172 -0.05515429 -0.11705259 0.07142109 -0.013150943
0.082839414 0.08805908 0.089157164 -0.11950448 0.060592342 -0.0056655672 -0.018602055 0.011806259
0.09650775 -0.10154561 0.060487535 0.09419116 0.08180563 0.09330177 -0.10697915 -0.080180556
0.023401348 -0.020745737 0.028661376 0.14012206 0.10403997 0.025242046 0.0052143726 -0.14341767
0.008326985
00000000: 1d04 20bd 4ef3 eabd 53b0 f03d 5bf9 78bb
00000010: 21eb 893d 95d5 963d 69e2 bb3c 4a53 f9bd
00000020: 7907 9d3c e62a 17be f876 98bd 7e82 fd3d
00000030: 96fd ee3c 0a54 68bd 13f4 023e 75aa d2bc
00000040: 52c5 153e 5192 0a3e 9cfe c3bd 1952 f53c
00000050: 79d8 4dbd 687e ac3d c3f4 11be 9d82 86bc
00000060: bccc ae3d 97b2 d8bd a0c5 cabd 412e b6bd
00000070: 5b98 833d 3fad 87bd 7584 9abd 17b8 923d
00000080: df6d a93b acd7 78bd 38be 893c 409b f43d
00000090: 2922 abbd ee84 8f3d 518b fcbc 84ff dd3d
000000a0: d7d5 d53d 0596 0ebe 28a0 363d 827d d9bd
000000b0: c2c1 43bd 21ae 41bd c360 4f3d 91b0 6a3c
000000c0: 461e 0bbe f551 9d3d 911e 863d 4cfb 5ebd
000000d0: 0712 05be 6f4d e43d 45bc 10be adc7 05be
000000e0: a8a4 913c b0be acbd 2cb8 093d 6a35 0cbe
000000f0: 6ad7 bdbd 8a7f 053e c556 0d3e 7415 ec3d
00000100: 702a c5bd cf2a b23d dd2a 04be 1027 b03d
00000110: f231 cdbd ff4e 813c ebaf 49bd b0c2 4e3c
00000120: 263b 213d 329c 723d 8ec5 05be 5189 0cbe
00000130: 21e8 b6bd 6f72 eabd 3bbe 9dba 5f87 81bd
00000140: 8cd1 173c e1ff dfbc 9337 663d ee78 513d
00000150: b0f8 e53d bbe2 1a3e dd9f 8ebd 14fe 24bb
00000160: 70eb b23c 99e4 023e d2e0 d93c 24a6 0b3e
00000170: aaf7 13bc 968b c73d d60f cabd 5943 cf3c
00000180: 2faa dabd 72e2 0abe 7f92 003c 0b8c 01be
00000190: 9abd 32bd 5431 8c3d e9f6 c43d 84bb ebbd
000001a0: b1bf be3d d1f1 963d fad3 00be a0f7 d9bc
000001b0: 0de2 9dbd fab8 f7bd 029f 41bd bf59 303d
000001c0: 0c0b 313d 3f8d 0bbe 0d0a fd3c 068c 553d
000001d0: 02c1 09be 76a4 1cbb f856 923c c9e4 ebbd
000001e0: e252 16bd e961 053e e358 ad3d 9f43 6c3d
000001f0: 8217 d0bc 8782 0f3e 97c7 4bbd 1ee5 e3bd
00000200: afeb 043e 36a1 393d c52c 99bd 0a19 9b3d
00000210: c35c 133e 6eda bf3d 0746 be3d b761 35bd
00000220: 2303 2fbd 612a f4bd 8544 d43d b435 9d3d
00000230: 78d0 813d 6dfe c2bc cd4e 7b3d 4315 a3bd
00000240: 42be 213d 99d7 3e3d b822 11be 61d1 223d
00000250: 018d edbd 623d 0ebe 0ee9 923d dd20 b13d
00000260: 089f e23d ee1b ae3c 5f70 9fbd 1bba fc3c
00000270: 3491 19bb 47e2 cd3d 8624 d4bc 1c98 e83d
00000280: 20d7 c7bd 7403 10be 4d7b 3d3d 3cb0 a43c
00000290: 9171 f63d a89b 1e3d 5da8 f93d 9a81 8ebd
000002a0: dc4b 4fbd e9bc 8fbd 9afb 653c 7b76 01be
000002b0: 859f f83d 1dc6 153e ccf8 fe3b 9040 e2bc
000002c0: 8f03 f13d 0eb0 a33d 2e3c 9dbd 833d d5bc
000002d0: c154 853d 4b3e c5bd 62c1 67bd 5bd6 03be
000002e0: eb9b a03d d262 04be e114 e8bc 929a 0d3e
000002f0: 4a09 d33d 4d64 113e a2b1 003d 8309 4d3d
00000300: 88f7 b9bb 7b86 99bd 04ec de3d e1b9 8fbb
00000310: 77e9 61bd 45b9 efbd 3845 923d 0e77 57bc
00000320: b6a7 a93d 5258 b43d 0898 b63d c4be f4bd
00000330: ad2f 783d 39a6 b9bb 5663 98bc 0a6f 413c
00000340: dba5 c53d 25f7 cfbd c7c1 773d 4be7 c03d
00000350: b689 a73d 0015 bf3d e217 dbbd b435 a4bd
00000360: 2fb4 bf3c f7f2 a9bc 43cb ea3c 287c 0f3e
00000370: e812 d53d 68c8 ce3c 54dd aa3b 15dc 12be
00000380: e86d 083c

cnn.2.bias f4 [5]
-0.07738087 0.14070262 0.091473065 -0.107599296 -0.03352909
00000000: dd79 9ebd 5914 103e 3b56 bb3d 055d dcbd
00000010: cd55 09bd

network.0.weight f4 [120, 405]
-0.005365866 0.024522966 -0.0112470295 -0.014287597 0.018392727 -0.043930545 -0.03369755 -0.048765644
-0.0044722636 0.029546129 0.033228792 -0.03303926 -0.022611767 0.009302792 -0.031008579 0.01811557
0.041665584 0.042728927 0.028873546 -0.008413167 -0.03661903 -0.047602028 -0.006994653 -0.034070462
-0.04088905 0.021362934 -0.04885903 0.042218138 0.0059408387 0.03906789 -0.024182195 0.049131203
-0.03195679 0.026773106 0.030489277 0.045043048 -0.032135703 -0.009682285 -0.019090772 0.026069537
0.040199235 0.0046393094 -0.017784953 0.040454093 -0.03452625 0.025552236 0.036122575 -0.042180166
-0.0015192275 0.005919024 0.024691548 0.0406906 0.008223312 0.0060112206 0.0091116205 -0.04015328
0.044580173 0.007382855 0.048178498 0.02397794 0.020438699 0.0039453856 0.038138054 0.027921453
-0.0004409908 -0.03933926 -0.006693057 0.026623573 -0.03699421 -0.005754458 0.028447304 0.027789026
-0.021490753 -0.016872182 0.005312624 0.003656734 0.012688327 0.040496197 0.045553137 0.042698294
0.01448287 0.03973367 0.013798381 0.011358437 -0.03702001 -0.02672511 -0.021029176 -0.03711602
-0.028478578 -0.036370456 0.016567895 -0.029026743 0.020719057 0.007140878 0.008646622 0.032236435
0.02306797 0.0031924476 -0.04972114 0.007156727 -0.041104104 -0.037021104 0.032804765 -0.029880578
0.016451117 -0.02636064 0.025926134 0.04094545 0.0042420877 0.00971147 0.037951615 -0.0037811652
-0.0021581873 0.015849955 -0.0441502 0.021485327 -0.025582815 0.030322758 0.049347017 -0.032232657
0.011933709 0.03694018 0.03598997 -0.025213985 -0.007470439 -0.03837018 -0.04169085 0.03947868
0.0030571045 -0.022590201 0.01342452 -0.031966567 -0.049011257 0.0038033107 -0.03456289 -0.035706997
0.014756094 0.006430292 0.017841693 -0.04138848 0.003909116 -0.028400451 0.010813862 0.014863214
0.009035662 0.020978617 0.022038667 -0.027589342 -0.020495342 -0.031368803 0.02009691 -0.030737257
0.01325212 -0.02083036 -0.0134270815 -0.0073665245 -0.033380948 0.037608985 -0.0055139693 0.04800289
0.00046218262 0.018776992 0.024964115 0.032689326 0.047463026 0.016592186 0.04100424 0.0038496107
-0.027313195 -0.025046526 -0.028940264 0.01767791 -0.023136862 0.0047299294 -0.011168433 -0.015841965
0.02014053 -0.02732018 0.04863452 0.014985875 -0.023587538 0.020628627 0.039759677 -0.024619024
0.02416287 0.019170951 -0.040021818 -0.022514937 0.014902401 -0.041399628 0.039856575 -0.0439261
-0.012060714 0.026251461 -0.0029020892 0.030775482 -0.047268923 -0.002435866 -0.042870402 -0.028998336
-0.034406524 0.04553469 -0.028437465 0.04582157 -0.040290724 -0.03337193 0.01916479 0.037843596
0.01734979 -0.021523079 -0.039384715 0.046467803 0.014282936 0.04765496 -0.013934819 0.045568865
0.0026195094 -0.04102839 -0.04066733 0.00022171182 -0.04239877 0.029043917 -0.0010000899 0.029699406
0.023601994 0.00074493623 -0.022186503 -0.047800016 0.0024791406 -0.025843214 0.029290607 -0.009770542
0.025270503 0.023760658 -0.03859648 0.0064968504 0.008928929 0.04706761 -0.0032562013 0.034214683
0.0030081407 0.022427784 -0.037518755 -0.01532258 0.029383741 -0.016419675 -0.037646245 0.018753601
-0.04559244 -0.04321309 0.04792162 -0.03095555 0.005820766 0.018046727 0.0045522386 -0.04834417
00000000: 25d4 afbb 63e4 c83c 7645 38bc 8616 6abc
00000010: 58ac 963c 84f0 33bd 7106 0abd 7cbe 47bd
00000020: 118c 92bb b90a f23c ea1a 083d 2d54 07bd
00000030: 503c b9bc bd6a 183c b405 febc 1b67 943c
00000040: 88a9 2a3d 8704 2f3d 3788 ec3c 61d7 09bc
00000050: d6fd 15bd 58fa 42bd 6733 e5bb 788d 0bbd
00000060: 477b 27bd 5201 af3c 6820 48bd edec 2c3d
00000070: 5eab c23b a705 203d bd19 c6bc cd3d 493d
00000080: 1fe5 02bd 4653 db3c a6c4 f93c 0f7f 383d
00000090: baa0 03bd 72a2 1ebc 4064 9cbc c88f d53c
000000a0: f4a7 243d 5905 983b c0b1 91bc 31b3 253d
000000b0: 666b 0dbd ec52 d13c 44f5 133d 1cc5 2cbd
000000c0: d120 c7ba 5ff4 c13b ee45 ca3c 30ab 263d
000000d0: 12bb 063c c6f9 c43b e848 153c c477 24bd
000000e0: b399 363d e0eb f13b d156 453d 636d c43c
000000f0: 0f6f a73c 4b48 813b a636 1c3d 88bb e43c
00000100: c934 e7b9 3422 21bd 6e51 dbbb ae19 da3c
00000110: 3e87 17bd e48f bcbb 520a e93c d0a5 e33c
00000120: 600d b0bc 8837 8abc 8515 ae3b d1a5 6f3b
00000130: b3e2 4f3c 57df 253d ed95 3a3d 68e4 2e3d
00000140: 8f49 6d3c c6bf 223d 9b12 623c bd18 3a3c
00000150: 4ba2 17bd 9eee dabc 6145 acbc f806 18bd
00000160: e84b e9bc 30f9 14bd 65b9 873c 7ec9 edbc
00000170: 03bb a93c 07fe e93b 90aa 0d3c 5a0a 043d
00000180: 0af9 bc3c 6238 513b 65a8 4bbd fa82 ea3b
00000190: c75c 28bd 71a3 17bd 4a5e 063d 1dc8 f4bc
000001a0: 7ec4 863c 45f2 d7bc 0b63 d43c 6bb6 273d
000001b0: 3601 8b3b dc1c 1f3c 2773 1b3d 6dcd 77bb
000001c0: 6070 0dbb c4d7 813c d7d6 34bd ff01 b03c
000001d0: 0d93 d1bc 6f67 f83c 1920 4a3d 6406 04bd
000001e0: 9a85 433c 964e 173d 386a 133d 8f8d cebc
000001f0: 96ca f4bb 0d2a 1dbd 06c4 2abd 65b4 213d
00000200: b459 483b 160f b9bc 85f2 5b3c 60ef 02bd
00000210: 07c0 48bd f740 793b d191 0dbd 8041 12bd
00000220: 8bc3 713c 33b5 d23b be28 923c f886 29bd
00000230: 0b18 803b 10a8 e8bc a02c 313c d784 733c
00000240: 500a 143c 59db ab3c 6f8a b43c 0b03 e2bc
00000250: d9e5 a7bc 937c 00bd 46a2 a43c b3cc fbbc
00000260: 6c1f 593c 6ea4 aabc 43fd 5bbc e362 f1bb
00000270: 76ba 08bd e10b 1a3d 87ae b4bb ae9e 443d
00000280: 1a51 f239 35d2 993c 8b81 cc3c 3ee5 053d
00000290: 9768 423d 56ec 873c 10f4 273d c049 7c3b
000002a0: ecbf dfbc 5f2e cdbc 2214 edbc 44d1 903c
000002b0: 8489 bdbc 86fd 9a3b cefb 36bc 02c7 81bc
000002c0: c1fd a43c 92ce dfbc fe34 473d 5187 753c
000002d0: a73a c1bc 5efd a83c 0bdb 223d d6ad c9bc
000002e0: 36f1 c53c 660c 9d3c ebed 23bd 3f71 b8bc
000002f0: 3329 743c a892 29bd a640 233d dbeb 33bd
00000300: 4d9a 45bc 4e0d d73c fa30 3ebb dd1c fc3c
00000310: 0f9d 41bd 0da3 1fbb e098 2fbd eb8d edbc
00000320: dbed 0cbd 9582 3a3d b0f5 e8bc 66af 3b3d
00000330: e307 25bd 01b1 08bd 7aff 9c3c e301 1b3d
00000340: 2621 8e3c 2b51 b0bc de51 21bd 0655 3e3d
00000350: fa02 6a3c d931 433d de4e 64bc 6ba6 3a3d
00000360: 13ac 2b3b 630d 28bd c992 26bd 507b 6839
00000370: 55aa 2dbd 82ed ed3c 7315 83ba 2b4c f33c
00000380: f858 c13c d347 433a 78c0 b5bc f3c9 43bd
00000390: 1479 223b 26b5 d3bc dbf2 ef3c a014 20bc
000003a0: 1604 cf3c b6a5 c23c 5817 1ebd 88e3 d43b
000003b0: a54a 123c f7c9 403d fe65 55bb b224 0c3d
000003c0: 3a24 453b 79ba b73c 44ad 19bd 8f0b 7bbc
000003d0: 2cb6 f03c 8e82 86bc f332 1abd 27a1 993c
000003e0: 23bf 3abd 3600 31bd 7649 443d 7e96 fdbc
000003f0: 20bc be3b bbd6 933c f22a 953b 8904 46bd

network.0.bias f4 [120]
0.016595284 0.025135094 0.022655156 -2.3045657e-05 0.021600857 -0.010968892 0.005430911 0.025152361
-0.013274486 0.032510117 -0.010692296 0.0222112 0.010266272 0.0012183182 -0.02730133 -0.045061704
0.023693906 0.021832235 0.015136208 0.030523468 0.016748905 0.053620487 -0.03998605 0.04183595
-0.015151614 -0.012121432 0.024639955 -0.010945027 0.03154663 -0.008329148 -0.025986753 -0.03948831
-0.031662308 -0.01612718 0.04463278 -0.024801433 -0.021225275 0.038898412 -0.00095774885 -0.03409408
-0.01783966 0.017353531 -0.016435552 0.0012974928 -0.03009206 -0.042906687 0.018813603 0.013099059
0.011826681 -0.03166458 -0.025861941 -0.032311328 -0.016063223 0.04698862 -0.02681435 -0.025770742
-0.025148146 -0.035884295 -0.04538723 -0.004008909 -0.03528664 -0.009131264 0.03393343 0.029620823
-0.00812427 -0.049774062 -0.011018341 -0.026734442 0.009392439 0.004805837 -0.048064787 -0.033208136
0.016911952 -0.024515508 -0.031560328 -0.014469928 -0.017221637 0.011057387 -0.040986124 -0.02729649
0.0010261998 0.011225846 -0.025451567 -0.013968536 -0.0020797781 -0.0048564565 -0.006992396 0.03264479
0.010079084 -0.013146343 -0.04221466 -0.00898345 0.00067266496 -0.045985293 0.0013324252 -0.0488771
-0.0010421652 0.016504265 0.04284147 0.021191115 -0.027121406 -0.012982483 0.03612422 0.04613223
-0.04206658 0.044235595 0.028964203 -0.045082197 -0.044557452 -0.002300824 0.046480138 -0.04715188
0.04455583 0.017565602 0.01265939 0.0066621806 0.00021311945 0.021293031 0.0064813406 0.030339679
00000000: d5f2 873c 1de8 cd3c 4e97 b93c 2c52 c1b7
00000010: 48f4 b03c deb6 33bc c9f5 b13b 530c ce3c
00000020: 3b7d 59bc 5429 053d bd2e 2fbc 43f4 b53c
00000030: de33 283c faaf 9f3a 0aa7 dfbc 9f92 38bd
00000040: b919 c23c 84d9 b23c dcfd 773c 5a0c fa3c
00000050: 0035 893c 28a1 5b3d 6ac8 23bd 2c5c 2b3d
00000060: 7a3e 78bc f998 46bc bbd9 c93c c552 33bc
00000070: 0a37 013d fb76 08bc 2ce2 d4bc 7fbe 21bd
00000080: 56b0 01bd 261d 84bc ddd0 363d 602c cbbc
00000090: a1e0 adbc f153 1f3d 7011 7bba 3ca6 0bbd
000000a0: 7b24 92bc fe28 8e3c daa3 86bc a210 aa3a
000000b0: a083 f6bc ecbe 2fbd fc1e 9a3c 709d 563c
000000c0: b2c4 413c b8b2 01bd 6cdc d3bc e258 04bd
000000d0: 0597 83bc 2477 403d c5a9 dbbc 2a1d d3bc
000000e0: 7c03 cebc 69fb 12bd f6e7 39bd 2b5d 83bb
000000f0: b988 10bd 4c9b 15bc c8fd 0a3d 5ea7 f23c
00000100: a81b 05bc e3df 4bbd 4686 34bc 3002 dbbc
00000110: bfe2 193c 487a 9d3b 95df 44bd 4105 08bd
00000120: ef8a 8a3c bfd4 c8bc 6745 01bd 4713 6dbc
00000130: 6414 8dbc 0b2a 353c 11e1 27bd e39c dfbc
00000140: 8d81 863a 9cec 373c ce7f d0bc 49dc 64bc
00000150: e34c 08bb e922 9fbb 7820 e5bb 8bb6 053d
00000160: be22 253c c263 57bc 48e9 2cbd 522f 13bc
00000170: c855 303a 135b 3cbd c5a4 ae3a 5b33 48bd
00000180: 4399 88ba f433 873c 8a7a 2f3d fd98 ad3c
00000190: b62d debc 7bb4 54bc fdf6 133d 26f5 3c3d
000001a0: 024e 2cbd 6230 353d 5646 ed3c 1ca8 38bd
000001b0: e081 36bd 6cc9 16bb f561 3e3d 5422 41bd
000001c0: 2d80 363d bde5 8f3c 5569 4f3c 6c4e da3b
000001d0: d178 5f39 b96e ae3c 6d61 d43b eb8a f83c

network.2.weight f4 [84, 120]
0.030492064 -0.009183373 0.052223444 -0.080867246 -0.04712964 -0.08966333 -0.0013856938 -0.07404863
-0.018864762 0.049342114 0.00075133366 -0.038119566 0.03771777 0.020193389 -0.007166834 -0.07208623
-0.0045901085 -0.034680746 0.002941325 -0.0020310231 0.0543703 -0.0020140903 0.020650608 0.015187502
-0.06515999 -0.07730802 -0.026648512 0.03026062 -0.010839143 0.047139097 0.004990489 -0.054637916
-0.08399064 0.03806905 0.07837576 0.03249978 -0.061694033 0.0449731 0.07338641 -0.07678517
-0.0835724 0.015097701 -0.027629407 0.07282223 -0.05800032 -0.0032109441 -0.09013366 0.08175319
-0.08738568 -0.017267266 0.019833937 -0.024628252 -0.0086311195 -0.039173037 0.018575402 -0.013897768
-0.045003746 -0.07906565 -0.034160968 0.042923108 0.08252636 -0.07026197 0.0037773554 -0.00041584414
0.046162914 -0.057375655 0.04008941 -0.012672936 0.021807088 -0.03062066 0.06603372 -0.072626896
0.08043888 -0.008646257 -0.07187732 0.06480481 0.067504264 -0.08019725 0.037708174 -0.05206317
0.020317262 0.07790058 -0.07630274 0.057141688 -0.04430165 -0.027958758 -0.07764383 -0.060247768
-0.0638503 -0.033057973 -0.08048381 0.042789824 -0.032888524 0.08378488 -0.010134429 0.049379013
0.0041185147 -0.08172486 -0.050229084 -0.030620812 -0.046415437 -0.004010519 -0.014156407 0.050454497
0.0019902908 0.06302958 -0.0452039 -0.013763774 -0.056786858 -0.023934072 0.05344932 -0.071001746
0.025328156 0.08400414 0.026001627 -0.021868225 0.08773378 -0.084283434 -0.012096557 0.08165048
0.029771835 0.053013545 0.04817606 0.06318979 -0.025051044 -0.0855368 0.073612444 -0.042065524
0.06513909 -0.0073349336 0.062361185 -0.03844202 0.06788651 -0.038052436 0.003788962 0.05168347
-0.05973549 -0.025154155 -0.07544917 -0.05118918 -0.04236491 -0.06994985 0.08739134 -0.016735904
-0.0044993847 -0.032873947 0.0046421126 0.013649685 0.06115662 -0.022000734 -0.07255963 0.046623927
0.015710434 0.012888926 0.016157549 0.08670958 -0.082294635 0.09077107 -0.02520386 0.03063773
0.035145614 0.0072134505 -0.01609703 0.052440945 0.032661095 -0.018695055 -0.046691112 -0.07110226
-0.02996065 0.031352784 -0.023171011 -0.031304553 0.0036836497 0.035703223 0.03354063 -0.029681321
0.029915463 0.0104175145 -0.029280378 -0.084537834 0.0333329 0.079732515 -0.04503635 0.014529309
0.014313129 -0.0861137 0.083174385 0.06733415 -0.032984357 0.04529161 0.053597994 -0.07952167
0.022047557 -0.034735292 -0.08245064 0.0035147497 -0.08080229 0.06739152 -0.033081383 -0.06298494
0.006509647 -0.05104304 -0.06158202 -0.06756638 -0.024784643 -0.014136887 -0.08270176 -0.028835481
-0.037868876 0.08004572 -0.0008628432 -0.0010240003 0.026892813 -0.019777969 0.019614428 -0.07049538
-0.08705517 0.021417908 0.08260995 -0.051141717 -0.002322561 0.022382194 0.0845721 0.026978469
-0.0051491656 0.010377141 0.074425325 0.075671196 0.076455325 -0.017214412 -0.009730264 -0.08312205
0.06053124 0.0815224 -0.089046866 0.002407117 -0.012392057 0.004947886 0.042331267 0.07669203
0.018909587 -0.02009193 -0.039044634 -0.014933956 0.054428272 0.08270667 0.01117739 0.06410611
-0.0147063425 0.030077025 -0.023317892 -0.002913953 0.07953969 0.0029619385 0.012495718 0.06626337
00000000: 7eca f93c dc75 16bc 40e8 553d ba9d a5bd
00000010: 020b 41bd 68a1 b7bd 2ba0 b5ba cfa6 97bd
00000020: 468a 9abc f51a 4a3d 26f5 443a 4323 1cbd
00000030: f37d 1a3d 9b6c a53c c3d7 eabb f2a1 93bd
00000040: 9f68 96bb 660d 0ebd 3fc3 403b ea1a 05bb
00000050: 64b3 5e3d d4fe 03bb 772b a93c 00d5 783c
00000060: 9a72 85bd ab53 9ebd fb4d dabc 1fe5 f73c
00000070: a996 31bc ed14 413d 4287 a33b 02cc 5fbd
00000080: 4903 acbd 4bee 1b3d 7883 a03d 7d1e 053d
00000090: e2b2 7cbd b735 383d 9d4b 963d 8b41 9dbd
000000a0: 0228 abbd 595c 773c 1157 e2bc d223 953d
000000b0: be91 6dbd b46e 52bb ff97 b8bd 376e a73d
000000c0: 43f7 b2bd 1574 8dbc c87a a23c 30c1 c9bc
000000d0: 8a69 0dbc e873 20bd 712b 983c 77b3 63bc
000000e0: d955 38bd 2ced a1bd 5fec 0bbd 24d0 2f3d
000000f0: 9503 a93d 82e5 8fbd 828d 773b a805 dab9
00000100: 5315 3d3d bc02 6bbd cb34 243d 25a2 4fbc
00000110: c7a4 b23c 2ed8 fabc b03c 873d 69bd 94bd
00000120: 24bd a43d 08a9 0dbc 6b34 93bd 62b8 843d
00000130: ad3f 8a3d 753e a4bd e373 1a3d 3140 55bd
00000140: 6370 a63c 578a 9f3d 9c44 9cbd 670d 6a3d
00000150: a675 35bd c409 e5bc ba03 9fbd 5dc6 76bd
00000160: f2c3 82bd cc67 07bd b2d4 a4bd 6244 2f3d
00000170: 1eb6 06bd 6897 ab3d e00a 26bc a641 4a3d
00000180: 9bf4 863b 5d5f a7bd 03bd 4dbd 7fd8 fabc
00000190: 1d1e 3ebd ac6a 83bb 46f0 67bc 60a9 4e3d
000001a0: 8a6f 023b a715 813d ba27 39bd 7481 61bc
000001b0: 5699 68bd 6311 c4bc aded 5a3d 5d69 91bd
000001c0: fe7c cf3c 5d0a ac3d 5d01 d53c fe24 b3bc
000001d0: c5ad b33d cb9c acbd a330 46bc 5e38 a73d
000001e0: 10e4 f33c bb24 593d 4354 453d a669 813d
000001f0: d937 cdbc eb2d afbd 1fc2 963d e64c 2cbd
00000200: a567 853d e259 f0bb 716e 7f3d 6175 1dbd
00000210: 1508 8b3d dfdc 1bbd 3c50 783b 0cb2 533d
00000220: 33ad 74bd 1610 cebc 1885 9abd bfab 51bd
00000230: d486 2dbd de41 8fbd 3bfa b23d bc19 89bc
00000240: 936f 93bb d5a6 06bd dd1c 983b eea2 5f3c
00000250: 5d7f 7a3d e23a b4bc 259a 94bd bbf8 3e3d
00000260: 2bb3 803c 132c 533c d65c 843c cb94 b13d
00000270: 178a a8bd 2fe6 b93d 5378 cebc fafb fa3c
00000280: d9f4 0f3d cf5e ec3b ebdd 83bc 51cc 563d
00000290: a4c7 053d 5f26 99bc 2e3f 3fbd 109e 91bd
000002a0: 0970 f5bc c76b 003d 22d1 bdbc 3439 00bd
000002b0: 6369 713b 8b3d 123d e661 093d 3e26 f3bc
000002c0: 4611 f53c 39ae 2a3c 67dd efbc 2c22 adbd
000002d0: 1488 083d cd4a a33d 0978 38bd 570c 6e3c
000002e0: 9d81 6a3c 615c b0bd 5557 aa3d 7de6 893d
000002f0: 9b1a 07bd b283 393d 9289 5b3d 42dc a2bd
00000300: 149d b43c 9846 0ebd e2db a8bd b757 663b
00000310: ac7b a5bd 9104 8a3d 5880 07bd 40fe 80bd
00000320: e04e d53b 8212 51bd 6e3d 7cbd 3e60 8abd
00000330: 2a09 cbbc 679e 67bc 8a5f a9bd 6338 ecbc
00000340: 651c 1bbd 03ef a33d 6d30 62ba c037 86ba
00000350: 514e dc3c 6805 a2bc 70ae a03c e25f 90bd
00000360: fb49 b2bd 9c74 af3c 682f a93d fa79 51bd
00000370: 1c36 18bb dd5a b73c 2334 ad3d f301 dd3c
00000380: 55ba a8bb e204 2a3c 4e6c 983d 80f9 9a3d
00000390: 9c94 9c3d 3d05 8dbc af6b 1fbc e53b aabd
000003a0: 9bef 773d 37f5 a63d 345e b6bd b9c0 1d3b
000003b0: 0e08 4bbc e021 a23b 8d63 2d3d b610 9d3d
000003c0: 47e8 9a3c d597 a4bc 44ed 1fbd 8dad 74bc
000003d0: 2ef0 5e3d 1d62 a93d 5f21 373c 104a 833d
000003e0: dff2 70bc 1864 f63c 2a05 bfbc 05f8 3ebb
000003f0: b4e5 a23d 151d 423b d7ba 4c3c 17b5 873d

network.2.bias f4 [84]
-0.05627008 -0.016277216 0.0077764825 0.04889363 0.06755226 -0.080291666 0.043828845 -0.015595655
0.038035635 -0.05501787 0.071109705 0.08410613 0.0047771474 0.0772754 0.087384894 -0.015008867
0.020700147 -0.030988768 0.029708253 0.06984576 0.072611675 -0.07341095 -0.032928385 -3.665695e-05
-0.024488827 -0.07002112 -0.012065213 -0.08070933 0.07631402 -0.008522374 0.037850957 0.048759647
-0.04902674 0.057676315 -0.056631472 -0.032521423 -0.07831573 0.030756095 -0.019164016 -0.07876033
-0.0067859055 -0.005168808 0.06235272 0.023932751 0.03244576 -0.06161121 -0.07465922 -0.007613892
-0.06662351 0.08227708 0.05895248 -0.07371255 0.08464442 0.047288492 -0.07768822 0.054065052
0.047397833 -0.08715473 0.08871006 -0.05601855 -0.047695987 -0.055290055 -0.050425977 -0.049815927
0.085701935 -0.026609259 0.0887319 -0.023967871 0.077335775 0.0065057063 -0.08190565 -0.049504966
-0.027811533 -0.037916187 0.06661959 -0.06173725 -0.061840814 0.007707511 0.042241603 -0.082227275
-0.05526009 0.017166866 0.062290687 -0.050148815
00000000: 757b 66bd cc57 85bc ddd1 fe3b b044 483d
00000010: d758 8a3d f56f a4bd e085 333d eb84 7fbc
00000020: 41cb 1b3d 6b5a 61bd f7a1 913d d63f ac3d
00000030: 9e89 9c3b 9142 9e3d daf6 b23d c0e7 75bc
00000040: 5b93 a93c 28dc fdbc b95e f33c 4b0b 8f3d
00000050: 6eb5 943d 7b58 96bd eadf 06bd 1ac0 19b8
00000060: cb9c c8bc 3c67 8fbd 2cad 45bc ef4a a5bd
00000070: 864a 9c3d 6da1 0bbc 9b09 1b3d 32b8 473d
00000080: 43d0 48bd 003e 6c3d 67f6 67bd 2f35 05bd
00000090: ff63 a0bd 35f4 fb3c dbfd 9cbc 194d a1bd
000000a0: 4d5c debb 1b5f a9bb 9165 7f3d 9e0e c43c
000000b0: d8e5 043d 095c 7cbd efe6 98bd f57d f9bb
000000c0: e871 88bd e380 a83d 2878 713d 9bf6 96bd
000000d0: 0e5a ad3d 94b1 413d 001b 9fbd 5173 5d3d
000000e0: 3b24 423d 2e7e b2bd 9fad b53d b573 65bd
000000f0: de5c 43bd d377 62bd 788b 4ebd c90b 4cbd
00000100: 7f84 af3d a9fb d9bc 12b9 b53d 4558 c4bc
00000110: 3862 9e3d d22d d53b 26be a7bd b8c5 4abd
00000120: 03d5 e3bc 014e 1bbd da6f 883d 33e0 7cbd
00000130: cb4c 7dbd 4a8f fc3b 8805 2d3d c666 a8bd
00000140: 6758 62bd 87a1 8c3c 8524 7f3d d868 4dbd

network.4.weight f4 [21, 84]
-0.03267948 0.0008654324 0.030041713 0.001365711 0.061043896 -0.06226649 -0.056191217 0.0016516576
-0.061297417 0.0014329982 0.08312056 0.06637845 -0.072670594 -0.08547752 -0.10353467 -0.091453515
-0.006518941 0.09479787 0.110633254 0.09064648 0.0468488 0.03301 0.04241412 -0.09403642
0.0104618855 -0.018799586 -0.040766697 0.065595776 -0.005243452 -0.09071511 0.089257196 -0.0289101
-0.005287169 0.111339755 0.10240777 -0.09344759 -0.10533876 0.07706319 0.040900137 -0.038540695
-0.007589193 -0.034130406 0.001351285 -0.054364074 -0.084840044 -0.08851839 0.0691824 -0.039422512
0.035636526 0.08561421 -0.05167947 0.060143393 -0.06641298 -0.07596793 0.09211751 0.0354447
0.030712707 -0.022919608 0.098493494 0.019967286 0.085797496 0.023439419 0.027229749 0.02171272
-0.07680849 0.04927274 -0.003633499 -0.061449286 0.091500536 0.0467549 0.07268915 -0.08074727
0.09379654 0.014408179 0.03206061 -0.008853719 0.028895529 -0.08265778 -0.027200526 0.020266363
-0.04481069 -0.073179044 0.10591096 -0.06404529 0.008935152 0.006788213 -0.071530625 0.08571455
0.089077584 -0.10045524 -0.04470713 0.061917856 -0.07547856 -0.0069919354 0.102748185 -0.0752005
-0.0506581 -0.10558006 -0.00015393883 -0.0027157755 0.046679612 0.026550252 -0.017561795 -0.006099502
-0.03113879 0.029667458 -0.05653039 -0.04332165 -0.012993657 -0.07623042 0.091189206 0.09204928
0.09149528 -0.09034576 0.09917085 -0.039486922 0.04073107 0.05398867 0.043274287 -0.086308755
-0.04633908 0.10271687 -0.031346817 0.10612685 0.044452433 0.110642195 0.06981678 0.08734542
0.001641014 0.1015562 -0.02928044 0.016298167 -0.1039592 0.03663287 -0.08054793 0.06310563
0.008474916 -0.036052007 0.049240988 0.110922515 0.096578546 -0.06718908 -0.08280146 -0.043961085
0.032623682 0.085013054 -0.06766026 -0.03974039 -0.029281748 -0.010151417 -0.08481512 -0.030178508
-0.07676757 -0.013198549 0.099488676 0.05160652 -0.06891022 0.07074288 -0.042229097 0.026429202
0.012443892 -0.05930927 -0.06042514 0.046506736 -0.047350034 0.035751734 0.047853544 -0.09673826
0.06255028 -0.038782086 0.058274638 -0.079385735 -0.06488981 0.027742958 -0.050099213 0.021639502
-0.020701995 -0.04618837 -0.061848857 0.032932192 -0.09047242 -0.08948958 0.076776266 -0.041113775
0.10893552 -0.09158981 0.062357564 0.04177847 0.032914244 -0.046358656 0.09646824 -0.051565457
-0.033594504 -0.032120932 -0.07471502 -0.080272324 0.050377093 -0.006885308 0.04505621 -0.105680406
0.04526391 -0.054344933 -0.0402747 0.101858005 0.059896797 0.07422123 -0.018670093 0.09507968
-0.084962554 0.060292523 0.09595402 0.08126567 0.019902809 0.018430311 0.09761532 -0.10078448
-0.06234427 0.011782697 0.023586767 -0.053578146 0.05925187 0.066736944 0.053369217 0.10336426
0.03438146 -0.08026257 0.024319682 0.040040966 -0.022120366 -0.05884413 -0.058496654 -0.07429825
0.02621232 -0.05107695 0.06557115 -0.017218167 -0.0366087 0.09966617 -0.06327112 0.003419969
0.0017491675 0.029382622 0.015530774 0.06798775 -0.008777639 -0.03772254 -0.0890037 0.02098573
-0.07514143 -0.094627164 -0.08421624 -0.012903981 -0.08673319 -0.0784388 0.01746098 -0.104260474
00000000: ebda 05bd 2fde 623a 0a1a f63c a801 b33a
00000010: 2a09 7a3d 260b 7fbd c328 66bd 6f7c d83a
00000020: 0013 7bbd 71d3 bb3a 1d3b aa3d 6df1 873d
00000030: 52d4 94bd d70e afbd fc09 d4bd fb4b bbbd
00000040: d79c d5bb 6325 c23d b093 e23d dda4 b93d
00000050: 87e4 3f3d 7e35 073d 6eba 2d3d 2b96 c0bd
00000060: 5468 2b3c 9701 9abc fbfa 26bd 1457 863d
00000070: 43d1 abbb d8c8 b9bd 7acc b63d e0d4 ecbc
00000080: fd3f adbb 1906 e43d 2abb d13d 7361 bfbd
00000090: d9bb d7bd 4ed3 9d3d e786 273d d9dc 1dbd
000000a0: c4ae f8bb 53cc 0bbd 9a1d b13a ddac 5ebd
000000b0: 9ec0 adbd 2149 b5bd 81af 8d3d 8079 21bd
000000c0: 9bf7 113d 8156 af3d daad 53bd eb58 763d
000000d0: 8703 88bd 1395 9bbd 1ba8 bc3d 762e 113d
000000e0: 3799 fb3c e7c1 bbbc f5b6 c93d 6f92 a33c
000000f0: 99b6 af3d 0604 c03c ec10 df3c e0de b13c
00000100: c54d 9dbd 36d2 493d ff1f 6ebb 3fb2 7bbd
00000110: a264 bb3d 1182 3f3d 0dde 943d d35e a5bd
00000120: 6618 c03d 4810 6c3c fc51 033d 300f 11bc
00000130: 51b6 ec3c 7b48 a9bd a3d3 debc a505 a63c
00000140: 6a8b 37bd e5de 95bd d8e7 d83d 2d2a 83bd
00000150: be64 123c a86f de3b a67e 92bd 1c8b af3d
00000160: 4f6e b63d 7abb cdbd d31e 37bd 949d 7d3d
00000170: 8194 9abd 9b1c e5bb a46d d23d b802 9abd
00000180: de7e 4fbd 5c3a d8bd a46a 21b9 27fb 31bb
00000190: 1f33 3f3d ea7f d93c c1dd 8fbc 55de c7bb
000001a0: c716 ffbc 2b09 f33c 698c 67bd 0b72 31bd
000001b0: 59e3 54bc b21e 9cbd 68c1 ba3d 5584 bc3d
000001c0: e161 bb3d 3307 b9bd 161a cb3d 0abd 21bd
000001d0: 9fd5 263d 3923 5d3d 6140 313d a5c2 b0bd
000001e0: 0cce 3dbd 395d d23d 8565 00bd 0959 d93d
000001f0: c113 363d 6098 e23d 1afc 8e3d 28e2 b23d
00000200: 4b17 d73a b2fc cf3d 89dd efbc bc83 853c
00000210: 90e8 d4bd 590c 163d 50f6 a4bd 863d 813d
00000220: 60da 0a3c 45ab 13bd ebb0 493d 582b e33d
00000230: f9ca c53d 6e9a 89bd d093 a9bd 8a10 34bd
00000240: 69a0 053d 531b ae3d 7691 8abd d2c6 22bd
00000250: 47e0 efbc 2152 26bc 8db3 adbd eb38 f7bc
00000260: 5138 9dbd ba3e 58bc b8c0 cb3d 5c61 533d
00000270: cd20 8dbd a5e1 903d 6bf8 2cbd 0e82 d83c
00000280: 77e1 4b3c 47ee 72bd 5a80 77bd d97d 3e3d
00000290: 1cf2 41bd 6970 123d 1402 443d b51e c6bd
000002a0: 5c1a 803d f7d9 1ebd 63b1 6e3d fd94 a2bd
000002b0: f3e4 84bd 3345 e33c d534 4dbd 5345 b13c
000002c0: 3b97 a9bc 0430 3dbd 3a55 7dbd e8e3 063d
000002d0: 9b49 b9bd 5046 b7bd e03c 9d3d eb66 28bd
000002e0: 9619 df3d 7093 bbbd a56a 7f3d e71f 2b3d
000002f0: 16d1 063d 93e2 3dbd 2491 c53d 4d36 53bd
00000300: 649a 09bd 3d91 03bd 3004 99bd d165 a4bd
00000310: 3658 4e3d 269e e1bb dc8c 383d f86e d8bd
00000320: a666 393d cb98 5ebd 15f7 24bd ee9a d03d
00000330: 5856 753d 4d01 983d 06f2 98bc 23b9 c23d
00000340: d900 aebd 4bf5 763d 8b83 c43d 9e6e a63d
00000350: 370b a33c 2afb 963c 8aea c73d 1868 cebd
00000360: b55c 7fbd 370c 413c 0939 c13c c274 5bbd
00000370: 17b2 723d 61ad 883d ae99 5a3d a4b0 d33d
00000380: 93d3 0c3d b460 a4bd 123a c73c ff01 243d
00000390: c535 b5bc 8b06 71bd 309a 6fbd ae29 98bd
000003a0: 38bb d63c 1036 51bd 2b4a 863d 1d0d 8dbc
000003b0: 01f3 15bd c71d cc3d 4a94 81bd 8f21 603b
000003c0: 5244 e53a d3b3 f03c ca74 7e3c 293d 8b3d
000003d0: 16d0 0fbc f382 1abd 9247 b6bd 44ea ab3c
000003e0: c0e3 99bd e3cb c1bd 9079 acbd 386b 53bc
000003f0: 2ca1 b1bd 86a4 a0bd 540a 8f3c 8486 d5bd

network.4.bias f4 [21]
-0.02841007 -0.100654244 -0.044548485 0.0033951628 -0.038819373 -0.056974087 0.110919796 -0.044458177
0.028972834 0.04569975 -0.009969677 -0.09286468 0.090923496 -0.08427764 -0.08425453 0.082548775
-0.022484789 0.063847326 0.051013786 -0.099630535 0.090195395
00000000: 3cbc e8bc d023 cebd 7978 36bd 6181 5e3b
00000010: 1001 1fbd a95d 69bd eb29 e33d c719 36bd
00000020: 7058 ed3c a92f 3b3d db57 23bc d62f bebd
00000030: 1936 ba3d c199 acbd a48d acbd 550f a93d
00000040: 0532 b8bc 63c2 823d d5f3 503d 180b ccbd
00000050: 5db8 b83d
