pretrained/blue.pt (torch, 248142 bytes, 10 tensors)

cnn.0.weight f4 [5, 5, 3, 3]
0	0xbe12c4bf	-0.14332865
1	0xbc08cbcd	-0.008349371
2	0x3e197bc6	0.14988622
3	0x3e1fb50d	0.15596409
4	0x3d4c1791	0.049827162
5	0xbd8adb0c	-0.06780061
6	0x3e10b75e	0.14132449
7	0xbd8c7f3c	-0.068602055
8	0x3d1b1b38	0.037867755
9	0xbd195bd4	-0.03744109
10	0xbd619312	-0.055071898
11	0xbcbd0ddf	-0.023077903
12	0x3df6ced3	0.12051167
13	0xbd0b06c5	-0.033942003
14	0xbb927cfc	-0.0044704657
15	0x3d8ae9a0	0.06782842
16	0x3d4ddcfc	0.050259575
17	0xbe05fd00	-0.13084793
18	0x3e029c66	0.12754974
19	0x3e00c21b	0.12574045
20	0x3d2123b3	0.039340686
21	0xbd0e02d2	-0.03467066
22	0x3e0eacf4	0.13933164
23	0x3d9f0bbf	0.07765912
24	0xbe1043ad	-0.14088316
25	0x3db90550	0.090342164
26	0x3d565364	0.05232562
27	0xbd6a6d65	-0.057233233
28	0x3c0e86ab	0.0086990995
29	0x3ddc9a43	0.107716106
30	0xbda907f8	-0.08253473
31	0x3d08ba34	0.033380702
32	0x3cd6378c	0.026149534
33	0xbd2c64ad	-0.0420882
34	0xbc024476	-0.007950893
35	0x3c6c307b	0.0144158555
36	0x3dc49dbc	0.09600398
37	0x3b9a85d3	0.00471566
38	0xbe006494	-0.12538368
39	0xbdb9e0dc	-0.09076092
40	0x3caf696f	0.02141258
41	0xbe0dc334	-0.13843995
42	0x3dd955af	0.10612046
43	0x3bd9d87a	0.0066481205
44	0xbde5969f	-0.11210369
45	0xbda34664	-0.0797241
46	0xbdbd2e1a	-0.09237309
47	0xbc605ef1	-0.013694511
48	0xbd32d93d	-0.043664206
49	0xbe188b25	-0.1489683
50	0x3de09208	0.10965353
51	0xbe0dd318	-0.13850057
52	0xbd58a215	-0.05288895
53	0xbceb3ddf	-0.028716026
54	0xbdcfa114	-0.10138145
55	0xbe1a6527	-0.15077649
56	0x3e0ef182	0.13959315
57	0xbdc5f0f6	-0.096651
58	0x3cc2e154	0.023789085
59	0x3e1691ac	0.14704007
60	0xbc281cf6	-0.010260811
61	0x3dbb67de	0.091506705
62	0x3d66e4a0	0.056370378
63	0x3d1945cc	0.03742008
64	0x3e063a9d	0.13108297
65	0x3e1993be	0.14997765
66	0xbc355b73	-0.0110691665
67	0x3e08601d	0.13317914
68	0xbe06b846	-0.13156232
69	0x3d5290e6	0.051407717
70	0x3ca017ff	0.019542692
71	0x3d041677	0.032247987
72	0x3d1fb002	0.038986214
73	0xbe1bb460	-0.15205526
74	0xbc7c3263	-0.0153928725
75	0x3e1b6115	0.15173753
76	0x3cfc12fa	0.030770767
77	0xbdd336ce	-0.103131875
78	0xbd49c797	-0.04926261
79	0x3d863a77	0.0655412
80	0xbd1b8c15	-0.03797539
81	0x3d2dcdfa	0.042432763
82	0x3c89dd96	0.016829293
83	0xbdf81a19	-0.12114353
84	0xbd9196fc	-0.07108876
85	0x3d16274c	0.03665857
86	0xbd1ba468	-0.037998587
87	0xbdf8f716	-0.12156503
88	0x3d1a55fb	0.037679654
89	0x3d6ff207	0.058580425
90	0x3d6683b1	0.056277934
91	0xbe1117c1	-0.14169218
92	0xbc883ce9	-0.016630607
93	0xbce1b63a	-0.027552713
94	0xbd96a54f	-0.07355749
95	0xbdadd149	-0.084871836
96	0xbdb7719f	-0.089572184
97	0xbe0ede9d	-0.13952108
98	0xbd7ff752	-0.062491722
99	0xbe0eeaaf	-0.13956712
100	0x3d832f56	0.06405513
101	0x3e1098e0	0.14120817
102	0xbe0e0574	-0.13869268
103	0xbd5e8b39	-0.05433199
104	0xbc722cb3	-0.014781165
105	0x3dfa2064	0.12213209
106	0xbd1a26b7	-0.037634578
107	0x3ce60967	0.028080655
108	0xbce7e60b	-0.028307935
109	0xbd1bb8cc	-0.038018033
110	0xbcf7383d	-0.030178184
111	0x3de1b05b	0.11019965
112	0x3dacba82	0.08434011
113	0x3e077403	0.13227849
114	0x3dcbd053	0.09951844
115	0xbb7ceff8	-0.003859518
116	0x3dd12a71	0.10213173
117	0xbd7672fe	-0.06016826
118	0xbdc4466c	-0.095837444
119	0x3ca3f62a	0.020014841
120	0x3d8b6287	0.06805902
121	0xbd044a95	-0.03229769
122	0xb9141af7	-0.00014124425
123	0xbdc77f29	-0.09741051
124	0xbcd25dd8	-0.025679514
125	0x3c76d0f3	0.015064466
126	0xbda4d12a	-0.080477074
127	0xbd3c50c6	-0.04597547
128	0x3b44c153	0.0030022457
129	0x3abc0b06	0.0014346547
130	0x3d3ebbba	0.04656575
131	0xbdd12e41	-0.102139
132	0x3d988f99	0.07449264
133	0x3bdfd791	0.0068311174
134	0x3d902b2d	0.07039485
135	0x3df3616c	0.11883816
136	0x3cbe3483	0.023218399
137	0xbdd65588	-0.104655325
138	0xbd0b7946	-0.034051202
139	0xbb80c019	-0.00392915
140	0x3d9cdc73	0.07659235
141	0x3e10b52f	0.14131616
142	0xbda82637	-0.08210414
143	0xbdc539ee	-0.0963019
144	0x3cba538a	0.022744913
145	0x3c96fc2c	0.018430792
146	0x3dbdf47d	0.09275148
147	0x3dad10ca	0.08450468
148	0xbe10214a	-0.14075199
149	0x3dcbb706	0.09947018
150	0x3ba037ed	0.0048894794
151	0xbe12d569	-0.14339222
152	0xbe0f5100	-0.13995743
153	0xbe0c1aad	-0.13682051
154	0xbca96af0	-0.020680875
155	0xbd9f2358	-0.07770413
156	0xbc0c15ec	-0.008550148
157	0x3e0826bb	0.13296025
158	0xbe028281	-0.12745096
159	0x3c68968b	0.0141960485
160	0x3deec93d	0.11659477
161	0xbe08bca5	-0.13353212
162	0x3d8544a9	0.065072365
163	0xbddb6c01	-0.107139595
164	0x3b076874	0.0020661624
165	0xbddd4b8c	-0.10805425
166	0xbd539734	-0.05165787
167	0xbdfce34a	-0.123480394
168	0x3de1d737	0.11027377
169	0xbd6ab029	-0.057296906
170	0xbb5e6797	-0.0033936256
171	0xbdf270e5	-0.11837939
172	0xbd7ecd42	-0.062207468
173	0xbe0bd7b7	-0.13656507
174	0xbd07acaa	-0.03312365
175	0x3d6b83d5	0.05749877
176	0x3c34afdc	0.011028256
177	0xba89e67f	-0.0010520964
178	0x3b278ff7	0.0025567987
179	0xbda4f6ee	-0.080549106
180	0x3dce4ea8	0.10073596
181	0x3c532f9e	0.012889771
182	0xbd8ca22e	-0.06866871
183	0xbde2c64d	-0.11072979
184	0x3c0c6a77	0.008570305
185	0xbaab38e5	-0.001306322
186	0x3c89b491	0.016809734
187	0xbe0c7109	-0.13714994
188	0x3baf0f10	0.0053423718
189	0x3d8f9e3b	0.07012602
190	0xbd9eb6b2	-0.0774969
191	0xbd06b71b	-0.032889467
192	0xbda7383c	-0.08165023
193	0xbe03d376	-0.12873635
194	0x3c95f045	0.018303046
195	0xbd73615c	-0.05941902
196	0x3e138e53	0.14409761
197	0xbdae1f09	-0.08502013
198	0xbdd25305	-0.10269741
199	0xbe14f6f4	-0.1454733
200	0xbdb0c9b1	-0.086322196
201	0x3d54a526	0.05191531
202	0xbb93b898	-0.0045080893
203	0xbd8c4989	-0.06849963
204	0xbd15c381	-0.0365634
205	0x3e0ba182	0.13635829
206	0xbd6080a5	-0.054810185
207	0xbe0d6f57	-0.13812004
208	0x3d166f0e	0.036727004
209	0x3e0e788e	0.13913175
210	0x3cfe736e	0.0310609
211	0xbb1970fa	-0.0023413287
212	0xbb8b6c29	-0.004254837
213	0x3e059c7f	0.1304798
214	0xbe00bb90	-0.1257155
215	0xbe0a4d13	-0.13505964
216	0x3d8a4982	0.06752302
217	0x3d8ee3e1	0.06977058
218	0x3dc78278	0.09741682
219	0xbddf544e	-0.10904752
220	0x3e05231f	0.13001679
221	0xbe006e2d	-0.12542029
222	0x3d90cb7b	0.07070061
223	0x3dab39b6	0.08360617
224	0xbd3ae0a6	-0.045624398

cnn.0.bias f4 [5]
0	0x3d14abd9	0.0362967
1	0xbd992f39	-0.0747971
2	0xbd5ed2ed	-0.054400373
3	0xbd7f253f	-0.06229138
4	0x3d9d40fa	0.07678409

cnn.2.weight f4 [5, 5, 3, 3]
0	0x3dff4c43	0.12465718
1	0xbd2c96f5	-0.04213615
2	0x3db85b6d	0.09001813
3	0xbe0d0c79	-0.13774289
4	0x3df42340	0.11920786
5	0xbcbacd95	-0.022803107
6	0xbc3da846	-0.011575764
7	0x3e0876e4	0.13326603
8	0x3d995215	0.07486359
9	0xbe005fd9	-0.12536563
10	0x3d2966e9	0.04135791
11	0x3d7ba788	0.061439067
12	0xbd877212	-0.06613554
13	0xbddda98e	-0.108233556
14	0xbe1d0ac1	-0.15336134
15	0xbdf6a3ce	-0.12042962
16	0x3e0a7f45	0.13525112
17	0x3b9700ae	0.0046082353
18	0xbd5617f0	-0.052268922
19	0x3cf607a9	0.03003295
20	0x3baf58a1	0.0053511416
21	0xbce25725	-0.027629444
22	0xbcf1192c	-0.029430948
23	0x3deef8c7	0.11668544
24	0xbdf4ed25	-0.11959294
25	0x3bb70d93	0.005586335
26	0x3e016512	0.12636212
27	0x3dc5b481	0.09653569
28	0xbdee6467	-0.11640244
29	0xbce73dc1	-0.028227689
30	0x3da36d25	0.07979802
31	0xbdaf233b	-0.085516416
32	0x3c595490	0.01326479
33	0xbd8afc18	-0.06786364
34	0x3d2875b0	0.04112786
35	0x3dec6894	0.11543384
36	0x3b57e2f7	0.0032941678
37	0xbde3996b	-0.111132465
38	0xbda44805	-0.08021549
39	0xbba58271	-0.00505095
40	0xbe1c39ea	-0.15256467
41	0x3d832187	0.06402879
42	0xbe18c9b7	-0.14920698
43	0x3dff5a25	0.124683656
44	0x3dc9b474	0.09848872
45	0x3d9d3c1e	0.07677482
46	0xbe1232a1	-0.14277126
47	0xbdc44304	-0.09583095
48	0x3c039ce1	0.008033008
49	0xbd63232d	-0.055453468
50	0xbd40b6f1	-0.047049467
51	0x3d7c90f3	0.06166167
52	0xbd37d5db	-0.044881683
53	0x3dd4b1b2	0.10385455
54	0x3d8b2aad	0.06795249
55	0xbd01539b	-0.031573873
56	0xbde087e2	-0.109634176
57	0x3c187584	0.009305362
58	0x3e0e5b92	0.13902119
59	0x3b41efc2	0.002959237
60	0x3dd206ef	0.10255229
61	0xbd5c3543	-0.05376173
62	0x3a326274	0.0006804832
63	0xbbda4fdc	-0.006662352
64	0x3d27854d	0.04089861
65	0x3e05715d	0.13031526
66	0x3c75ae2e	0.014995141
67	0xbc06d84b	-0.008230279
68	0x3e0b08af	0.13577531
69	0xbe108c9b	-0.14116137
70	0xbca3c460	-0.0199911
71	0x3db215e5	0.08695582
72	0x3d91c7a1	0.07118154
73	0x3dd24167	0.10266381
74	0xbd1f00d5	-0.038819153
75	0xbce8c699	-0.028415011
76	0x3e047237	0.12934195
77	0xbda57f53	-0.08080926
78	0xbd3b3813	-0.045707773
79	0xbdff48d0	-0.1246506
80	0x3c3c31fe	0.011486528
81	0x3ce8366c	0.028346263
82	0xbd808e40	-0.06277132
83	0x3e079e2e	0.13243935
84	0xbdeec484	-0.11658576
85	0xbcb4987f	-0.022045372
86	0x3dbf8f01	0.09353448
87	0xbbe982ee	-0.0071262037
88	0x3d829b17	0.06377237
89	0xbda85c93	-0.08220782
90	0xbde847d4	-0.11341825
91	0x3d8d3eb7	0.068967275
92	0xbc66bb1c	-0.014082696
93	0x3ddb953a	0.10721822
94	0x3db435c7	0.0879932
95	0x3de10f69	0.109892674
96	0x3e139215	0.14411195
97	0x3d0b1dc3	0.03396393
98	0x3e075cdf	0.13219021
99	0x3d9db766	0.07700996
100	0x3ca2d31a	0.019876052
101	0xbd19412a	-0.03741566
102	0xbc3b8fde	-0.011447875
103	0xbdb660ab	-0.08905157
104	0x3d8a9548	0.067667544
105	0x3c645d1d	0.013938216
106	0xbe0eeda4	-0.1395784
107	0x3e1e39b3	0.15451698
108	0xbd48155c	-0.048848495
109	0xbdde12a8	-0.10843402
110	0xbdddd4e2	-0.1083162
111	0x3c8110a3	0.015755003
112	0xbe00fc7a	-0.12596312
113	0x3d335298	0.04377994
114	0x3c289d66	0.010291433
115	0x3e0914a3	0.13386779
116	0xbd8c9a59	-0.06865377
117	0xbdc893a2	-0.09793784
118	0x3d137bd8	0.03600678
119	0x3ce6e7ff	0.028186796
120	0x3c70c668	0.014695741
121	0x3deee022	0.11663844
122	0xbcc4992c	-0.02399882
123	0x3dd09ccc	0.10186157
124	0xbe15da47	-0.14634047
125	0x3da119e7	0.078662686
126	0x3d0267f4	0.03183742
127	0x3d9e150f	0.0771886
128	0x3d8280fb	0.06372257
129	0xbbb8c659	-0.0056388793
130	0x3db0ad90	0.086268544
131	0xbdcb1d4d	-0.09917698
132	0xbd032856	-0.03202089
133	0xbddd7886	-0.10814004
134	0xbdfd9db6	-0.123835966
135	0x3db3a3b7	0.087714605
136	0x3da08626	0.07838087
137	0x3d21b105	0.03947546
138	0x3de2efc4	0.11080888
139	0x3d92d95f	0.071703665
140	0xbce37f02	-0.027770523
141	0xbd295b93	-0.041347098
142	0xbe0b6e05	-0.13616188
143	0x3dd88ec4	0.105741054
144	0x3d01cfd7	0.031692352
145	0xbdcada36	-0.09904902
146	0xbcb564f6	-0.022142868
147	0xbe136999	-0.14395751
148	0x3d0f508c	0.034988925
149	0x3d8b4735	0.06800691
150	0xbdce857f	-0.10084056
151	0xbe0cc950	-0.1374867
152	0x3e05cb3d	0.1306581
153	0xbdbc95d5	-0.09208266
154	0x3da931cd	0.08261452
155	0xbdf9d35b	-0.12198516
156	0xbd7d7007	-0.061874416
157	0xbd3ebe6f	-0.04656833
158	0xbdf18704	-0.1179333
159	0xbda96698	-0.08271521
160	0x3d30e5d1	0.04318792
161	0xbdd7db3d	-0.10539863
162	0x3e1545aa	0.14577356
163	0xbd1c7506	-0.03819754
164	0xbdb473b5	-0.08811132
165	0x3d892b28	0.066976845
166	0xbd9b2cd5	-0.075769104
167	0x3d840d89	0.06447894
168	0x3d6f0989	0.058358703
169	0xbdc3d8c9	-0.09562833
170	0xbc03959a	-0.008031273
171	0xbd91d4a6	-0.071206376
172	0xbd0ad493	-0.033894133
173	0xbe08e61e	-0.13369033
174	0x3d8ac74f	0.06776296
175	0x3d6246e3	0.055243384
176	0x3e1352c9	0.14387049
177	0x3e0d5dc1	0.13805296
178	0x3c7895b5	0.015172412
179	0x3df28274	0.11841288
180	0x3e068253	0.13135652
181	0xbd3bfbd6	-0.045894466
182	0x3e022c04	0.12712103
183	0xbc4b6ad7	-0.012415609
184	0xbe0435cc	-0.12911147
185	0xbde60c68	-0.11232835
186	0xbe1589be	-0.14603326
187	0xbe0200fb	-0.12695687
188	0xbdb247e4	-0.08705118
189	0x3e089c8b	0.13340966
190	0xbdb0cb46	-0.08632521
191	0x3d162549	0.03665665
192	0x3d32e5fa	0.043676354
193	0xbcc70335	-0.024293521
194	0x3df6f40c	0.12058267
195	0x3cbafea4	0.0228265
196	0xbdb40b0b	-0.08791169
197	0xbdaf293c	-0.08552787
198	0xbe1e793b	-0.15475933
199	0x3d40700a	0.04698185
200	0xbd90aae9	-0.070638485
201	0x3b7333d5	0.0037109752
202	0xbdd48a49	-0.10377938
203	0x3e1884e3	0.14894442
204	0x3e185b3e	0.14878556
205	0x3ccfb7d9	0.02535622
206	0x3d2a7f66	0.041625403
207	0x3cad850d	0.021181608
208	0x3dc01ea4	0.09380844
209	0xbd135262	-0.03596724
210	0x3dc33b28	0.095327675
211	0x3db10fc0	0.08645582
212	0x3ced9928	0.029003695
213	0x3deaca97	0.11464422
214	0xbd507b4b	-0.05089883
215	0xbc608b20	-0.013705045
216	0xbd4029fc	-0.04691504
217	0xbd3b64ac	-0.045750305
218	0xbd0f7b4f	-0.035029706
219	0x3dd9e27d	0.10638902
220	0x3dc4c170	0.09607208
221	0xbc8c7a48	-0.017148152
222	0xbd6d348c	-0.05791144
223	0x3dabeb82	0.08394529
224	0xbd3638f5	-0.044487912

cnn.2.bias f4 [5]
0	0xbe1cd5bf	-0.15315913
1	0xbceafe68	-0.028685763
2	0xbe0b6dc4	-0.13616091
3	0xbe070507	-0.13185512
4	0xbdffa679	-0.12482924

network.0.weight f4 [120, 405]
0	0xbd27db41	-0.04098058
1	0xbc8d7cab	-0.01727136
2	0xbd0ae8bc	-0.03391336
3	0x3d17d216	0.037065588
4	0xbc7a5be2	-0.015280696
5	0xbc792907	-0.015207536
6	0xbd32de49	-0.04366902
7	0xbcb4db91	-0.022077354
8	0xbb96bd0d	-0.0046001733
9	0xbd1d27e9	-0.03836814
10	0x3c9c6cd8	0.01909487
11	0x3d2536f3	0.040335607
12	0xbd35656b	-0.044286173
13	0x3af9fd8c	0.0019072755
14	0x3d2bf0b2	0.04197759
15	0xbd19d530	-0.037556827
16	0x3bc47296	0.005995105
17	0x3bcf5f02	0.0063284645
18	0xbcc28229	-0.023743706
19	0xbcd8a24e	-0.02644458
20	0x3cbdfd84	0.023192175
21	0xbc028525	-0.007966314
22	0xbc8aa04a	-0.016922135
23	0x3d1cac25	0.038250107
24	0x3d06ca2b	0.032907646
25	0x3d5066da	0.050879337
26	0xbc9ca2de	-0.01912063
27	0x3c31cd59	0.010852181
28	0xbcb06641	-0.021533133
29	0xbc1769d3	-0.009241539
30	0xbd3b1be8	-0.04568091
31	0xbd2f009b	-0.042725187
32	0x3bd25678	0.0064189993
33	0x3cfdee04	0.030997284
34	0xbd0dc8a0	-0.03461516
35	0x3c8e5c2c	0.017377935
36	0x3d323b1e	0.04351341
37	0x3c03b1e4	0.008038018
38	0x3cff0a78	0.031132922
39	0x3cf6d61c	0.030131392
40	0x3d25e77b	0.04050396
41	0x3cd491e2	0.025948469
42	0x3cc1d37f	0.02366042
43	0x3ad80670	0.0016481411
44	0x3d0d0603	0.03442956
45	0x3d1fa06b	0.038971346
46	0x3cbf64f0	0.02336356
47	0x3c25adc1	0.010112227
48	0xbd4e6747	-0.05039146
49	0x3d1d41d9	0.038392875
50	0x3c99d691	0.018779071
51	0xbbb65044	-0.0055637676
52	0x3cc4c6f4	0.02402065
53	0x3d2a2b3a	0.04154513
54	0x3ce3e185	0.027817497
55	0x3c9cfaae	0.019162502
56	0x3c06049f	0.008179813
57	0xbd09fc0b	-0.033687633
58	0xbcb7feb9	-0.022460328
59	0xbbab6bf3	-0.0052313744
60	0x3ca31977	0.019909604
61	0xbc9b5fe1	-0.018966617
62	0x3b82fb2d	0.0039972276
63	0x3ca20e28	0.01978214
64	0x3caefc14	0.021360435
65	0x3cb86e61	0.02251357
66	0x3c28d4bf	0.010304629
67	0xbbb7c2e5	-0.00560795
68	0x3b42dd24	0.002973386
69	0x3bd3e8f6	0.00646698
70	0xbbea0d9e	-0.0071427366
71	0xbcc9f03e	-0.02465069
72	0x3b0ba8f0	0.0021310411
73	0xbcb04b39	-0.021520244
74	0xbcff88d9	-0.031193184
75	0x3b96bb17	0.0045999396
76	0x3c387d7a	0.011260385
77	0xbce228c0	-0.027607322
78	0xbc2b3bc4	-0.010451261
79	0xbce418b8	-0.027843818
80	0xbd3641b7	-0.044496264
81	0x3c10e154	0.008842785
82	0xbcfb4181	-0.030670883
83	0xbd3152d1	-0.04329187
84	0x3ac9ec64	0.0015405533
85	0x3c78290e	0.015146507
86	0x3d2712ce	0.040789418
87	0x3d2d1e38	0.042265147
88	0xbd4665d3	-0.04843695
89	0x3d1aa263	0.03775252
90	0x3d53ac7c	0.051678166
91	0x3cb53899	0.022121714
92	0x3b4fd920	0.003171511
93	0xbbd07c8c	-0.0063625034
94	0xbaa08c92	-0.0012248924
95	0x3b84081f	0.0040292884
96	0x3cf011cc	0.029305361
97	0x3c14a3d7	0.009072266
98	0xbce106b9	-0.027469026
99	0x3d0f6101	0.03500462
100	0xbbdfe5c2	-0.006832809
101	0x3d18efc3	0.03733803
102	0x3cf06ff2	0.029350255
103	0x3c42fefe	0.011901615
104	0x3cef272a	0.02919348
105	0x3c1ec609	0.00969077
106	0xbceb5615	-0.02872757
107	0x3d4e9daf	0.050443348
108	0xbc76082a	-0.015016595
109	0x3d2e8987	0.042611625
110	0x3c4080f6	0.011749497
111	0xbd20a9d9	-0.03922448
112	0x3d4d24e5	0.050084013
113	0x3a6410b3	0.0008699998
114	0x3d2fbb77	0.04290339
115	0xbd0c9931	-0.034325782
116	0xba22c227	-0.00062087405
117	0x3c8de643	0.017321711
118	0xbd5dfa80	-0.054193974
119	0xbcaa14df	-0.020761905
120	0xbcbbc087	-0.022918953
121	0x3c8f6e1f	0.017508565
122	0x3c78fb4f	0.015196635
123	0x3d2d5ad7	0.04232296
124	0x3d3ca7c6	0.04605844
125	0xbd177247	-0.036974218
126	0xbc893130	-0.016747087
127	0xbd09b1d7	-0.033616867
128	0xbcc77546	-0.024347913
129	0x3cf6daee	0.03013369
130	0x3d5140a5	0.05108704
131	0xbbf8d46e	-0.007593683
132	0xbcb68553	-0.02228037
133	0x3c8783aa	0.016542275
134	0xbce0bb84	-0.027433164
135	0x3d11b74a	0.03557519
136	0xbcd22d78	-0.025656447
137	0xbd6d8f1c	-0.057997808
138	0xbd4f258b	-0.050572913
139	0xbd271022	-0.04078687
140	0x3d2d7274	0.04234548
141	0xbc4234a0	-0.011853367
142	0xbbe783c2	-0.0070652673
143	0x3d0aa51d	0.03384887
144	0x3b543dec	0.003238554
145	0xbb3c367c	-0.0028718999
146	0xbce5a616	-0.028033298
147	0x3ab4c183	0.0013790581
148	0xbaef559a	-0.0018259764
149	0x3d12a6ce	0.03580361
150	0x3c626c85	0.013819818
151	0x3d43448d	0.047672797
152	0xbc9d02b1	-0.019166322
153	0xbbf122a9	-0.007358868
154	0x3d316c34	0.04331608
155	0x3ce2c14f	0.027680067
156	0xbc1a4214	-0.009415168
157	0xbb8045af	-0.003914557
158	0x3d0b80cd	0.03405838
159	0x3d13a923	0.036049973
160	0xbae814c2	-0.0017706382
161	0x3c5acd88	0.0133546665
162	0x3d53be48	0.05169514
163	0x3d0d8deb	0.03455917
164	0xbceb2c3d	-0.028707618
165	0x3d28d25f	0.04121625
166	0xbd41e9d5	-0.04734214
167	0x3ce9085e	0.028446373
168	0x3ce61d12	0.028090034
169	0x3be5a002	0.0070076
170	0xbc45ba93	-0.012068409
171	0x3d2b51ee	0.04182618
172	0x3d414ed0	0.047194302
173	0xbc32095f	-0.010866492
174	0x3d1634ce	0.036671452
175	0x3cbd2d72	0.02309296
176	0x3d085d46	0.033292077
177	0xbb4eb162	-0.0031538834
178	0xbd31cdf6	-0.04340931
179	0x3d1362f4	0.03598304
180	0x3be0ad55	0.0068566003
181	0x3cfb43d2	0.030671988
182	0xbcadb800	-0.021205902
183	0xbb534f0a	-0.0032243156
184	0xbc058092	-0.008148329
185	0x3b83eff7	0.004026409
186	0xbcd63606	-0.026148807
187	0xbd000c2d	-0.03126161
188	0xbd44ecbb	-0.048077326
189	0x3c79dfad	0.015251082
190	0x3d277600	0.040884018
191	0x3cc1c3e6	0.023652982
192	0xbcdfd6f7	-0.027324183
193	0x3d4d3780	0.050101757
194	0x3c64e7be	0.013971267
195	0x3c643d11	0.013930575
196	0xbd22c340	-0.039736986
197	0x3d4bf355	0.049792606
198	0xbc008c40	-0.007845938
199	0xbccadfd8	-0.02476494
200	0xbac5c5b6	-0.001508883
201	0x3d3246f7	0.04352471
202	0xbc8351d6	-0.016030233
203	0xbcf2d507	-0.029642595
204	0x3cd8ef7d	0.026481384
205	0xbc6ecf9e	-0.014575867
206	0x3d157b11	0.03649432
207	0xbd0f2e77	-0.03495642
208	0x3be44af7	0.0069669443
209	0xbd2ce8c2	-0.042214163
210	0x3ccc20f5	0.024918059
211	0x3c7a2527	0.015267647
212	0xbd0aee84	-0.033918872
213	0xbcbe49a8	-0.023228481
214	0x3d0f1ae3	0.03493775
215	0xbcb7c0fb	-0.022430887
216	0x3d4e0a16	0.050302587
217	0x3d2cae39	0.04215834
218	0xbd29b1e6	-0.041429423
219	0xbb079c30	-0.002069246
220	0xbb1fe6a8	-0.0024398956
221	0xbcefdc60	-0.029279888
222	0x3bc67538	0.006056454
223	0xbc7c3426	-0.0153932925
224	0x3bcf2287	0.0063212547
225	0x3c10407c	0.008804437
226	0xbd2e5d66	-0.04256954
227	0x3ce79f72	0.028274272
228	0x3c45ad4e	0.012065245
229	0xbd161263	-0.03663863
230	0xbd1a419a	-0.03766022
231	0xbca73ebe	-0.02041566
232	0xbbc8bd7e	-0.006126105
233	0x3c065efe	0.008201359
234	0xbc54cd63	-0.012988421
235	0xbc768283	-0.015045765
236	0xbc506f73	-0.012721884
237	0xbc821ba2	-0.015882317
238	0x3c8679a6	0.016415428
239	0x3c0638a8	0.008192219
240	0x3d0775fe	0.03307151
241	0xbc0328af	-0.008005305
242	0xbc5a38df	-0.013319223
243	0xbd413713	-0.047171663
244	0x3cb319a6	0.021862816
245	0xbcbd1dde	-0.02308553
246	0xbc3302ae	-0.010925932
247	0x3b932031	0.0044899215
248	0x3b700b40	0.00366278
249	0xbd1f5c9a	-0.03890667
250	0xbc034a2d	-0.00801329
251	0x3d63a9ab	0.05558173
252	0xbd3c5928	-0.045983464
253	0x3c5aa829	0.013345757
254	0x3d0d455d	0.034489978
255	0x3c2d75e5	0.01058719

network.0.bias f4 [120]
0	0x3c8ac29a	0.016938496
1	0xbbbe6549	-0.005810414
2	0x3d48a66d	0.04898684
3	0xbd0037a5	-0.031303067
4	0xbd1c78dc	-0.038201198
5	0x3be90099	0.007110667
6	0x3d3459cb	0.044030946
7	0xbd3c937a	-0.046039082
8	0x3d306021	0.043060426
9	0xbcf68846	-0.030094277
10	0x3cedfb73	0.029050564
11	0xbd2481b2	-0.04016275
12	0x3cf3bb15	0.029752294
13	0x3ba4c7c6	0.0050286977
14	0x3c353e97	0.011062286
15	0x3ccc4759	0.024936365
16	0xbb15a375	-0.0022833024
17	0x3c5e71f4	0.013576973
18	0xbce58d7e	-0.02802157
19	0x3ca972a6	0.020684551
20	0x3d3139cd	0.043268014
21	0xbcfc0375	-0.030763367
22	0xbd33529d	-0.043779958
23	0xbcbf66ef	-0.023364512
24	0xbd0660fe	-0.032807343
25	0xbd43e9de	-0.047830455
26	0xbcda4d70	-0.026648253
27	0xbd32d159	-0.04365668
28	0x3b0af9eb	0.0021206092
29	0xbc4c03cd	-0.012452078
30	0xbcc4d7b4	-0.024028637
31	0xbbb8630d	-0.005627042
32	0x3c11f160	0.008907646
33	0xbcbb7006	-0.022880565
34	0xbb408466	-0.002937579
35	0x3c2e28f9	0.010629886
36	0xbd1de496	-0.038548075
37	0xbc8854de	-0.01664203
38	0xbcbb601b	-0.022872975
39	0xbd351a63	-0.044214617
40	0x3cbd9d20	0.023146212
41	0xbb591adf	-0.0033127589
42	0x3d43a4ac	0.047764465
43	0xbcb88527	-0.02252443
44	0x3c720e1e	0.014773874
45	0x3c946324	0.01811368
46	0xbd3ffa07	-0.046869304
47	0x3cfca062	0.030838195
48	0xbd429e82	-0.047514446
49	0xbcaee35d	-0.02134865
50	0xbc8ba648	-0.017047063
51	0x3c93bb19	0.018033551
52	0x3c32a84a	0.010904381
53	0x3cce4802	0.02518082
54	0xbc975986	-0.018475305
55	0xbd06a4d8	-0.03287205
56	0x3d53f3dc	0.051746234
57	0x3cd97a92	0.026547704
58	0x3d5266eb	0.05136768
59	0x3d678f13	0.05653293
60	0xbc31a504	-0.010842565
61	0x3bb21659	0.005434793
62	0xbc0bd7c2	-0.008535327
63	0x3d422b2f	0.047404464
64	0x3914231b	0.00014127458
65	0x3d4ed254	0.050493553
66	0xbc9510ec	-0.018196546
67	0xbd41b3ea	-0.04729072
68	0xbc3079ba	-0.010771209
69	0x3d259254	0.040422752
70	0xbc8bfdd9	-0.017088817
71	0xbc5bc414	-0.013413448
72	0x3c8f26d2	0.017474566
73	0x3d3a7f00	0.045531273
74	0xbc714f6d	-0.014728409
75	0xbcfb0be9	-0.030645328
76	0x3d19d170	0.03755325
77	0x3ccd2c11	0.025045427
78	0x3cfccf11	0.030860456
79	0xbab00fbd	-0.0013432425
80	0x3a4c7852	0.00077999115
81	0x3c7c5485	0.01540101
82	0xbd08acc9	-0.033367906
83	0xbd009738	-0.031394213
84	0x3ba5126b	0.005037596
85	0xbd087adb	-0.03332029
86	0xbce8b389	-0.028405922
87	0x3be8f2f1	0.007109039
88	0xbd45def4	-0.048308328
89	0x3c272cc2	0.010203542
90	0xbd488285	-0.048952598
91	0x3c61db79	0.0137852365
92	0xbc5426ab	-0.012948672
93	0x3d6beae7	0.057597067
94	0x3c9ba7b1	0.01900086
95	0x3d128eda	0.035780765
96	0xbbc27dc4	-0.0059354026
97	0x3b608cd1	0.003426362
98	0xbd37b21d	-0.044847596
99	0x3b9c0c53	0.0047622113
100	0xbd1e6267	-0.038668063
101	0xbcc7e166	-0.02439947
102	0xbd066a9c	-0.032816514
103	0x3cb12af5	0.021626929
104	0xbcb281d6	-0.021790426
105	0xbc841951	-0.016125353
106	0xba86e8e3	-0.0010292794
107	0x3bfc2f00	0.0076960325
108	0x3d71906b	0.05897562
109	0x3d50189a	0.050804712
110	0x3d756016	0.059906088
111	0x3a8158f0	0.0009868424
112	0xbcdf30be	-0.027244922
113	0xbbfe13e3	-0.0077538355
114	0xbba4082a	-0.005005856
115	0x3d020512	0.031743117
116	0xbd1b892a	-0.037972607
117	0xbc54a602	-0.0129790325
118	0x3d2bb4ac	0.04192035
119	0xbc2eb07a	-0.0106621925

network.2.weight f4 [84, 120]
0	0x3d5d1647	0.053976323
1	0xbcc429c9	-0.023945706
2	0xbcf8089b	-0.03027754
3	0xbdacb082	-0.08432104
4	0xbcfad57c	-0.030619375
5	0x3dbb7e15	0.091549076
6	0x3d80488c	0.06263837
7	0x3d1b8aad	0.03797405
8	0xbd07f638	-0.033193797
9	0x3d12c353	0.035830807
10	0x3c8fae82	0.017539266
11	0xbd269230	-0.04066676
12	0xbd9b3b41	-0.07579661
13	0xbda6d56d	-0.081461765
14	0x3db60676	0.08887951
15	0x3c816d2c	0.015799128
16	0x3d998270	0.07495582
17	0xbd2a6b05	-0.041605968
18	0xbd917716	-0.07102792
19	0x3d21b8c1	0.039482836
20	0xbd87b0c2	-0.06625511
21	0x3d0fee12	0.03513915
22	0x3ced438e	0.028962877
23	0x3d908789	0.07057101
24	0xbdb6ef7b	-0.08932396
25	0xbcf2e933	-0.029652214
26	0xbd9b5019	-0.07583637
27	0x3da20512	0.07911123
28	0x3d875e85	0.06609825
29	0x3db527a6	0.08845453
30	0xbdabc84c	-0.08387813
31	0xbd1c0be3	-0.038097274
32	0x3d79a83e	0.060951464
33	0x3d9823bb	0.0742869
34	0xbd4fc447	-0.050724294
35	0xbc956a14	-0.018239059
36	0x3ccf23eb	0.025285682
37	0xbcd8d70c	-0.02646973
38	0x3cd5a427	0.02607925
39	0x3d71dd89	0.059049163
40	0x3db9836d	0.090582706
41	0x3c92c81c	0.017917685
42	0x3c829691	0.015940936
43	0x3d553820	0.052055478
44	0x3d2c6a25	0.042093415
45	0x3d1aa3fe	0.03775405
46	0xbc8bc1cf	-0.017060189
47	0x3d735e14	0.05941589
48	0x3cc596f4	0.024119832
49	0x39bfd4a2	0.00036588783
50	0xbdb09c81	-0.08623601
51	0x3da5b1f3	0.08090582
52	0xbd9b2fcb	-0.07577475
53	0x3d853108	0.065034926
54	0x3d556b62	0.05210436
55	0xbd619575	-0.055074174
56	0x3cae6f99	0.021293448
57	0x3b155b02	0.002278984
58	0xbda3d0ef	-0.07998835
59	0xbd83d1b5	-0.06436483
60	0xbd7e1eca	-0.06204108
61	0x3d6cf861	0.05785406
62	0x3d439ee0	0.047758937
63	0xbd61bc3a	-0.055111147
64	0x3d3d4481	0.04620791
65	0x3c95c625	0.01828296
66	0x3d8db80a	0.06919868
67	0xbcb9fecd	-0.022704506
68	0xbc5eadc4	-0.013591234
69	0xbc6fcf5c	-0.014636841
70	0xbd979a50	-0.0740248
71	0x3d998181	0.07495404
72	0x3bd82ee4	0.0065973867
73	0x3d9801ca	0.07422216
74	0xbd5788cf	-0.052620705
75	0x3da0858f	0.07837974
76	0x3d565b2c	0.052333042
77	0xbca6d67d	-0.020365948
78	0xbc882f23	-0.016624039
79	0xbd7c2eff	-0.061568256
80	0x3dbcaf34	0.09213105
81	0x3d33d745	0.04390647
82	0xbc354247	-0.011063165
83	0x3d64bedb	0.055846076
84	0xbd07f55b	-0.033192974
85	0xbd6481c6	-0.055787824
86	0xbd07b5c7	-0.03313234
87	0xbd9f4c08	-0.07778174
88	0xbd49f24d	-0.04930334
89	0xbc969cc5	-0.0183853
90	0x3cc657d2	0.024211798
91	0x3db2cfd6	0.08731048
92	0x3d66cef2	0.056349702
93	0x3c5e3fb0	0.013564989
94	0x3d5ecb49	0.054393087
95	0x3d9f77e8	0.07786542
96	0x3d102bcd	0.03519802
97	0xbcf11319	-0.029428052
98	0xbd3ebe5b	-0.046568256
99	0xbd8ec2f7	-0.0697078
100	0xbd7643e4	-0.06012334
101	0xbd33841a	-0.043827154
102	0x3d41d983	0.047326576
103	0xbd000399	-0.03125343
104	0xbd85bbf5	-0.065299906
105	0xbdb605cd	-0.08887825
106	0x3b39ed0e	0.0028370055
107	0x3db2d94d	0.08732853
108	0xbd215acb	-0.039393228
109	0xbcaec9ac	-0.021336399
110	0xbc025328	-0.007954396
111	0x3d15d67a	0.036581494
112	0xbd5da35e	-0.054110877
113	0xbda8368e	-0.082135305
114	0xbd7711ea	-0.06031982
115	0xbd727c24	-0.05920042
116	0x3d37764f	0.044790562
117	0xbd0b3a0b	-0.0339909
118	0x3d5593d1	0.05214292
119	0x3d25ee53	0.040510487
120	0x3d120f5d	0.035659183
121	0xbd233afd	-0.039851177
122	0x3d85c42d	0.06531558
123	0xbd0736f5	-0.033011395
124	0xbd17e5ad	-0.03708427
125	0x3d815eac	0.06316885
126	0x3cb8a4b4	0.022539474
127	0xbd1776de	-0.036978595
128	0x3d976f4f	0.07394277
129	0xbd7c14e0	-0.061543345
130	0x3da24da2	0.079249635
131	0x3d8ef6f8	0.06980699
132	0x3d1e3209	0.038621936
133	0x3cab66a2	0.020922963
134	0xbd419ce9	-0.04726878
135	0x3da96431	0.08271063
136	0x3d7fc9f3	0.062448453
137	0xbbd5ced4	-0.0065249
138	0xbd84fe76	-0.06493847
139	0xbd67a168	-0.056550413
140	0xbd5e06fa	-0.054205872
141	0x3cfc4ebb	0.03079926
142	0x3daf331c	0.0855467
143	0x3d5cdb12	0.05391986
144	0xbdb4b829	-0.08824188
145	0x3d58b7be	0.052909605
146	0x3d9fdadd	0.07805417
147	0xbd4dedf7	-0.05027577
148	0x3c69e5de	0.014275996
149	0xbcc884dc	-0.024477415
150	0xbd1fb9a5	-0.038995404
151	0x3d0fa956	0.0350736
152	0xbcce1707	-0.025157465
153	0xbd8b828d	-0.0681201
154	0xbd44a35a	-0.048007347
155	0xbdaea4ff	-0.08527564
156	0xbd774cfd	-0.060376156
157	0xbd936721	-0.07197405
158	0xbd4e6209	-0.050386462
159	0xbd1350e0	-0.0359658
160	0xbaf58fb9	-0.0018734849
161	0x3d26c0a6	0.040711068
162	0xbd1c5bec	-0.0381736
163	0xbc211cd8	-0.009833537
164	0xbdb459cd	-0.08806191
165	0x3d70929f	0.05873358
166	0x3d9391ce	0.072055444
167	0xbd854cac	-0.065087646
168	0x3d836a5a	0.06416769
169	0x3d882412	0.06647505
170	0xbbfe940c	-0.0077691134
171	0xbdbdb042	-0.09262134
172	0xbdade3c3	-0.08490708
173	0xbd8f1de6	-0.069881245
174	0x3c68f8d1	0.014219479
175	0xbda1d2d0	-0.079015374
176	0xbd70f2af	-0.05882519
177	0x3d59a6df	0.053137656
178	0x3d8ea343	0.069647335
179	0xbd97ee50	-0.074185014
180	0x3d7774e7	0.06041422
181	0x39ac0f96	0.0003281801
182	0x3c9e7bf8	0.019346222
183	0x3c515fc4	0.01277918
184	0xbda2b01c	-0.079437464
185	0x3cb31710	0.021861583
186	0xbd5cdb21	-0.053919915
187	0x3d25ddad	0.04049461
188	0x3d01c57b	0.031682473
189	0x3d7af271	0.061266366
190	0xbd9bd6f2	-0.07609357
191	0x3d5eff79	0.054442856
192	0xbd7281f3	-0.05920596
193	0xbdb0235b	-0.086004935
194	0xba1a98c9	-0.00058974006
195	0x3cc2b43c	0.023767583
196	0xbdb11c0a	-0.08647926
197	0xbdb2c0bf	-0.0872817
198	0xbcdbe353	-0.026841795
199	0xbda08780	-0.078383446
200	0xbd68abab	-0.05680434
201	0x3cbf36a7	0.02334149
202	0xbd2674f4	-0.04063888
203	0x3d04609f	0.032318708
204	0x3ce9ad54	0.028525032
205	0xbc6a87b4	-0.014314581
206	0x3c9841bd	0.018586034
207	0x3aba49ce	0.0014212669
208	0xbdb5d22b	-0.08877977
209	0x3d2c0fc3	0.04200722
210	0x3db4c9fe	0.088275895
211	0xbd9bc8a2	-0.07606627
212	0xbdbb3c80	-0.09142399
213	0x3da839b0	0.08214128
214	0xbd962074	-0.07330409
215	0xbd9402a4	-0.07227066
216	0xbd095d19	-0.03353605
217	0xbc3db8f2	-0.011579739
218	0xbd41891c	-0.0472499
219	0xbd9c72ef	-0.07639109
220	0x3c729f30	0.014808461
221	0xbd546a04	-0.051858917
222	0x3d5c2023	0.053741585
223	0xbd974e5b	-0.07387992
224	0x3d11a319	0.035555933
225	0x3cd4ff9a	0.026000787
226	0x3d23edd2	0.040021725
227	0x3d9cb955	0.07652537
228	0x3d77e217	0.06051835
229	0x3daed735	0.08537141
230	0xbd632ce8	-0.055462748
231	0x3d467788	0.048453838
232	0x3da5776b	0.08079418
233	0xbd1b8d70	-0.037976682
234	0x3da53f0c	0.08068666
235	0x3ce6f572	0.02819321
236	0xbd3c63c8	-0.045993596
237	0x3d6056bd	0.05477022
238	0xbb2c5e84	-0.0026301453
239	0x3b83c86c	0.004021695
240	0x3dcba149	0.09942872
241	0xbd25d2f5	-0.040484387
242	0x3d0cd885	0.034386177
243	0x3cf06b0f	0.029347925
244	0xbbabf935	-0.0052482137
245	0x3b4024f4	0.00293189
246	0xbd846b98	-0.064658344
247	0x3da85c93	0.08220782
248	0xbc85afe5	-0.016319225
249	0xbdb30e30	-0.087429404
250	0x3c2592af	0.010105773
251	0xbdb191bf	-0.08670377
252	0x3dbf8dbc	0.093532056
253	0x3b55eb3f	0.0032641438
254	0xbd9abcc4	-0.075555354
255	0x3d8d5589	0.0690108

network.2.bias f4 [84]
0	0x3c920d17	0.017828507
1	0x3ccc2d97	0.024924083
2	0x3d556606	0.05209925
3	0xbd4892a6	-0.04896798
4	0xbdabe4d4	-0.08393255
5	0xbd541066	-0.05177345
6	0x3d3832a7	0.04497018
7	0xbd9e9acb	-0.07744368
8	0xbd80b092	-0.06283678
9	0xbc63d278	-0.01390516
10	0xbd41ae32	-0.047285266
11	0xbd444069	-0.04791299
12	0x3c3c1e29	0.0114818
13	0x3c908ea2	0.017646138
14	0xbd9d0cf9	-0.0766849
15	0x3da7f84d	0.082016565
16	0x3d45d356	0.04829725
17	0xbd48cbae	-0.04902237
18	0x3cadf55e	0.021235164
19	0x3d72d5f0	0.059286058
20	0xbd96a62c	-0.073559135
21	0x3db60d62	0.08889271
22	0x3cd72089	0.026260631
23	0x3b8b0772	0.004242831
24	0x3d910303	0.070806526
25	0x3cc49177	0.023995144
26	0xbdb2c92d	-0.087297775
27	0xbcb4973b	-0.022044769
28	0x3b209394	0.0024502026
29	0x3cdc07a8	0.02685912
30	0x3d12f0d8	0.035874218
31	0x3d1443aa	0.036197342
32	0x3dca0f18	0.0986616
33	0x38fc228a	0.0001202273
34	0x3d468d69	0.048474703
35	0xbc1871a2	-0.009304436
36	0x3d772509	0.060338054
37	0xbd921b32	-0.07134093
38	0x3c2b7e87	0.010467178
39	0xbcf7caa9	-0.030248003
40	0xbd79f794	-0.061027125
41	0x3da81f2a	0.08209069
42	0xbd5d7eeb	-0.054076117
43	0xbbe48fd9	-0.006975156
44	0xbd94dbd5	-0.07268492
45	0xbd640980	-0.055673122
46	0x3d9b9600	0.075969696
47	0xbda105fd	-0.0786247
48	0x3d8efa98	0.06981391
49	0x3d26aadc	0.040690288
50	0x3d9a060e	0.07520686
51	0x3d8cb16c	0.06869778
52	0x3c078cee	0.008273346
53	0xbda6d456	-0.081459686
54	0x3d0539ad	0.032525707
55	0xbcffd217	-0.031228108
56	0xbc15552a	-0.009114543
57	0x3c8bfbd5	0.017087856
58	0x3d1ba749	0.038001332
59	0x3d4a6e4e	0.0494216
60	0x3ceca791	0.028888496
61	0x3ce4031f	0.02783352
62	0x3daf7d11	0.085687764
63	0x3d828df7	0.06374734
64	0x3c3b0d7b	0.011416788
65	0xbca66b75	-0.020314911
66	0xbd04694e	-0.03232699
67	0xbca5e29e	-0.020249661
68	0xbd653eb4	-0.055968
69	0x3b1394de	0.0022519152
70	0x3dbb85cd	0.0915638
71	0xbc8adcca	-0.016950984
72	0x3db022ac	0.08600363
73	0x3b79be4f	0.0038107818
74	0x3d2cb9d1	0.042169396
75	0x3d8bfb29	0.068350144
76	0xbdac0bdb	-0.08400699
77	0x3d1575c7	0.036489274
78	0x3d0ae26a	0.03390733
79	0x3d26fbb5	0.04076739
80	0x3d31515a	0.043290474
81	0x3c9ef2eb	0.019402942
82	0xbd18fee0	-0.037352443
83	0x3d1a5e70	0.03768772

network.4.weight f4 [21, 84]
0	0x3d8250a0	0.06363034
1	0x3ca8b6d5	0.020594994
2	0xbd2b2c89	-0.04179052
3	0xbd8a251d	-0.0674536
4	0x3d9ff198	0.07809752
5	0x3a0aa3d5	0.0005288695
6	0xbb848086	-0.0040436415
7	0x3d6eac96	0.05827006
8	0x3cae3838	0.021267042
9	0xbd8f5a9f	-0.069997065
10	0x3c69ebf4	0.014277447
11	0xbcedeaa9	-0.029042559
12	0xbd89c57d	-0.06727121
13	0x3d82006a	0.06347735
14	0xbda603c1	-0.08106185
15	0x3dc71299	0.09720344
16	0x3d70dfd6	0.058807217
17	0x3c1cd241	0.009571613
18	0xbcdc5b42	-0.026898984
19	0xbd4679ff	-0.04845619
20	0xbc059312	-0.00815274
21	0xbd45237c	-0.048129544
22	0xbce0b007	-0.027427686
23	0xbd276149	-0.040864263
24	0x3d8a7c70	0.06762016
25	0x3dac0935	0.084001936
26	0x3c35d1e0	0.011097401
27	0x3da39812	0.079879895
28	0x3d758e6f	0.05995029
29	0x3c966398	0.018358037
30	0x3d12e238	0.03586027
31	0xbd6633b9	-0.05620167
32	0x3d533b22	0.051570065
33	0xbd90feaa	-0.07079823
34	0xbd1a8e51	-0.03773338
35	0xbdb7bc97	-0.089715175
36	0x3c8b242d	0.016985023
37	0xbda1c9da	-0.07899828
38	0x3d9aee34	0.07564965
39	0xbc3a03a1	-0.011353404
40	0xbdb45e67	-0.08807068
41	0x3d9252f8	0.07144731
42	0xbced1fbf	-0.028945802
43	0x3d948ec8	0.07253796
44	0xbd992250	-0.07477248
45	0xbdc2c2f3	-0.0950984
46	0x3cca6b1b	0.024709275
47	0xbd90e648	-0.07075173
48	0x3d941f97	0.07232588
49	0xbd2bf397	-0.041980352
50	0x3d4d9f7b	0.05020092
51	0xbda974a2	-0.08274199
52	0xbdb6f4a8	-0.08933383
53	0xbd9882fd	-0.07446859
54	0x3d1cdcfe	0.038296692
55	0xbd386dde	-0.045026653
56	0x3dadb40a	0.08481605
57	0xbc847e2a	-0.016173441
58	0xbdd64263	-0.10461881
59	0x3c877fa0	0.016540349
60	0x3dd27f4e	0.10278188
61	0x3d2a1aab	0.04152934
62	0x3c799d76	0.0152352955
63	0x3c13abae	0.0090131
64	0x3d489668	0.048971564
65	0x3da9ba2a	0.08287461
66	0xbd36a09c	-0.044586763
67	0x3d80a157	0.06280773
68	0xbd6eb907	-0.058281925
69	0xbdc5230f	-0.096258275
70	0xbd3817f3	-0.044944715
71	0xbc7b590a	-0.015341053
72	0x3d0e4444	0.034733072
73	0x3d73982c	0.059471294
74	0xbcb1b045	-0.021690497
75	0x3d4bcaa3	0.049753796
76	0x3d96af68	0.07357675
77	0xbdc3bba1	-0.09557272
78	0x3d451410	0.048114836
79	0xbcdc3cd0	-0.026884466
80	0x3dc7f7bf	0.09764051
81	0x3dd18f63	0.10232427
82	0x3dc581e1	0.09643913
83	0xbd91c95b	-0.07118484
84	0x3d9d48f5	0.07679931
85	0xbc303fac	-0.010757368
86	0x3d58ae2b	0.052900475
87	0xbd20df52	-0.039275475
88	0xbda52f8c	-0.080657095
89	0xbc33a87a	-0.010965461
90	0xbdb9b516	-0.090677425
91	0x3dc896ce	0.09794389
92	0xbdd3e95d	-0.10347245
93	0xbd30360e	-0.0430203
94	0xbb1ba042	-0.0023746644
95	0xbc64e23b	-0.013969953
96	0xbb7871dc	-0.0037909662
97	0xbd8baa15	-0.0681955
98	0x3ddedd87	0.10882097
99	0xbd3af238	-0.045641154
100	0x3da75633	0.08170738
101	0x3dc8eb04	0.09810451
102	0xbd773137	-0.06034967
103	0xbd683445	-0.056690473
104	0x3c4b52dc	0.012409892
105	0xbcbe3942	-0.023220662
106	0xbd763ea5	-0.060118336
107	0x3de25234	0.11050835
108	0x3cce4f82	0.025184397
109	0x3d22eeee	0.039778642
110	0x3d0a1fba	0.033721663
111	0xbd6d9723	-0.058005463
112	0x3bdf1aee	0.00680863
113	0xbcedb466	-0.029016685
114	0x3d482887	0.048866775
115	0xbd8a24b9	-0.067452855
116	0x3d2da4c0	0.042393446
117	0xbd4587f2	-0.04822535
118	0x3d4951a6	0.04915013
119	0xbd2589b1	-0.040414516
120	0xbcac1383	-0.021005398
121	0x3ddb0251	0.10693801
122	0xbc151cf5	-0.009101142
123	0x3cbde96a	0.02318259
124	0x3d10a815	0.035316546
125	0xbdce7cc8	-0.10082394
126	0x3d3b8f93	0.04579122
127	0x3d41abc1	0.047282938
128	0x3d4facc8	0.050701886
129	0xbc79d7f0	-0.015249237
130	0x3d844335	0.06458131
131	0xbd189337	-0.03724977
132	0xbdad0d0d	-0.08449755
133	0x3d5b2a40	0.05350709
134	0xbdb0c702	-0.08631708
135	0x3da37194	0.07980648
136	0x3d47c16d	0.04876845
137	0xbdce1ad8	-0.10063714
138	0x3d5b3a12	0.053522177
139	0xbd6ab23f	-0.057298895
140	0x3d9c1b44	0.07622388
141	0xbda7d4ad	-0.081948616
142	0xbd2010ed	-0.03907864
143	0x3d2a7912	0.041619368
144	0x3c921c03	0.017835623
145	0xbcbbafc6	-0.022910964
146	0x3d105065	0.03523292
147	0xbd38ccce	-0.045117192
148	0xbac83093	-0.0015273265
149	0x3da3f41d	0.08005545
150	0xbd94187b	-0.07231232
151	0x3d4b3156	0.049607597
152	0x3dbfdd43	0.09368374
153	0x3d3ad369	0.045611773
154	0x3dcb75f0	0.09934604
155	0x3d7b4c38	0.061351985
156	0x3d898866	0.06715469
157	0xbc8fbb54	-0.01754538
158	0xba5de2c2	-0.00084642705
159	0x3bc38f21	0.00596799
160	0x3c32ca63	0.010912511
161	0xbdca193f	-0.098680966
162	0xbd66a297	-0.0563074
163	0x3c5e3f23	0.013564858
164	0x3da2d875	0.07951442
165	0xbca1bbc3	-0.019742852
166	0x3cec385a	0.028835464
167	0x3da0e852	0.078568116
168	0x3d3d05ff	0.046148296
169	0xbd09ae35	-0.033613402
170	0xbd99f5c1	-0.07517577
171	0xbcf90c2d	-0.030401314
172	0xbd3fddd5	-0.046842415
173	0x3dde63f5	0.10858909
174	0x3c94c2c2	0.018159274
175	0x3d93bb82	0.07213499
176	0x3dac4e1a	0.08413334
177	0x3d1230e3	0.035691153
178	0xbd3b748b	-0.04576544
179	0xbcee8b37	-0.029119117
180	0x3da92585	0.082591094
181	0x3d7e001d	0.062011827
182	0xbcf7a2cf	-0.030229
183	0x3ddba7a5	0.10725335
184	0xbd6bddcd	-0.057584573
185	0xbc8e24e6	-0.017351579
186	0x3c8e7e97	0.017394347
187	0x3d3979ea	0.045282282
188	0xbd83ac76	-0.06429379
189	0xbc91d149	-0.01779999
190	0x3d83d455	0.064369835
191	0x3d3ff6fd	0.046866406
192	0x3db6fe41	0.08935214
193	0x3d492f26	0.04911723
194	0x3cafe13a	0.021469701
195	0x3dc50b7d	0.09621332
196	0x3d7da9ed	0.061929632
197	0xbcdc3095	-0.026878634
198	0x3a15061a	0.0005684808
199	0xbc06b673	-0.00822221
200	0xbda637b7	-0.081160955
201	0x3d62f3cc	0.055408284
202	0xbc994dcb	-0.018713852
203	0xbbb5c6da	-0.0055473866
204	0xbb6923b1	-0.0035574252
205	0x3a9c669f	0.0011932439
206	0x3d2941f3	0.04132266
207	0x3d265121	0.040604714
208	0xbd8b9f77	-0.06817525
209	0xbdba1dcc	-0.090877146
210	0x3dd83075	0.105561174
211	0x3d4bf441	0.049793486
212	0x3c46599d	0.012106326
213	0x3db4b085	0.08822731
214	0xbcd537cd	-0.026027584
215	0xbca29648	-0.01984705
216	0xbd0a7f27	-0.03381267
217	0xbd90ce6e	-0.07070623
218	0xbcc9ef62	-0.02465028
219	0x3cd17421	0.02556807
220	0xbd8ed16a	-0.06973536
221	0x3d7da4f9	0.06192491
222	0xbd336353	-0.043795895
223	0xbaac42c8	-0.0013142461
224	0xbdb1fba0	-0.08690572
225	0xbdbfa70c	-0.093580335
226	0x3caa39ec	0.020779572
227	0x3c9fea56	0.01952092
228	0xbd48a873	-0.04898877
229	0x3d70313f	0.058640715
230	0xbd5c9944	-0.053857103
231	0xbdb71677	-0.08939832
232	0x3da0e738	0.078566015
233	0xbdc8ce36	-0.098049566
234	0x3d4cb9de	0.049981944
235	0x3d9eb5ef	0.07749545
236	0xbdbef0d4	-0.09323278
237	0xbdc9b449	-0.0984884
238	0x3cfffce2	0.031248514
239	0xbd100eb0	-0.035170257
240	0xbd4f9fe5	-0.050689597
241	0xbced35b7	-0.028956277
242	0xbca43352	-0.020044003
243	0x3bbcdb41	0.005763442
244	0x3c7e6996	0.015528103
245	0xbd3008da	-0.04297719
246	0x3d069221	0.032854203
247	0xbdd78d95	-0.105250515
248	0xbdcf0f3a	-0.10110326
249	0x3daf01aa	0.08545239
250	0xbd235b7b	-0.039882164
251	0x3d670894	0.056404665
252	0x3d8db5e2	0.06919457
253	0xbdac4842	-0.084122196
254	0x3db09d8c	0.086238
255	0xbbfde9c4	-0.0077488143

network.4.bias f4 [21]
0	0xbd181e6d	-0.03713839
1	0xbd741224	-0.059587613
2	0xbd9c85e0	-0.07642722
3	0x3da20daf	0.07912766
4	0x3db02bb5	0.086020865
5	0xbd283968	-0.041070372
6	0xbd2270b6	-0.03965827
7	0x3ddfaa9b	0.10921212
8	0x3b355948	0.0027671624
9	0x3b834e5c	0.004007144
10	0x3d6c3a77	0.057672944
11	0x3c9b972f	0.018992988
12	0xbcee893d	-0.029118175
13	0x3d70b157	0.058762874
14	0xbd7e999f	-0.062158223
15	0x3cd7ef30	0.02635917
16	0xbcc2693f	-0.023731826
17	0xbccf6a8b	-0.025319358
18	0x3d3cfb82	0.046138294
19	0xbafb8ee7	-0.0019192368
20	0xbd369d14	-0.044583395
