pretrained/blue_agent_episode_150.pt (torch, 248522 bytes, 10 tensors)

cnn.0.weight f4 [5, 5, 3, 3]
0	0x3d8f864f	0.07008039
1	0xbdf81d70	-0.1211499
2	0xbddc3ed8	-0.10754174
3	0xbda57bbf	-0.08080243
4	0xbd68f1bf	-0.056871172
5	0x3bd43d2e	0.0064770197
6	0x3d656c97	0.056011762
7	0xbd9714bf	-0.07377004
8	0x3e10a45c	0.14125198
9	0x3dfa7d41	0.122309215
10	0xbcaec233	-0.021332836
11	0xbe178e18	-0.14800298
12	0xbe11428d	-0.14185543
13	0x3df2d229	0.11856491
14	0xbbbba141	-0.00572601
15	0xbda23dcc	-0.07921943
16	0xbd42431a	-0.047427274
17	0xbdd6e9b9	-0.10493798
18	0x3c9522b7	0.01820503
19	0xbdf81dc4	-0.12115052
20	0x3e0cf45e	0.13765094
21	0xbd6d22af	-0.057894405
22	0x3d24a254	0.04019387
23	0xbcac0dcd	-0.021002674
24	0x3d66f3d4	0.056384876
25	0xb915a017	-0.00014269385
26	0x3db50937	0.08839648
27	0x3dddfc98	0.10839194
28	0xbd19e277	-0.03756949
29	0x3c89ad19	0.016806172
30	0x3d968d19	0.07351131
31	0xbd55c1bc	-0.052186713
32	0x3dc10414	0.09424606
33	0x3dc8c5d6	0.09803359
34	0xbdb51985	-0.08842758
35	0xbe040fec	-0.12896699
36	0xbda0ee75	-0.07857982
37	0xbe16c416	-0.14723238
38	0xbd4fa1b5	-0.050691325
39	0xbdcc59d0	-0.09978068
40	0xbe151f73	-0.14562778
41	0xbdcac5d1	-0.09901012
42	0xbbcd99b9	-0.0062744287
43	0xbd47b1c7	-0.048753526
44	0x3d842447	0.06452232
45	0xbc90e713	-0.01768831
46	0x3d867d89	0.06566913
47	0xbded22fa	-0.11578937
48	0xbca44bc4	-0.02005566
49	0xbc62bc89	-0.013838896
50	0xbe05ff0f	-0.13085578
51	0x3da3b441	0.07993365
52	0xbcc81011	-0.024421724
53	0xbca9f61b	-0.020747235
54	0xbd34411c	-0.044007406
55	0x3e032135	0.12805636
56	0xbc91b72d	-0.01778754
57	0xbdec8041	-0.115479
58	0xbcb423f1	-0.021989794
59	0xbd681266	-0.05665817
60	0xbcd7e150	-0.026352555
61	0xbe1a3f25	-0.1506315
62	0x3ca9414e	0.020661023
63	0x3d807698	0.0627262
64	0x3e1354ba	0.1438779
65	0x3dd847dc	0.10560581
66	0xbddb324c	-0.10702953
67	0x3d75013e	0.059815638
68	0xbce84727	-0.02835424
69	0xbdd16f08	-0.10226256
70	0x3dc0e02f	0.094177596
71	0x3d967ebe	0.07348393
72	0xbd9ca5d9	-0.076488204
73	0x3ddeb6f3	0.108747385
74	0xbe195bad	-0.14976378
75	0xbce9e16c	-0.028549872
76	0x3dc1db3a	0.09465642
77	0xbe0d954d	-0.13826485
78	0xbde1c1f5	-0.110233225
79	0x3d8ffccc	0.07030639
80	0xbd9992d8	-0.07498711
81	0xbdf24e7b	-0.11831375
82	0xbdbd14b8	-0.092324674
83	0x3c129f2b	0.008949081
84	0x3d6cf86b	0.057854097
85	0xbe1a0471	-0.15040757
86	0x3b941ba6	0.0045198975
87	0xbcd52b30	-0.02602157
88	0xbdac9b44	-0.08428052
89	0x3db8e7e4	0.090286046
90	0xbe034a1d	-0.1282124
91	0x3c82719f	0.01592332
92	0xbac9d8eb	-0.001539973
93	0xbe0d4452	-0.13795593
94	0xbc30bfd1	-0.01078792
95	0xbdfc24d1	-0.1231171
96	0xbdaa64a1	-0.08319975
97	0xba8d6371	-0.0010787082
98	0xbdb56dca	-0.08858831
99	0xbdaf9596	-0.08573453
100	0xbe0c8a60	-0.13724661
101	0xbdf8a885	-0.121415175
102	0xbe136771	-0.14394929
103	0x3db2f68a	0.0873843
104	0x3d761022	0.06007398
105	0x3e0e5d9a	0.13902894
106	0x3dc76bec	0.09737381
107	0xbddbb9f5	-0.10728828
108	0xbde42e18	-0.11141604
109	0xbd001a95	-0.03127535
110	0xbdeb7813	-0.11497512
111	0x3ccca73e	0.024982091
112	0xbc7541cd	-0.014969301
113	0xbd6d4246	-0.05792453
114	0x3d9b8e3e	0.0759549
115	0x3d8503db	0.06494876
116	0x3c93e227	0.018052174
117	0x3d9e3ae2	0.07726075
118	0x3e0ebe9b	0.13939898
119	0x3d600cfd	0.054699887
120	0x3da45181	0.08023358
121	0xbdb60a8c	-0.088887304
122	0x3d5e089c	0.05420743
123	0xbce25316	-0.02762751
124	0x3dea5b11	0.11443151
125	0xbcac3cd5	-0.0210251
126	0x3d5b1105	0.053483028
127	0xbdce3a0f	-0.100696675
128	0x3de6ea89	0.11275203
129	0x3d05ad16	0.03263577
130	0x3db74f13	0.08950629
131	0xbd56926c	-0.052385733
132	0x3dd8a807	0.10578924
133	0x3da3b0da	0.07992716
134	0x3d8d8e83	0.069119476
135	0xbd77f9e7	-0.06054106
136	0xbdccbfbb	-0.09997507
137	0xbd9d19d7	-0.07670944
138	0x3d790345	0.060794134
139	0xbc4e0af7	-0.012575856
140	0x3da470c2	0.08029319
141	0x3d8a2273	0.06744852
142	0xbdc2592d	-0.09489665
143	0x3da8dac2	0.0824485
144	0xbe0ca4f6	-0.13734803
145	0xbd7d92a0	-0.06190741
146	0xbccc7898	-0.024959847
147	0x3dc31643	0.095257305
148	0xbd3b48f2	-0.045723863
149	0x3db9f372	0.09079637
150	0x3d685017	0.056717005
151	0x3c2e9817	0.010656378
152	0xbce0e447	-0.027452601
153	0x3cfeb21e	0.031090792
154	0xbe0cf411	-0.13764979
155	0x3d509be7	0.05092993
156	0xbd2e7a9a	-0.04259739
157	0xbdd87949	-0.10570008
158	0x3d670071	0.056396905
159	0x3cdad32e	0.026712026
160	0x3dec30b8	0.1153273
161	0x3e12386c	0.14279336
162	0x3e114d00	0.1418953
163	0xbd694e9d	-0.056959737
164	0x3de137eb	0.10996994
165	0x3c4f247e	0.012642978
166	0xbdfdd3da	-0.12393923
167	0xbdaac901	-0.0833912
168	0x3dbbc37c	0.09168145
169	0x3cf2177e	0.029552218
170	0x3e07c961	0.13260414
171	0x3c643917	0.013929627
172	0x3d1d0680	0.038336277
173	0x3d8c246b	0.06842884
174	0xbd1cf792	-0.03832204
175	0xbd364251	-0.044496838
176	0xbda349aa	-0.07973035
177	0x3dfbd2ab	0.12296041
178	0x3e0c747e	0.13716313
179	0x3e000422	0.12501577
180	0x3de26ff0	0.11056507
181	0xbd9eed9c	-0.07760164
182	0x3dd2ef87	0.102995925
183	0x3e15d21f	0.14630936
184	0xbd8fa2d8	-0.07013482
185	0xbe12d27d	-0.14338107
186	0x3e10eac5	0.14152057
187	0x3e0c03df	0.13673352
188	0x3cb56bcf	0.022146134
189	0x3da089b7	0.07838767
190	0xbd7a16a3	-0.061056744
191	0xbe0cd5c8	-0.13753426
192	0xbcf11dfa	-0.02943324
193	0xbe0836fc	-0.13302225
194	0x3dc5ba65	0.096546926
195	0xbd7995f2	-0.060934015
196	0x3e004e1b	0.12529795
197	0x3bff41c7	0.0077898237
198	0x3dd945fc	0.106090516
199	0xbbe6abd1	-0.007039525
200	0x3c8ac11b	0.016937783
201	0xb9f48ab2	-0.00046642643
202	0x3dc10d6e	0.0942639
203	0xbd6d2119	-0.057892893
204	0x3dc6525e	0.09683679
205	0x3bdd30a9	0.0067501855
206	0x3d9a1590	0.07523644
207	0x3e1bbac9	0.15207972
208	0x3aef5513	0.0018259607
209	0x3cbf3611	0.02334121
210	0xbd26c007	-0.040710475
211	0x3d9f6936	0.07783739
212	0x3e1e61a5	0.15466936
213	0x3b34c9eb	0.0027586173
214	0x3b952bc2	0.0045523355
215	0xbc8e967d	-0.017405743
216	0xbdef4d30	-0.11684644
217	0x3e120979	0.14261426
218	0xbe117b12	-0.14207104
219	0xbe0a82a8	-0.13526404
220	0xbe031de6	-0.12804374
221	0x3d4e5756	0.05037626
222	0xbbe3a8e6	-0.0069476245
223	0x3d49f19b	0.04930268
224	0xbb2cfe8c	-0.002639684

cnn.0.bias f4 [5]
0	0x3c9989da	0.01874249
1	0x3dc921a6	0.09820871
2	0x3d009ba6	0.031398438
3	0xbd471260	-0.04860151
4	0xbde3d419	-0.11124439

cnn.2.weight f4 [5, 5, 3, 3]
0	0xbd1d679a	-0.03842888
1	0xbdeaa52d	-0.11457286
2	0x3df2fa30	0.11864126
3	0xbb418703	-0.0029529936
4	0x3d8bb5eb	0.068218075
5	0x3d9a5001	0.07534791
6	0x3cc0e776	0.02354787
7	0xbdf7125f	-0.12064051
8	0x3c9d9a48	0.019238606
9	0xbe168660	-0.14699697
10	0xbd964370	-0.073370814
11	0x3dff9786	0.12480073
12	0x3cf9998c	0.030468725
13	0xbd645241	-0.055742506
14	0x3e04381b	0.12912028
15	0xbcc9fbfb	-0.024656286
16	0x3e16de55	0.1473325
17	0x3e0ce3bc	0.13758749
18	0xbdc01d76	-0.09380619
19	0x3d02641f	0.031833764
20	0xbd488ebf	-0.04896426
21	0x3dafa165	0.085757054
22	0xbe118274	-0.1420992
23	0xbc6b98fb	-0.014379735
24	0x3db12943	0.08650448
25	0xbdd819d2	-0.105518
26	0xbdca93c9	-0.09891469
27	0xbdb2eb02	-0.087362304
28	0x3d87dbe5	0.066337384
29	0xbd841fa7	-0.0645135
30	0xbd9904d9	-0.07471628
31	0x3d960743	0.07325604
32	0x3bd3b988	0.006461326
33	0xbd784046	-0.06060817
34	0x3c90100b	0.017585775
35	0x3df49e91	0.11944307
36	0xbdaa1621	-0.08305002
37	0x3d91c778	0.07118124
38	0xbcec0350	-0.028810173
39	0x3de0ee6e	0.10982977
40	0x3ddb3325	0.107031144
41	0xbe0d3284	-0.13788801
42	0x3d3be3b2	0.045871444
43	0xbdd47f5f	-0.103758566
44	0xbd42fb23	-0.047602784
45	0xbd2cee6f	-0.042219575
46	0x3d62d459	0.05537829
47	0x3ca08eae	0.019599285
48	0xbe05c746	-0.13064298
49	0x3da744d6	0.08167426
50	0x3d90d794	0.07072368
51	0xbd4a02b4	-0.049318984
52	0xbe0034e5	-0.12520178
53	0x3dedeecc	0.116178125
54	0xbe0ab6f5	-0.13546355
55	0xbdff6f02	-0.12472345
56	0x3cc57714	0.024104632
57	0xbda0dd22	-0.07854678
58	0x3d20fcc9	0.039303575
59	0xbe05d5d1	-0.13069846
60	0xbdb22a24	-0.08699444
61	0x3e0b37b1	0.13595463
62	0x3e136339	0.14393319
63	0x3df7fbee	0.12108599
64	0xbdb99c55	-0.09063021
65	0x3dbd14c8	0.09232479
66	0xbdfbd7e4	-0.12297037
67	0x3dbb6f2a	0.09152062
68	0xbdc1eea5	-0.09469346
69	0x3cb32fde	0.02187341
70	0xbd33a8d4	-0.04386218
71	0x3c93b4d0	0.018030554
72	0x3d36b5a3	0.044606816
73	0x3d82cd03	0.06386759
74	0xbe00b6af	-0.12569688
75	0xbe075d7f	-0.1321926
76	0xbdacc514	-0.08436027
77	0xbde1615d	-0.11004899
78	0x3b6b694e	0.003592092
79	0xbd7095b5	-0.05873652
80	0x3c648424	0.01394752
81	0xbcb05051	-0.021522673
82	0x3d7e35d6	0.06206306
83	0x3d67d761	0.056601886
84	0x3df32e50	0.11874068
85	0x3e21006b	0.15722816
86	0xbd826988	-0.06367785
87	0x3b68bfaf	0.0035514643
88	0x3ce3dd9f	0.027815638
89	0x3e087a0d	0.13327809
90	0x3d034f57	0.032058086
91	0x3e0ffbb9	0.14060868
92	0xbb898339	-0.004196551
93	0x3dd0cbe7	0.10195141
94	0xbdbf311d	-0.093355395
95	0x3cf2b2b3	0.029626226
96	0xbdd04a2d	-0.10170398
97	0xbe06a4ab	-0.13148753
98	0x3c4f8ca2	0.012667807
99	0xbdf71a27	-0.12065535
100	0xbd1c1104	-0.038102165
101	0x3d98b041	0.07455493
102	0x3dd02820	0.10163903
103	0xbde0db8e	-0.10979377
104	0x3dcab9d7	0.098987274
105	0x3da25d55	0.07927958
106	0xbdf5fbda	-0.120109275
107	0xbca9f61f	-0.020747242
108	0xbd931e6f	-0.07183539
109	0xbdee25b0	-0.11628282
110	0xbd2d8da2	-0.0423714
111	0x3d46a8a1	0.04850066
112	0x3d445de4	0.047941104
113	0xbe06d7f3	-0.13168316
114	0x3d14622b	0.036226433
115	0x3d691868	0.05690804
116	0xbe045b6f	-0.12925504
117	0x3ae4478e	0.0017416344
118	0x3cb43d8e	0.022002008
119	0xbde49778	-0.11161703
120	0xbd03bfe4	-0.032165423
121	0x3e08f64d	0.13375206
122	0x3db5b98b	0.0887328
123	0x3d7c3c63	0.061581027
124	0xbca93d19	-0.020659016
125	0x3e134fed	0.14385958
126	0xbd3148e7	-0.043282416
127	0xbdd91384	-0.105994254
128	0x3e0ac906	0.13553247
129	0x3d505c45	0.050869245
130	0xbd8e398e	-0.069445714
131	0x3da52ab4	0.080647856
132	0x3e19814c	0.14990729
133	0x3dca5a01	0.09880448
134	0x3dc8d89d	0.09806941
135	0xbd346bd0	-0.04404813
136	0xbd2b1969	-0.04177228
137	0xbdf29a97	-0.11845892
138	0x3dd28d53	0.10280862
139	0x3da09ae2	0.078420416
140	0x3d81d38f	0.0633918
141	0xbcc0c3ab	-0.023530802
142	0x3d794fa6	0.060866974
143	0xbd9ef345	-0.07761244
144	0x3d2826ca	0.041052617
145	0x3d43f577	0.047841515
146	0xbe10e95f	-0.14151524
147	0x3d21c0b8	0.03949043
148	0xbdea2199	-0.114321895
149	0xbe0f3001	-0.13983156
150	0x3d92e384	0.071723014
151	0x3db51efc	0.088438004
152	0x3de4196b	0.111376606
153	0x3cae940a	0.021310825
154	0xbd9e54a4	-0.07730988
155	0x3d039b89	0.03213075
156	0xbabe0cbf	-0.0014499648
157	0x3dd1a637	0.10236781
158	0xbcced448	-0.025247708
159	0x3de944a0	0.11390042
160	0xbdc55eba	-0.09637208
161	0xbe0f5a6e	-0.1399934
162	0x3d40a86b	0.047035616
163	0x3cab3b26	0.020902228
164	0x3df94be4	0.12172678
165	0x3d272dcc	0.04081516
166	0x3dfab228	0.12241012
167	0xbd8bf5a9	-0.06833965
168	0xbd496fa2	-0.049178727
169	0xbd90b55b	-0.07065841
170	0x3c70a4c4	0.014687721
171	0xbe00a8a1	-0.12564327
172	0x3dfc7b11	0.123281606
173	0x3e171f86	0.14758119
174	0x3c104e81	0.008807779
175	0xbce5323c	-0.027978055
176	0x3df15113	0.11783042
177	0x3da7238f	0.08161079
178	0xbd9f747d	-0.0778589
179	0xbcd02830	-0.025409788
180	0x3d88cf47	0.0668016
181	0xbdbe9164	-0.09305075
182	0xbd5c47ec	-0.053779528
183	0xbe00fc87	-0.12596332
184	0x3da61383	0.0810919
185	0xbe022ce0	-0.12712431
186	0xbcdcb35a	-0.02694099
187	0x3e0fc5dc	0.14040321
188	0x3dd84ed5	0.10561911
189	0x3e15c9a5	0.14627703
190	0x3d0f9b07	0.035059955
191	0x3d5c395f	0.05376565
192	0xbb5382f3	-0.0032274097
193	0xbd91f4e7	-0.071267895
194	0x3de5d8b4	0.112229735
195	0xba9cec4b	-0.0011972276
196	0xbd5656e6	-0.052328967
197	0xbde8ab84	-0.11360839
198	0x3d987e15	0.07445923
199	0xbc294949	-0.010332414
200	0x3dae97d5	0.085250534
201	0x3dbc2c0b	0.09188088
202	0x3dbbb15e	0.091646895
203	0xbdf09392	-0.11746897
204	0x3d83b843	0.064316295
205	0xbb2407cd	-0.0025029064
206	0xbc83c997	-0.016087336
207	0x3c79c54f	0.015244796
208	0x3dc97032	0.09835853
209	0xbdcaf8bb	-0.09910723
210	0x3d80c5a2	0.062876955
211	0x3dc50f13	0.09622016
212	0x3dad1d9d	0.08452914
213	0x3dc50d22	0.096216455
214	0xbdd618ca	-0.10453947
215	0xbda12f94	-0.07870403
216	0x3cdb0059	0.026733564
217	0xbc975030	-0.018470854
218	0x3cf99a15	0.03046898
219	0x3e135be0	0.14390516
220	0x3dd6f0e5	0.10495166
221	0x3cd5c59e	0.026095208
222	0x3c0d101d	0.008609799
223	0xbe10d488	-0.14143574
224	0x3c2ff77a	0.010740155

cnn.2.bias f4 [5]
0	0xbd9a5127	-0.0753501
1	0x3e16fcf5	0.14744933
2	0x3dc89b2d	0.097952224
3	0xbdd9be7c	-0.10632035
4	0xbcebc893	-0.028782165

network.0.weight f4 [120, 405]
0	0xbbb116c7	-0.0054043266
1	0x3ccb5273	0.024819588
2	0xbc43053f	-0.011903106
3	0xbc7bfd01	-0.015380145
4	0x3c9514bb	0.018198362
5	0xbd3351a3	-0.043779027
6	0xbd0bb891	-0.034111563
7	0xbd48e118	-0.04904279
8	0xbb832955	-0.00400273
9	0x3cf3f505	0.02977992
10	0x3d04b77b	0.032401543
11	0xbd07a9e6	-0.033121012
12	0xbcbc2b17	-0.022969766
13	0x3c254bf1	0.010088907
14	0xbd06d9cf	-0.032922562
15	0x3c93b927	0.018032623
16	0x3d274874	0.04084058
17	0x3d30cc4a	0.043163575
18	0x3cea8a75	0.028630475
19	0xbc0fd551	-0.008778886
20	0xbd12656d	-0.03574126
21	0xbd43ff58	-0.047850937
22	0xbbef1d0a	-0.007297163
23	0xbd0c51e3	-0.03425778
24	0xbd277c09	-0.040889774
25	0x3cbb1171	0.022835465
26	0xbd4b3786	-0.0496135
27	0x3d2d7368	0.042346388
28	0x3bc4128f	0.0059836577
29	0x3d23e535	0.04001351
30	0xbcce0009	-0.025146501
31	0x3d44d979	0.04805896
32	0xbd078b8e	-0.033092074
33	0x3cdd929c	0.027047448
34	0x3cf68a18	0.030095145
35	0x3d3740d4	0.04473956
36	0xbd046848	-0.032326013
37	0xbc235c10	-0.00997068
38	0xbca01c28	-0.019544676
39	0x3cd0d6c6	0.025493037
40	0x3d22c176	0.03973528
41	0x3baa699b	0.0052005774
42	0xbc937bd2	-0.018003378
43	0x3d276eb9	0.040877078
44	0xbd0ef515	-0.034901697
45	0x3cd70711	0.026248487
46	0x3d13e27c	0.036104664
47	0xbd2a1b12	-0.041529723
48	0xbb0a735e	-0.0021125893
49	0x3bc673f2	0.006056302
50	0x3cc1895e	0.023625072
51	0x3d2a1249	0.041521344
52	0x3bf362b8	0.0074275397
53	0x3bd2b2dc	0.006430013
54	0x3c19b887	0.009382374
55	0xbd273401	-0.04082108
56	0x3d392320	0.045199513
57	0x3be192b2	0.0068839425
58	0x3d493285	0.049120445
59	0x3cca82cb	0.02472057
60	0x3ca7e729	0.020495968
61	0x3b8c7351	0.0042862077
62	0x3d1aad44	0.037762895
63	0x3ce38f7b	0.027778378
64	0xba50ffde	-0.00079726975
65	0xbd1e8258	-0.038698524
66	0xbbf345d4	-0.0074240956
67	0x3cd99ded	0.026564563
68	0xbd19ca4d	-0.037546445
69	0xbbb0ffc1	-0.005401582
70	0x3ce3f1d8	0.027825281
71	0x3ce6ca5f	0.02817267
72	0xbcab697c	-0.020924322
73	0xbc89815e	-0.01678532
74	0x3bb6e6eb	0.005581727
75	0x3b24d10e	0.002514902
76	0x3c533b4c	0.012892555
77	0x3d268e1a	0.040662862
78	0x3d37e7a0	0.04489863
79	0x3d2ee480	0.042698383
80	0x3c6aaf8b	0.014324079
81	0x3d1fe0df	0.039032813
82	0x3c5ba0be	0.013405023
83	0x3c308abb	0.010775263
84	0xbd191c80	-0.037380695
85	0xbcde5183	-0.027138477
86	0xbcab85c0	-0.0209378
87	0xbd1971a8	-0.037461907
88	0xbcebd152	-0.028786335
89	0xbd186d22	-0.037213452
90	0x3c87bb46	0.016568791
91	0xbcf1131f	-0.029428063
92	0x3cabf4f6	0.02099083
93	0x3bec655c	0.0072142314
94	0x3c103624	0.008801971
95	0x3d031004	0.031997696
96	0x3cbf2675	0.023333767
97	0x3b54c97c	0.0032468727
98	0xbd4cb33b	-0.049975615
99	0x3be2ab55	0.006917397
100	0xbd286792	-0.041114397
101	0xbd194eaa	-0.037428536
102	0x3d0612ad	0.032732654
103	0xbcfa6d39	-0.03056966
104	0x3c8805e1	0.016604366
105	0xbcd96a8d	-0.026540065
106	0x3cd5ff54	0.026122727
107	0x3d26aa74	0.0406899
108	0x3b705da1	0.00366769
109	0x3c111987	0.008856184
110	0x3d1a277e	0.03763532
111	0xbb94e2bf	-0.004543632
112	0xbb2c66c4	-0.002630637
113	0x3c81343a	0.015771974
114	0xbd33eb9a	-0.04392586
115	0x3cadc6a9	0.021212893
116	0xbccfccf6	-0.025366288
117	0x3cf4257f	0.029803036
118	0x3d4742c4	0.048647657
119	0xbd071ada	-0.032984592
120	0x3c408663	0.01175079
121	0x3d1667c3	0.03672005
122	0x3d1514f8	0.03639695
123	0xbccece59	-0.025244879
124	0xbbf0aa17	-0.007344495
125	0xbd1f3af9	-0.0388746
126	0xbd2b47c9	-0.041816507
127	0x3d1f77cc	0.038932607
128	0x3b2a5d90	0.002599571
129	0xbcbd893e	-0.023136731
130	0x3c5d8cf3	0.013522374
131	0xbd022a73	-0.031778764
132	0xbd47deae	-0.04879635
133	0x3b6e42ef	0.0036355813
134	0xbd0dd331	-0.034625236
135	0xbd150549	-0.036381993
136	0x3c6ee4a3	0.014580878
137	0x3bc88977	0.0061199027
138	0x3c946488	0.018114343
139	0xbd2ad5cf	-0.04170781
140	0x3b8d32de	0.0043090424
141	0xbce943ba	-0.028474677
142	0x3c2f4a4c	0.010698866
143	0x3c72abf0	0.014811501
144	0x3c10858d	0.0088209035
145	0x3ca63a57	0.02029149
146	0x3cb48323	0.022035187
147	0xbce4311f	-0.027855454
148	0xbcaa79e4	-0.020810075
149	0xbd017bde	-0.03161227
150	0x3ca3018e	0.019898202
151	0xbcffa748	-0.031207696
152	0x3c540f92	0.012943165
153	0xbcac0aeb	-0.0210013
154	0xbc5fb7c5	-0.013654654
155	0xbbfb0fa3	-0.007661776
156	0xbd0a40fd	-0.033753384
157	0x3d185f8d	0.0372005
158	0xbbb22df5	-0.0054376074
159	0x3d43c31d	0.047793496
160	0x39e82eae	0.00044285267
161	0x3c9575a0	0.018244565
162	0x3ccea626	0.02522571
163	0x3d0649db	0.032785278
164	0x3d43198b	0.04763178
165	0x3c83f59a	0.016108323
166	0x3d28c87c	0.04120682
167	0x3b80fb74	0.0039362255
168	0xbcdd48fe	-0.027012344
169	0xbccee5f0	-0.025256127
170	0xbce68b9d	-0.028142745
171	0x3c8aaa9c	0.016927056
172	0xbcc0e9c2	-0.023548964
173	0x3b8a2adb	0.0042165346
174	0xbc3b41f9	-0.011429303
175	0xbc83e4ea	-0.016100366
176	0x3ca554c1	0.020182015
177	0xbce31678	-0.027720675
178	0x3d452385	0.048129577
179	0x3c74d8b6	0.014944246
180	0xbcc316c1	-0.02381456
181	0x3ca6211c	0.02027946
182	0x3d235f3f	0.039885756
183	0xbcccaab9	-0.02498375
184	0x3cc7a9fd	0.024373049
185	0x3c9d4497	0.019197745
186	0xbd232e88	-0.039839298
187	0xbcbc609e	-0.02299529
188	0x3c743d55	0.014907201
189	0xbd292e37	-0.04130384
190	0x3d238000	0.039916992
191	0xbd3540e2	-0.04425133
192	0xbc47bcf0	-0.012191042
193	0x3cd304dc	0.025759153
194	0xbb46541a	-0.003026253
195	0x3cf7848f	0.030214576
196	0xbd4225a5	-0.047399182
197	0xbb42b751	-0.0029711316
198	0xbd3123ae	-0.043246917
199	0xbcee90e9	-0.029121833
200	0xbd0acdb1	-0.03388757
201	0x3d383596	0.04497298
202	0xbce06e64	-0.027396388
203	0x3d3af2c8	0.04564169
204	0xbd24e28c	-0.040255114
205	0xbd09db56	-0.03365644
206	0x3ca2a60c	0.019854568
207	0x3d1991d9	0.037492607
208	0x3c8d662e	0.017260637
209	0xbcb11f34	-0.021621324
210	0xbd244186	-0.04010155
211	0x3d3cdfa0	0.046111703
212	0x3c67216f	0.014107092
213	0x3d41b66c	0.04729311
214	0xbc685225	-0.014179741
215	0x3d3a4628	0.045477062
216	0x3b0a390e	0.0021091136
217	0xbd2b465a	-0.04181514
218	0xbd274edd	-0.040846694
219	0xb999b974	-0.00029320607
220	0xbd2c19bb	-0.042016726
221	0x3cec753b	0.028864494
222	0xba8f3259	-0.0010925039
223	0x3cf04663	0.029330438
224	0x3cc3e8a4	0.023914643
225	0xb8ffa014	-0.000121891644
226	0xbcbc6070	-0.022995204
227	0xbd45c875	-0.048286874
228	0x3b0027bb	0.0019554931
229	0xbcd2a8ea	-0.02571531
230	0x3cf09620	0.02936846
231	0xbc27f472	-0.010251151
232	0x3ccdf396	0.025140565
233	0x3cc19e26	0.023634981
234	0xbd2031a6	-0.03910985
235	0x3bbc617d	0.005748926
236	0x3c1569ff	0.00911951
237	0x3d3d64cd	0.04623871
238	0xbb476ce2	-0.003042989
239	0x3d0b17d4	0.03395827
240	0x3b432803	0.0029778488
241	0x3cb318c3	0.021862393
242	0xbd1714e7	-0.03688517
243	0xbc722879	-0.014780157
244	0x3cf6477b	0.030063381
245	0xbc87f6a0	-0.016597092
246	0xbd175443	-0.036945593
247	0x3c99be67	0.018767549
248	0xbd3e3151	-0.04643375
249	0xbd2f140e	-0.042743735
250	0x3d406c27	0.046978142
251	0xbcffa217	-0.03120522
252	0x3bb6e4db	0.005581481
253	0x3c95cd2b	0.018286308
254	0x3b9a2844	0.004704507
255	0xbd46b60c	-0.048513457

network.0.bias f4 [120]
0	0x3c8540f9	0.016266333
1	0x3ccf532a	0.02530821
2	0x3cb91fae	0.022598114
3	0x3aba683c	0.0014221738
4	0x3caac05f	0.020843683
5	0xbc3783b3	-0.011200833
6	0x3b96251d	0.004582061
7	0x3cd4959e	0.02595025
8	0xbc606438	-0.013695769
9	0x3d156348	0.036471635
10	0xbc393a61	-0.0113054225
11	0x3cb5b146	0.022179257
12	0x3c433cb0	0.0119163245
13	0x3a8276ff	0.0009953676
14	0xbcdf5b31	-0.027265163
15	0xbd3c6b6e	-0.04600089
16	0x3cb87bed	0.02252003
17	0x3cb2007e	0.02172875
18	0x3c93dded	0.018050158
19	0x3d028936	0.031869136
20	0x3c845f36	0.016158681
21	0x3d648e0e	0.055799536
22	0xbd174203	-0.036928188
23	0x3d335a77	0.043787446
24	0xbc7a9d9c	-0.015296366
25	0xbc4c1a88	-0.012457497
26	0x3cc6caca	0.02426662
27	0xbc2f69d0	-0.01070638
28	0x3d045ae3	0.03231324
29	0xbbdd69f5	-0.006757016
30	0xbccb6ab9	-0.024831163
31	0xbd21c825	-0.039497513
32	0xbd051065	-0.03248634
33	0xbc82a89a	-0.015949536
34	0x3d37a532	0.044835277
35	0xbccf0dca	-0.02527513
36	0xbc95bdf5	-0.018279055
37	0x3d1f8457	0.03894457
38	0xbaad1896	-0.001320618
39	0xbd0b2dc8	-0.033979207
40	0xbc94f8db	-0.01818507
41	0x3c87f318	0.016595408
42	0xbc701640	-0.014653742
43	0x3b952a57	0.0045521664
44	0xbcfbd04b	-0.03073897
45	0xbd21716b	-0.039414804
46	0x3ca74954	0.020420708
47	0x3c4a5a78	0.012350671
48	0x3c6582c5	0.014008229
49	0xbd019e15	-0.0316449
50	0xbcc8a671	-0.024493428
51	0xbceab993	-0.028652942
52	0xbc8b6770	-0.017017096
53	0x3d3f37b4	0.046683982
54	0xbcdc9fb7	-0.026931627
55	0xbcbdf8e2	-0.023189966
56	0xbccce67f	-0.025012253
57	0xbd13427c	-0.035952076
58	0xbd3b7bb7	-0.04577228
59	0xbb7d23c9	-0.0038626066
60	0xbd1158c6	-0.03548505
61	0xbbfc2c4f	-0.0076957117
62	0x3d12af75	0.03581186
63	0x3ce9c9bd	0.02853858
64	0xbbf806cf	-0.007569171
65	0xbd4bc6c9	-0.049750123
66	0xbc33da6d	-0.01097737
67	0xbcd999b4	-0.02656255
68	0x3c1d826c	0.0096136145
69	0x3b97229d	0.0046122805
70	0xbd466416	-0.048435293
71	0xbd08a3b4	-0.033359244
72	0x3cad2e4d	0.021140242
73	0xbcc99ea6	-0.024611782
74	0xbcff5f6b	-0.031173429
75	0xbc80a9b9	-0.01570593
76	0xbc8ecefd	-0.017432684
77	0x3c3b6fba	0.011440212
78	0xbd298788	-0.04138902
79	0xbcded547	-0.027201308
80	0x3b1a55dc	0.0023549711
81	0x3c5e3cb1	0.013564275
82	0xbcd0730e	-0.025445487
83	0xbc692090	-0.014228955
84	0x3abd58f1	0.0014446062
85	0xbb9d3bee	-0.004798404
86	0xbb8a001b	-0.0042114384
87	0x3d111a8b	0.035425704
88	0x3c21e5ec	0.009881478
89	0xbc54acee	-0.012980683
90	0xbd2e79fd	-0.042596806
91	0xbc07504f	-0.008258893
92	0x3a127054	0.0005586196
93	0xbd3d5b2a	-0.04622952
94	0x3b767145	0.0037604135
95	0xbd47c51c	-0.048771963
96	0xbaab39bb	-0.001306347
97	0x3c83d0c7	0.016090764
98	0x3d379e02	0.044828422
99	0x3cad24d4	0.021135725
100	0xbce24351	-0.02761999
101	0xbc54b47b	-0.012982483
102	0x3d0e429b	0.03473149
103	0x3d3ed837	0.046592917
104	0xbd26a13f	-0.04068112
105	0x3d443b47	0.047908094
106	0x3ceb3ac3	0.028714543
107	0xbd3a3938	-0.045464724
108	0xbd2e62a6	-0.042574547
109	0xbb49b1c2	-0.0030776118
110	0x3d41c835	0.047310073
111	0xbd3f24b6	-0.04666587
112	0x3d436ce2	0.04771126
113	0x3ca07c32	0.019590471
114	0x3c507e28	0.0127253905
115	0x3bba28d2	0.0056811357
116	0xb6e08d15	-6.6921443e-06
117	0x3cab40a3	0.020904845
118	0x3c028a4e	0.007967545
119	0x3d011be5	0.031520743

network.2.weight f4 [84, 120]
0	0x3cf9ca7e	0.030492064
1	0xbc1675dc	-0.009183373
2	0x3d55e840	0.052223444
3	0xbda59dba	-0.080867246
4	0xbd410b02	-0.04712964
5	0xbdb7a168	-0.08966333
6	0xbab5a02b	-0.0013856938
7	0xbd97a6cf	-0.07404863
8	0xbc9a8a46	-0.018864762
9	0x3d4a1af5	0.049342114
10	0x3a44f526	0.00075133366
11	0xbd1c2343	-0.038119566
12	0x3d1a7df3	0.03771777
13	0x3ca56c9b	0.020193389
14	0xbbead7c3	-0.007166834
15	0xbd93a1f2	-0.07208623
16	0xbb96689f	-0.0045901085
17	0xbd0e0d66	-0.034680746
18	0x3b40c33f	0.002941325
19	0xbb051aea	-0.0020310231
20	0x3d5eb364	0.0543703
21	0xbb03fed4	-0.0020140903
22	0x3ca92b77	0.020650608
23	0x3c78d500	0.015187502
24	0xbd85729a	-0.06515999
25	0xbd9e53ab	-0.07730802
26	0xbcda4dfb	-0.026648512
27	0x3cf7e51f	0.03026062
28	0xbc3196a9	-0.010839143
29	0x3d4114ed	0.047139097
30	0x3ba38742	0.004990489
31	0xbd5fcc02	-0.054637916
32	0xbdac0349	-0.08399064
33	0x3d1bee4b	0.03806905
34	0x3da08378	0.07837576
35	0x3d051e7d	0.03249978
36	0xbd7cb2e2	-0.061694033
37	0x3d3835b7	0.0449731
38	0x3d964b9d	0.07338641
39	0xbd9d418b	-0.07678517
40	0xbdab2802	-0.0835724
41	0x3c775c59	0.015097701
42	0xbce25711	-0.027629407
43	0x3d9523d2	0.07282223
44	0xbd6d91be	-0.05800032
45	0xbb526eb4	-0.0032109441
46	0xbdb897ff	-0.09013366
47	0x3da76e37	0.08175319
48	0xbdb2f743	-0.08738568
49	0xbc8d7415	-0.017267266
50	0x3ca27ac8	0.019833937
51	0xbcc9c130	-0.024628252
52	0xbc0d698a	-0.0086311195
53	0xbd2073e8	-0.039173037
54	0x3c982b71	0.018575402
55	0xbc63b377	-0.013897768
56	0xbd3855d9	-0.045003746
57	0xbda1ed2c	-0.07906565
58	0xbd0bec5f	-0.034160968
59	0x3d2fd024	0.042923108
60	0x3da90395	0.08252636
61	0xbd8fe582	-0.07026197
62	0x3b778d82	0.0037773554
63	0xb9da05a8	-0.00041584414
64	0x3d3d1553	0.046162914
65	0xbd6b02bc	-0.057375655
66	0x3d2434cb	0.04008941
67	0xbc4fa225	-0.012672936
68	0x3cb2a4c7	0.021807088
69	0xbcfad82e	-0.03062066
70	0x3d873cb0	0.06603372
71	0xbd94bd69	-0.072626896
72	0x3da4bd24	0.08043888
73	0xbc0da908	-0.008646257
74	0xbd93346b	-0.07187732
75	0x3d84b862	0.06480481
76	0x3d8a3fad	0.067504264
77	0xbda43e75	-0.08019725
78	0x3d1a73e3	0.037708174
79	0xbd554031	-0.05206317
80	0x3ca67063	0.020317262
81	0x3d9f8a57	0.07790058
82	0xbd9c449c	-0.07630274
83	0x3d6a0d67	0.057141688
84	0xbd3575a6	-0.04430165
85	0xbce509c4	-0.027958758
86	0xbd9f03ba	-0.07764383
87	0xbd76c65d	-0.060247768
88	0xbd82c3f2	-0.0638503
89	0xbd0767cc	-0.033057973
90	0xbda4d4b2	-0.08048381
91	0x3d2f4462	0.042789824
92	0xbd06b61e	-0.032888524
93	0x3dab9768	0.08378488
94	0xbc260ae0	-0.010134429
95	0x3d4a41a6	0.049379013
96	0x3b86f49b	0.0041185147
97	0xbda75f5d	-0.08172486
98	0xbd4dbd03	-0.050229084
99	0xbcfad87f	-0.030620812
100	0xbd3e1e1d	-0.046415437
101	0xbb836aac	-0.004010519
102	0xbc67f046	-0.014156407
103	0x3d4ea960	0.050454497
104	0x3b026f8a	0.0019902908
105	0x3d8115a7	0.06302958
106	0xbd3927ba	-0.0452039
107	0xbc618174	-0.013763774
108	0xbd689956	-0.056786858
109	0xbcc41163	-0.023934072
110	0x3d5aedad	0.05344932
111	0xbd91695d	-0.071001746
112	0x3ccf7cfe	0.025328156
113	0x3dac0a5d	0.08400414
114	0x3cd5015d	0.026001627
115	0xbcb324fe	-0.021868225
116	0x3db3adc5	0.08773378
117	0xbdac9ccb	-0.084283434
118	0xbc4630a3	-0.012096557
119	0x3da7385e	0.08165048
120	0x3cf3771a	0.029719878
121	0x3d58ca7f	0.05292749
122	0x3d457aef	0.04821294
123	0x3d81180d	0.063034154
124	0xbccd7736	-0.025081258
125	0xbdaf3279	-0.08554549
126	0x3d96b9f7	0.07359689
127	0xbd2cc8ce	-0.04218369
128	0x3d8579b4	0.06517354
129	0xbbfac505	-0.007652881
130	0x3d7f5eb9	0.062346194
131	0xbd1d8187	-0.038453605
132	0x3d8ab6eb	0.0677317
133	0xbd1bd1f6	-0.03804203
134	0x3b7945bb	0.0038035947
135	0x3d52eecf	0.051497277
136	0xbd74d750	-0.05977565
137	0xbcce6d1b	-0.02519851
138	0xbd9b19f5	-0.0757331
139	0xbd532354	-0.051547363
140	0xbd2d921e	-0.042375676
141	0xbd8fb983	-0.070178054
142	0x3db099f7	0.086231165
143	0xbc8ad709	-0.01694824
144	0xbb9364c8	-0.004498098
145	0xbd06a66b	-0.032873552
146	0x3b97a764	0.004628109
147	0x3c602684	0.013681058
148	0x3d7a130c	0.06105332
149	0xbcb6823d	-0.0222789
150	0xbd95124f	-0.07278883
151	0x3d3ef8c2	0.046623953
152	0x3c809b52	0.015699062
153	0x3c52b1b1	0.012859748
154	0x3c84958e	0.016184594
155	0x3db30b30	0.08742368
156	0xbdaa405c	-0.08313057
157	0x3db9b693	0.090680264
158	0xbcce7425	-0.025201866
159	0x3cfb2857	0.030658884
160	0x3d0e73ce	0.03477841
161	0x3be85eca	0.007091378
162	0xbc831b8d	-0.016004348
163	0x3d547de6	0.05187788
164	0x3d05aeb7	0.032637324
165	0xbc99312a	-0.018700201
166	0xbd3ff7c5	-0.04686715
167	0xbd91b74f	-0.071150415
168	0xbcf72f64	-0.030173965
169	0x3d006adb	0.031351905
170	0xbcbf33cb	-0.023340126
171	0xbd01a08e	-0.031647258
172	0x3b67c90d	0.0035367638
173	0x3d12002e	0.035644703
174	0x3d0a4143	0.033753645
175	0xbcf69463	-0.030100053
176	0x3cf4bd10	0.029875308
177	0x3c2afe89	0.0104366625
178	0xbcf036f2	-0.029323075
179	0xbdad2968	-0.08455163
180	0x3d088a7a	0.033335187
181	0x3da320fe	0.07965277
182	0xbd394f0c	-0.0452414
183	0x3c6e0e42	0.0145297665
184	0x3c6a2f03	0.014293435
185	0xbdb05c64	-0.08611372
186	0x3daa56ce	0.08317338
187	0x3d8985c7	0.06714969
188	0xbd072811	-0.032997195
189	0x3d395b73	0.04525323
190	0x3d5b477c	0.05353497
191	0xbda2dd6a	-0.07952388
192	0x3caf707c	0.021415941
193	0xbd0e48e2	-0.034737475
194	0xbda8e0a8	-0.08245975
195	0x3b66478b	0.0035137858
196	0xbda57b68	-0.080801785
197	0x3d89d1b7	0.06729453
198	0xbd075b86	-0.033046268
199	0xbd80f8c8	-0.06297451
200	0x3bce8483	0.0063024177
201	0xbd522e63	-0.05131377
202	0xbd7c8812	-0.061653204
203	0xbd8a3a60	-0.067494154
204	0xbcce47cb	-0.025180718
205	0xbc679e34	-0.01413684
206	0xbda9fd29	-0.083002396
207	0xbcedbe0e	-0.02902129
208	0xbd1b3f99	-0.03790245
209	0x3da3f687	0.08006006
210	0xba7095c6	-0.00091775914
211	0xbaa513ad	-0.0012594365
212	0x3cdc1d7e	0.026869532
213	0xbca23fdc	-0.019805841
214	0x3c9e28ab	0.019306501
215	0xbd905fe2	-0.07049538
216	0xbdb2455c	-0.087046355
217	0x3caf3e7e	0.021392103
218	0x3da8d32f	0.08243405
219	0xbd517355	-0.05113538
220	0xbb125e8f	-0.0022334193
221	0x3cb75add	0.022382194
222	0x3dad2f12	0.084562436
223	0x3cdba91f	0.026814042
224	0xbbb0fea9	-0.0054014516
225	0x3c26a34f	0.010170772
226	0x3d9821e6	0.074283406
227	0x3d9af8a4	0.07566956
228	0x3d9bf650	0.0761534
229	0xbc8cfcd7	-0.017210407
230	0xbc262890	-0.010141507
231	0xbdaa3c03	-0.083122276
232	0x3d76ac26	0.060222767
233	0x3da63ef6	0.081174776
234	0xbdb669eb	-0.08906921
235	0x3b1e540f	0.002415899
236	0xbc4c6b30	-0.012476727
237	0x3ba24215	0.0049517252
238	0x3d2c6091	0.04208428
239	0x3d9caeac	0.076505035
240	0x3c9ab97e	0.018887278
241	0xbca0960f	-0.019602804
242	0xbd1fcf3b	-0.03901599
243	0xbc742e41	-0.014903606
244	0x3d5fa98a	0.054605044
245	0x3da8ca03	0.08241656
246	0x3c37a413	0.011208552
247	0x3d837733	0.0641922
248	0xbc73a9a4	-0.014871988
249	0x3cfad278	0.030617937
250	0xbcc195aa	-0.023630936
251	0xbb3f0463	-0.0029146902
252	0x3da35194	0.07974544
253	0x3b42d948	0.002973156
254	0x3c5051c3	0.012714806
255	0x3d87c347	0.06629043

network.2.bias f4 [84]
0	0xbd667b75	-0.05627008
1	0xbc864c64	-0.016393848
2	0x3c02ff0b	0.007995377
3	0x3d427d61	0.047482852
4	0x3d8e216d	0.06939969
5	0xbda46ff5	-0.080291666
6	0x3d2afd60	0.041745543
7	0xbc870091	-0.016479762
8	0x3d1ba3e6	0.037998103
9	0xbd615a6b	-0.05501787
10	0x3d968636	0.073498175
11	0x3daaa31e	0.083318934
12	0x3b9c9567	0.0047785523
13	0x3d9d0890	0.07667649
14	0x3db1625a	0.08661337
15	0xbc59b90a	-0.013288746
16	0x3cba1fd2	0.022720251
17	0xbd023cf2	-0.031796403
18	0x3cf7c02f	0.030243007
19	0x3d921909	0.07133681
20	0x3d941409	0.07230384
21	0xbd97ce98	-0.074124515
22	0xbd06dfea	-0.032928385
23	0xba1a9dd6	-0.0005898153
24	0xbcd52683	-0.02601934
25	0xbd8f673c	-0.07002112
26	0xbc45a31b	-0.012062813
27	0xbda54aef	-0.08070933
28	0x3d9ca9fb	0.07649609
29	0xbc0ba033	-0.008522081
30	0x3d22da46	0.039758943
31	0x3d50ca44	0.050974146
32	0xbd4de433	-0.050266456
33	0x3d6d3b7e	0.057918064
34	0xbd67f667	-0.056631472
35	0xbd05352f	-0.032521423
36	0xbda063ff	-0.07831573
37	0x3d015dd4	0.031583622
38	0xbc9dc162	-0.019257251
39	0xbda14d19	-0.07876033
40	0xbb72f54b	-0.0037072476
41	0xbbab7757	-0.0052327323
42	0x3d8575b6	0.06516592
43	0x3cd05ea4	0.025435753
44	0x3d0ac4b5	0.033879
45	0xbd7c5c09	-0.06161121
46	0xbd98e6ef	-0.07465922
47	0xbbf7e848	-0.007565532
48	0xbd8871e8	-0.06662351
49	0x3dafe3ea	0.08588393
50	0x3d74df3e	0.059783213
51	0xbd96f69b	-0.07371255
52	0x3db01006	0.08596806
53	0x3d458ca3	0.048229825
54	0xbd9f1b00	-0.07768822
55	0x3d6af58f	0.05736309
56	0x3d45e57e	0.048314564
57	0xbdb27e2e	-0.08715473
58	0x3db632ad	0.088963844
59	0xbd6573b5	-0.05601855
60	0xbd435cde	-0.047695987
61	0xbd610f41	-0.054946188
62	0xbd4e8b78	-0.050425977
63	0xbd4c0bc9	-0.049815927
64	0x3dad97f6	0.0847625
65	0xbcd9fba9	-0.026609259
66	0x3db9e7c4	0.09077409
67	0xbccb6504	-0.024828441
68	0x3d9e9763	0.077437185
69	0x3bd39f6f	0.006458215
70	0xbda7be26	-0.08190565
71	0xbd4ac5b8	-0.049504966
72	0xbce3d503	-0.027811533
73	0xbd1b4e01	-0.037916187
74	0x3d8d52a2	0.069005266
75	0xbd8280ff	-0.0637226
76	0xbd7d4ccb	-0.061840814
77	0x3bd6d0d4	0.006555656
78	0x3d2c93be	0.042133085
79	0xbda866c6	-0.082227275
80	0xbd625867	-0.05526009
81	0x3c9f7af5	0.01946781
82	0x3d836eb8	0.06417602
83	0xbd4d68d8	-0.050148815

network.4.weight f4 [21, 84]
0	0xbd05daeb	-0.03267948
1	0x3a42b5d3	0.00074276066
2	0x3d06317d	0.03276204
3	0x3b25c394	0.0025293576
4	0x3d8230c3	0.06356957
5	0xbd7f0b26	-0.06226649
6	0xbd6297bc	-0.055320486
7	0x3b0b3ceb	0.0021246027
8	0xbd7b115d	-0.061295856
9	0x3abbd371	0.0014329982
10	0x3dada109	0.08477981
11	0x3d8a83e9	0.06763441
12	0xbd8f250e	-0.069894895
13	0xbdadf210	-0.084934354
14	0xbdd0d250	-0.10196364
15	0xbdb1dcef	-0.08684718
16	0xbb443a67	-0.0029942037
17	0x3dc431ab	0.09579786
18	0x3de5d899	0.11222953
19	0x3dbee87a	0.09321685
20	0x3d490f01	0.049086574
21	0x3d073ac9	0.033015046
22	0x3d2dba6e	0.04241412
23	0xbdba7b2b	-0.09105524
24	0x3c56b106	0.013103729
25	0xbc9a0197	-0.018799586
26	0xbd26f358	-0.040759414
27	0x3d865714	0.065595776
28	0xbb3c3133	-0.0028715848
29	0xbdb9d61b	-0.090740405
30	0x3dbc6205	0.09198383
31	0xbcd56f5a	-0.026054073
32	0xbb75e177	-0.003751842
33	0x3de8b365	0.11362342
34	0x3dd1bb2a	0.10240777
35	0xbdbf6173	-0.09344759
36	0xbdd7bbd9	-0.10533876
37	0x3da34f8a	0.07974155
38	0x3d275dfc	0.040861115
39	0xbd1ddcd9	-0.038540695
40	0xbb32678e	-0.0027222368
41	0xbd0bc477	-0.03412291
42	0x3b88e832	0.0041780705
43	0xbd56b0c6	-0.052414678
44	0xbda83376	-0.082129404
45	0xbdb54921	-0.08851839
46	0x3d8daf81	0.0691824
47	0xbd2167b3	-0.039405536
48	0x3d11f79b	0.035636526
49	0x3db517f2	0.08842458
50	0xbd49b1ab	-0.049241703
51	0x3d7658eb	0.060143393
52	0xbd8343e0	-0.064094305
53	0xbd96c52d	-0.07361827
54	0x3dbca81b	0.09211751
55	0x3d1e6a79	0.03867576
56	0x3d069085	0.03285267
57	0xbcbbc1e7	-0.022919608
58	0x3dcc9c3e	0.09990738
59	0x3ca3926f	0.019967286
60	0x3dafb699	0.085797496
61	0x3cd57234	0.026055433
62	0x3cdf10ec	0.027229749
63	0x3cb1dee0	0.02171272
64	0xbd9946a9	-0.074841805
65	0x3d49d236	0.04927274
66	0xba8147f9	-0.0009863368
67	0xbd7d1f33	-0.061797332
68	0x3dbe4523	0.092905305
69	0x3d3f67c2	0.04672981
70	0x3d94de0d	0.07268915
71	0xbda55ed3	-0.08074727
72	0x3dc01866	0.09379654
73	0x3c6c1048	0.014408179
74	0x3d0ed429	0.0348703
75	0xbbf99907	-0.0076171192
76	0x3cecb651	0.028895529
77	0xbda855e5	-0.08219508
78	0xbcdec73b	-0.02719461
79	0x3ca605a5	0.020266363
80	0xbd378b6a	-0.04481069
81	0xbd8e9636	-0.06962244
82	0x3dde0749	0.10841233
83	0xbd832a2d	-0.06404529
84	0x3c1264be	0.008935152
85	0x3bde8b80	0.006791532
86	0xbd8d3cdc	-0.06896374
87	0x3db2103b	0.08694502
88	0x3dbb3c47	0.09142356
89	0xbdcdbb7a	-0.10045524
90	0xbd32b560	-0.043630004
91	0x3d7990fc	0.060929283
92	0xbd9a8e1d	-0.07546637
93	0xbbe51c9b	-0.0069919354
94	0x3dd56a5e	0.104206786
95	0xbd979572	-0.07401551
96	0xbd443d5b	-0.047910076
97	0xbdd7258f	-0.105052106
98	0x3aa1605f	0.0012312046
99	0x3ada7519	0.0016666978
100	0x3d4baade	0.0497235
101	0x3ce1bb6a	0.027555186
102	0xbc821da2	-0.01588327
103	0xbb6e0901	-0.0036321285
104	0xbcecb029	-0.028892593
105	0x3cf3134e	0.029672291
106	0xbd678c69	-0.05653039
107	0xbd264e15	-0.04060181
108	0xbc276557	-0.010217032
109	0xbd9c1eb2	-0.07623042
110	0x3dbac540	0.09119654
111	0x3dbc8455	0.09204928
112	0x3dc00c6a	0.09377368
113	0xbdb9061b	-0.09034368
114	0x3dd11d2e	0.10210644
115	0xbd1663a7	-0.03671613
116	0x3d278556	0.040898643
117	0x3d65c14d	0.05609255
118	0x3d314061	0.043274287
119	0xbdb0c2a5	-0.086308755
120	0xbd3dce0c	-0.04633908
121	0x3dd7ab16	0.10530679
122	0xbd001a6a	-0.03127519
123	0x3dd95909	0.10612685
124	0x3d4819a3	0.048852574
125	0x3de29c8c	0.11065015
126	0x3d94ac56	0.07259433
127	0x3db6e8e4	0.08931139
128	0x3b8a5034	0.0042209867
129	0x3dcffcb2	0.1015562
130	0xbcefdd89	-0.02928044
131	0x3c851547	0.016245497
132	0xbdd4e890	-0.1039592
133	0x3d20ed93	0.03928907
134	0xbd9fc29e	-0.07800792
135	0x3d813d86	0.06310563
136	0x3c2f1e13	0.010688323
137	0xbd0a2136	-0.03372308
138	0x3d49b0eb	0.049240988
139	0x3de97065	0.11398391
140	0x3dc9f06f	0.09860312
141	0xbd899a6e	-0.06718908
142	0xbda7087a	-0.08155914
143	0xbd34108a	-0.043961085
144	0x3d05a069	0.032623682
145	0x3db0d39d	0.08634112
146	0xbd8a9176	-0.06766026
147	0xbd22c6d2	-0.03974039
148	0xbce1069c	-0.027468972
149	0xbc265221	-0.010151417
150	0xbda8762e	-0.08225666
151	0xbcf9fe11	-0.030516656
152	0xbd9a58ac	-0.07536444
153	0xbc578bc6	-0.013155883
154	0x3dcbc0b8	0.099488676
155	0x3d53615c	0.05160652
156	0xbd8d20cd	-0.06891022
157	0x3d90e1a5	0.07074288
158	0xbd227167	-0.03965893
159	0x3cead7c6	0.028667342
160	0x3c4be177	0.012443892
161	0xbd71f218	-0.05906877
162	0xbd777813	-0.060417246
163	0x3d3e7dd9	0.046506736
164	0xbd41f21c	-0.047350034
165	0x3d21eedb	0.03953443
166	0x3d4dc7b4	0.05023928
167	0xbdc61eb5	-0.09673826
168	0x3d801a5c	0.06255028
169	0xbd1ecddb	-0.038770538
170	0x3d70647e	0.058689587
171	0xbda21aad	-0.07915244
172	0xbd83b850	-0.06431639
173	0x3ce34533	0.027742958
174	0xbd4c4153	-0.049866986
175	0x3cad4338	0.021150216
176	0xbca99a1e	-0.020703372
177	0xbd3d3004	-0.04618837
178	0xbd7b9d6c	-0.061429426
179	0x3d0851c5	0.033281107
180	0xbdb965c3	-0.09052613
181	0xbdb6df83	-0.0892935
182	0x3d9e0f1d	0.077177264
183	0xbd24af25	-0.040206093
184	0x3de083ca	0.10962637
185	0xbdbaf83a	-0.09129377
186	0x3d80af4d	0.06283436
187	0x3d2d433e	0.042300455
188	0x3d08ada7	0.033368733
189	0xbd3ddd4c	-0.046353623
190	0x3dc59124	0.09646824
191	0xbd502394	-0.05081518
192	0xbd059de1	-0.03262127
193	0xbd03913d	-0.032120932
194	0xbd99005c	-0.07470772
195	0xbda465d1	-0.080272324
196	0x3d508675	0.05090948
197	0xbbe19dbf	-0.00688526
198	0x3d39fff5	0.045410115
199	0xbdd768b1	-0.10518015
200	0x3d3071dd	0.04307734
201	0xbd5c91c7	-0.05384996
202	0xbd24f715	-0.0402747
203	0x3dd09aee	0.101858005
204	0x3d755658	0.059896797
205	0x3d98eeb2	0.074674025
206	0xbc98b2db	-0.018639972
207	0x3dc2b923	0.09507968
208	0xbdabe594	-0.08393398
209	0x3d76fa0a	0.06029705
210	0x3dc5a418	0.09650439
211	0x3da77503	0.08176615
212	0x3ca7d702	0.020488266
213	0x3c96fb2a	0.018430311
214	0x3dc7ea8a	0.09761532
215	0xbdce5cae	-0.10076271
216	0xbd7f5cb5	-0.06234427
217	0x3c49f57d	0.012326595
218	0x3cc5c370	0.024141043
219	0xbd5b74c2	-0.053578146
220	0x3d750f6e	0.059829168
221	0x3d8988a4	0.06715515
222	0x3d5a99ae	0.053369217
223	0x3dd4f3e1	0.10398079
224	0x3d0efbc9	0.03490809
225	0xbda460b4	-0.08026257
226	0x3cca0ec5	0.024665246
227	0x3d2401ff	0.040040966
228	0xbcb535c5	-0.022120366
229	0xbd7339b0	-0.059381187
230	0xbd6f9a30	-0.058496654
231	0xbd9829ae	-0.07429825
232	0x3cda3b44	0.026639588
233	0xbd513610	-0.05107695
234	0x3d874290	0.06604493
235	0xbc8fe866	-0.01756687
236	0xbd1446ce	-0.036200337
237	0x3dcbe93f	0.099565975
238	0xbd81944a	-0.06327112
239	0x3b60218f	0.003419969
240	0x3ae54452	0.0017491675
241	0x3cf0b3d3	0.029382622
242	0x3c841c9b	0.016126921
243	0x3d85ae7a	0.065274194
244	0xbc0fd016	-0.008777639
245	0xbd188f5c	-0.037246093
246	0xbdb6459f	-0.08899998
247	0x3cabea44	0.02098573
248	0xbd99e3c0	-0.07514143
249	0xbdc07e1d	-0.09399054
250	0xbdab6ce7	-0.08370381
251	0xbc536b38	-0.012903981
252	0xbdb1a12c	-0.08673319
253	0xbda05c30	-0.07830083
254	0x3c99f5d8	0.018793985
255	0xbdd39a82	-0.103322044

network.4.bias f4 [21]
0	0xbcd8c010	-0.02645877
1	0xbdca6408	-0.09882361
2	0xbd34ac5a	-0.04410968
3	0x3b949cb0	0.00453528
4	0xbd1b0b40	-0.037852526
5	0xbd64a73b	-0.055823546
6	0x3de5a838	0.11213726
7	0xbd2df50e	-0.04247003
8	0x3cf8fe59	0.03039472
9	0x3d426263	0.04745711
10	0xbc120be7	-0.008913971
11	0xbdbbdf41	-0.09173442
12	0x3dbd4be3	0.0924299
13	0xbdb10c7f	-0.086449616
14	0xbdb1326f	-0.086521976
15	0x3da4aca9	0.08040745
16	0xbcc800f2	-0.024414513
17	0x3d7b3082	0.061325558
18	0x3d4bf936	0.049798213
19	0xbdd05bb6	-0.101737425
20	0x3db35957	0.087572746
