pretrained/blue_agent_episode_200.pt (torch, 248522 bytes, 10 tensors)

cnn.0.weight f4 [5, 5, 3, 3]
00000000: 75d5 923d de9a f6bd ec12 d9bd 7a46 a2bd
00000010: 70db 63bd d946 0e3c 381b 693d aa9b 98bd
00000020: ce6d 123e b460 fb3d 0820 aebc cbb4 16be
00000030: 7e1e 11be a7e3 f73d f4c1 9fbb fbd0 a0bd
00000040: 40a1 3fbd fc6e d5bd bb8d 973c 7f66 f8bd
00000050: bfcd 0d3e 6c5d 6dbd ef46 2e3d 7f4e a5bc
00000060: dac2 693d 6071 b439 de9e b63d 475d de3d
00000070: 172d 1abd ab67 823c d0d5 953d 34d5 54bd
00000080: 72bf c03d a01d c93d 3125 b4bd 6083 03be
00000090: 7fa8 a0bd adba 16be 5b2b 53bd 24f6 ccbd
000000a0: b4d9 14be 7918 cbbd f832 c9bb 0c6d 45bd
000000b0: 5f75 853d bb12 99bc adca 823d 07b5 eebd
000000c0: 6a46 a8bc 1602 7bbc 160e 06be a160 a23d
000000d0: 9821 d6bc f55c b0bc 2c72 3ebd 1bd2 013e
000000e0: e55a a0bc 8ba6 f1bd 35f3 cabc 478d 76bd
000000f0: 95d6 e2bc be7b 1dbe 2d28 9a3c ce50 763d
00000100: 3329 123e 13b0 d43d 3b20 e0bd b1c3 693d
00000110: 150a 02bd f827 d4bd 3a89 ba3d 5bdd 923d
00000120: 920b 9fbd c51c da3d 2211 1abe 3dfb fdbc
00000130: f7c6 be3d 8809 0fbe 38fa e5bd 860d 8b3d
00000140: 2d9e 9dbd 02c4 f4bd c2a9 c1bd 5c33 073c
00000150: 5f89 633d 1089 1bbe 01f5 4b3b f791 e5bc
00000160: a954 b1bd 161c b53d afcc 03be 2c74 543c
00000170: 5a18 26bb f30c 0dbe a266 62bc e623 febd
00000180: 8943 abbd fa54 88bb 864c b8bd 0090 b3bd
00000190: 6289 0dbe 9d81 fbbd 1501 15be 085c b03d
000001a0: 6d80 6b3d 9e7c 0b3e c6cd c13d 190d dfbd
000001b0: 1016 e8bd 29fa 03bd 481e eebd 3b9a bf3c
000001c0: e13f 85bc 0dba 77bd 667f 953d 7311 7f3d
000001d0: 45f5 843c aedd 9e3d d815 0d3e 1101 653d
000001e0: 4ec2 a03d c71f b5bd 6dab 5a3d 6aa2 e5bc
000001f0: 5f30 e93d d380 abbc 5a94 5c3d 6474 d1bd
00000200: ab90 e93d a91d fd3c 7b35 b83d aadb 59bd
00000210: f91f d83d 3e60 a23d 49d3 8d3d 7d84 7bbd
00000220: 00a9 ccbd 738e 9dbd d845 753d 4e08 4ebc
00000230: 64a3 a43d 89a9 883d a53e c1bd 628b a93d
00000240: a38b 0cbe f5a0 7dbd acd3 c8bc f762 c53d
00000250: 9e09 3ebd 22f1 bc3d b8e5 6c3d bff5 3a3c
00000260: b289 dcbc 6a69 ff3c 11a7 0cbe 147a 523d
00000270: 4ba3 29bd 3aca d9bd bc31 6d3d c9da e33c
00000280: 54f2 ed3d a2c7 123e 7594 113e 2276 68bd
00000290: 5fab e23d 312b 513c d4d5 fabd 9376 abbd
000002a0: dd8d bc3d 8a87 f73c cd95 083e 66bc 683c
000002b0: c022 1e3d 2347 8d3d f340 1dbd 112b 30bd
000002c0: 57ed a3bd 638d fc3d e31c 0d3e c9c1 003e
000002d0: 3e9d ed3d 5139 96bd ead6 dd3d 7261 1b3e
000002e0: fe2b 84bd a4da 0abe 4aaa 163e 8dfc 103e
000002f0: 0090 e33c a50e b03d 80c4 60bd 7e23 0abe
00000300: 60ec b3bc 892b 01be f4cf d43d 8d6e 65bd
00000310: 0aaf 083e 9aca 583c 17a7 e83d 8721 7fba
00000320: 91c9 9f3c 7364 e43b ef08 cf3d 166b 4fbd
00000330: b23f d03d 49fa 743c 3219 a53d 401b 203e
00000340: bbe8 fc3b 02cd d93c d6a4 15bd 9261 a83d
00000350: b904 243e 35cb 113c 239e 1e3c 4132 67bc
00000360: 9f2f e7bd 40ef 173e 94fc 0dbe 3e7e 06be
00000370: 6c69 fdbd 7b59 643d 8f46 7dba 0b0c 5e3d
00000380: 6641 e239
0.0716962 -0.12041257 -0.10599312 -0.079235986 -0.055629194 0.008683884 0.056910723 -0.074515656
0.142997 0.12274304 -0.021255508 -0.14717405 -0.14171788 0.12103968 -0.004875416 -0.0785236
-0.04678464 -0.10421559 0.0185002 -0.121289246 0.13848017 -0.057950422 0.042548116 -0.020179031
0.05707059 0.00034416746 0.0891702 0.10857635 -0.037640657 0.015918573 0.07316172 -0.05196114
0.09411515 0.09820104 -0.08796156 -0.12843084 -0.07844638 -0.14719649 -0.05155502 -0.10007885
-0.14536172 -0.09916777 -0.006140109 -0.0481997 0.065165274 -0.01868569 0.063863136 -0.11655622
-0.020541389 -0.015320322 -0.13091311 0.07928587 -0.026139066 -0.0215287 -0.0464956 0.12677805
-0.019574592 -0.11799344 -0.024774173 -0.060193326 -0.027690211 -0.15379235 0.018817985 0.060135655
0.14273529 0.10385146 -0.109436475 0.05707139 -0.031747896 -0.10359186 0.09108205 0.071711265
-0.07765879 0.106500186 -0.15045598 -0.031003589 0.09315293 -0.1396848 -0.11229366 0.06789689
-0.07696185 -0.11951448 -0.09456207 0.008251991 0.05555093 -0.15189004 0.0031121376 -0.028023703
-0.08658726 0.088432476 -0.1287105 0.012967151 -0.0025344105 -0.13774471 -0.013818415 -0.12409191
-0.08362491 -0.0041605206 -0.08998971 -0.087677 -0.13821939 -0.12280581 -0.14551194 0.086113036
0.057495523 0.13621756 0.09463076 -0.1089117 -0.11332333 -0.032220993 -0.116268694 0.023388973
-0.016265811 -0.060480166 0.0729969 0.0622725 0.016230235 0.07757126 0.13777864 0.05590922
0.07849561 -0.08843952 0.05338614 -0.028031547 0.11386179 -0.020935452 0.053852417 -0.10227278
0.11404546 0.030897932 0.089945756 -0.053188004 0.10552973 0.07928513 0.06925065 -0.061405648
-0.09993172 -0.07693186 0.05988106 -0.012575222 0.08038977 0.06672961 -0.094357766 0.08278538
-0.13725142 -0.06192108 -0.024514996 0.09638017 -0.04639589 0.0922568 0.057836264 0.0114111295
-0.026921127 0.031178195 -0.13735606 0.051385954 -0.041415494 -0.10634275 0.05790876 0.027814286
0.11618486 0.14333966 0.14216788 -0.056753285 0.11067843 0.012766645 -0.12247816 -0.083722256
0.09206746 0.030215997 0.13338394 0.014205074 0.03860736 0.06898334 -0.03839202 -0.04300982
-0.08004253 0.12331655 0.1378055 0.12573923 0.11602257 -0.07335151 0.10832007 0.15173891
-0.06453703 -0.13559967 0.14713398 0.1415884 0.027778625 0.08596543 -0.054874897 -0.13490102
-0.021963298 -0.12614264 0.103912264 -0.056013633 0.13348022 0.013231898 0.11359995 -0.0009732474
0.019505294 0.0069699823 0.10109126 -0.050639234 0.10168399 0.014952251 0.08061446 0.15635395
0.0077181733 0.026587013 -0.036534153 0.08221735 0.16017427 0.008898546 0.009681257 -0.014111103
-0.1128838 0.1483736 -0.13865882 -0.13134095 -0.12373623 0.055749398 -0.0009661698 0.054210704
0.00043154805

cnn.0.bias f4 [5]
00000000: e4bc be3c 65f6 bf3d 95bb dc3c ac9a 44bd
00000010: ce87 d2bd
0.02328343 0.09373168 0.026944915 -0.04799907 -0.10279809

cnn.2.weight f4 [5, 5, 3, 3]
00000000: 9965 18bd 0eae e8bd fca7 f53d 8aab b0ba
00000010: 8ea7 8e3d e660 9e3d 1785 c83c e59f f3bd
00000020: ba27 a43c bf63 14be 0954 93bd b8ef 013e
00000030: 9ada 033d 6dbc 5ebd 4434 063e 1ee9 b9bc
00000040: 204a 193e 0db2 0f3e 532e bbbd 53e7 093d
00000050: feda 3fbd b72d b53d 8820 10be 61c5 47bc
00000060: ffb1 b43d e69e d6bd 39df c9bd 3b60 aebd
00000070: d600 8d3d 3314 7fbd f004 96bd 0b6d 9a3d
00000080: f2e1 083c d505 73bd effb 933c ce13 f63d
00000090: f35c a6bd 6430 963d c2be d5bc f42f e33d
000000a0: 3f10 df3d 251c 0dbe 2235 3d3d 36db cfbd
000000b0: 2af2 3abd c76e 11bd 2c4d 7d3d 932d d83c
000000c0: dec4 fdbd 0f0d b53d 80e3 9d3d e294 2dbd
000000d0: 45f3 f2bd 725c fb3d 28bf 03be c015 f2bd
000000e0: 943d fd3c af17 93bd e7ad 3b3d e8d3 fdbd
000000f0: c74d a4bd f3d8 113e aa2e 1a3e f6e9 023e
00000100: a056 acbd 397d ca3d 22b4 edbd 61c3 c83d
00000110: f8ec b3bd 0a85 eb3c cef9 18bd 3a4a ca3c
00000120: 3f85 523d 116f 8f3d c201 f4bd 3fba 00be
00000130: 0199 9ebd 5b3d d4bd 816f 2a3c 6885 56bd
00000140: af97 a43c 88e1 67bc 1162 8d3d bd8d 813d
00000150: 1795 013e 6d51 283e 7f36 68bd 6acb 353c
00000160: 82b0 0f3d 6b49 0f3e e49f 203d 019a 163e
00000170: 262c 3d3b 508c dd3d 75c0 b0bd 2d53 123d
00000180: 7c18 c1bd ea0d 00be dfad a33c c394 e8bd
00000190: 3114 00bd 26d9 a63d de58 de3d ade3 d2bd
000001a0: 3b23 d93d be78 b03d 15d0 e7bd 9679 64bc
000001b0: 7092 85bd 6b78 e0bd 6644 11bd 3f4b 623d
000001c0: e806 603d 4b4c 00be 3311 303d 1bb2 813d
000001d0: f3ea fabd 7db6 073c 87ff e83c bdee d6bd
000001e0: 7b3b d0bc b258 0f3e 80cf c23d 6051 8b3d
000001f0: 3661 68bc adf1 193e 4158 12bd e1db cabd
00000200: 114c 123e 1915 6f3d aa09 7ebd 67fc b33d
00000210: ec20 213e f124 d93d a684 d83d b409 2fbd
00000220: 0563 21bd 6ef3 efbd 96ad d53d 5fbe a43d
00000230: 590d 873d 418b b3bc c41b 7d3d 5be8 9bbd
00000240: fa95 333d 307c 4c3d 7821 0fbe e2c0 2b3d
00000250: b23b e7bd 8d07 0dbe 766a 973d d58d ba3d
00000260: 9500 ea3d 2c94 b63c 8143 9bbd 898b 0d3d
00000270: d888 dd39 bd59 d53d 1f6e c8bc b4c5 eb3d
00000280: 0c9e c4bd 7b75 0ebe adac 453d 2eed bd3c
00000290: 47e7 fd3d 28d5 2e3d ccf4 fd3d e78f 8abd
000002a0: 6061 44bd a257 8fbd 8e4c 803c 60b5 fcbd
000002b0: c8f8 003e 1528 193e 32d7 2e3c 80e7 d6bc
000002c0: 323a f53d 61c5 a93d f26e 9bbd 2bf4 bdbc
000002d0: c409 943d 8211 b2bd 2168 45bd e5f8 f6bd
000002e0: 15db b13d 5144 fabd 76db b3bc cd7c 153e
000002f0: 0915 e33d 45c1 1c3e 8a9f 2a3d e810 793d
00000300: f140 193b eb37 85bd 0c78 f13d b125 9f3b
00000310: 95d2 3dbd 0b94 dbbd 6609 a33d be1c afbb
00000320: fe0d b93d 17b1 c73d 6fd5 c63d 433a e6bd
00000330: d3eb 8e3d 8e36 723b 52c4 2dbc 836c a43c
00000340: 238a d33d 6ca7 c1bd 3a2f 8b3d 95bd ce3d
00000350: ffdf b63d d17f d03d 838b cbbd 8245 97bd
00000360: 0753 053d 2911 4cbc 8776 183d b591 193e
00000370: b16c e33d a82e 043d abbf 713c 5136 0abe
00000380: 67d5 923c
-0.037206266 -0.11361323 0.11994931 -0.0013478857 0.06965552 0.07733326 0.024477525 -0.11895732
0.020038474 -0.14491175 -0.07193763 0.12689102 0.032190897 -0.054378916 0.13105875 -0.022694167
0.14969683 0.14032765 -0.09139695 0.033667874 -0.046839707 0.0884661 -0.1407491 -0.012193055
0.088230126 -0.10479526 -0.098570295 -0.08514448 0.06884925 -0.062275123 -0.073251605 0.075403295
0.008354651 -0.059331734 0.018064467 0.12015496 -0.081231974 0.073334485 -0.026091937 0.11093131
0.108917706 -0.13780268 0.04619325 -0.10149233 -0.045641102 -0.035506036 0.061841175 0.026388919
-0.12391065 0.08840381 0.07709408 -0.042378314 -0.11862806 0.12273492 -0.12865889 -0.11820555
0.030913152 -0.07182252 0.045820143 -0.123939335 -0.08022647 0.14242916 0.15056863 0.12784562
-0.0841496 0.098871656 -0.11606623 0.098028906 -0.087854326 0.028749961 -0.037347607 0.024693597
0.051396605 0.07003606 -0.11914398 -0.12571047 -0.07744027 -0.10363265 0.010402561 -0.05237332
0.02009186 -0.014152892 0.0690347 0.063258626 0.1265453 0.16437311 -0.056692597 0.011095861
0.03508044 0.1399285 0.039214984 0.14707185 0.0028865426 0.10817778 -0.08630458 0.035723854
-0.09428498 -0.12505308 0.01998037 -0.11356499 -0.031269256 0.081468865 0.10856794 -0.10297332
0.10602423 0.0861678 -0.113189854 -0.013945004 -0.06522071 -0.10960468 -0.03546562 0.05524754
0.054694086 -0.12529103 0.042985152 0.06332799 -0.12251844 0.008283255 0.028442157 -0.104947545
-0.025418987 0.13998678 0.09512234 0.068026304 -0.014183333 0.15033598 -0.035728697 -0.0990522
0.1428683 0.05836973 -0.062020935 0.08788376 0.15735215 0.10602749 0.10572176 -0.042733863
-0.039401073 -0.117163524 0.104334995 0.08044123 0.06594343 -0.021916987 0.061794057 -0.07612678
0.0438442 0.049923122 -0.13977611 0.041931994 -0.11290683 -0.13772412 0.07393353 0.091090836
0.11425892 0.02228745 -0.07581235 0.0345569 0.0004225436 0.10417507 -0.024466572 0.11512318
-0.096004575 -0.13912003 0.04826038 0.023184385 0.12397628 0.04268375 0.12400207 -0.067657284
-0.047944427 -0.069991365 0.015661504 -0.12339282 0.12594903 0.14956696 0.010671424 -0.026233435
0.119739905 0.082896 -0.075895205 -0.023187717 0.07228425 -0.086947456 -0.04819501 -0.120591916
0.08684365 -0.122200616 -0.021955233 0.14598389 0.110879965 0.15308101 0.041656055 0.06080714
0.0023384655 -0.06504806 0.11790475 0.004856788 -0.046343405 -0.10721596 0.07960777 -0.0053440025
0.09035872 0.09750574 0.09708678 -0.11241581 0.06978574 0.0036958787 -0.010605888 0.020071274
0.10329082 -0.09455761 0.06796117 0.10094754 0.089294426 0.10180629 -0.09938719 -0.073863044
0.032549884 -0.012455263 0.03722241 0.14996989 0.111047156 0.032271057 0.01475517 -0.13497283
0.017924024

cnn.2.bias f4 [5]
00000000: 1f9b 94bd dd5e 1e3e 2dab d73d 7742 d3bd
00000010: e733 acbc
-0.072561495 0.15465875 0.10530696 -0.103154115 -0.021020843

network.0.weight f4 [120, 405]
00000000: e6a8 abbb a3dd c73c c64e 49bc bce9 79bc
00000010: 30dc 933c 3f53 32bd 684e 0cbd e1b5 45bd
00000020: 6fab 62bb 26c3 f53c 2345 053d 92d3 06bd
00000030: 75ab bcbc 30af 2e3c ccee 07bd 9cb1 933c
00000040: fd9c 273d 90eb 313d 03e0 ec3c 31ca 16bc
00000050: 097f 12bd 5317 43bd 8134 e9bb 5786 0dbd
00000060: 21d4 29bd 370a bd3c f243 4cbd 123d 2b3d
00000070: f006 be3b 7757 253d 771f d1bc 0569 443d
00000080: d8aa 08bd d9fd df3c a445 f43c 3d6f 393d
00000090: b16c 06bd f244 29bc 849b 9abc 57cc cd3c
000000a0: 2d84 253d fbe2 cd3b 06b9 91bc 3fbc 273d
000000b0: 77af 0dbd 4721 d93c a3fc 133d 4b15 27bd
000000c0: 68ce 02bb 2795 d73b b227 bf3c 8822 2e3d
000000d0: e024 e63b 5a74 ca3b a135 1b3c 0c6d 29bd
000000e0: 5ec6 3b3d ecfd f53b a3ad 4a3d 6ddb cd3c
000000f0: 77f4 a63c 6ff1 9c3b 5314 1a3d 658b e33c
00000100: 41b3 49ba 8af1 1dbd a4ba f7bb 6875 dd3c
00000110: c7d7 1abd ca90 b5bb 9c9f e03c fdde ed3c
00000120: b256 adbc 8535 89bc bb74 be3b f368 3b3b
00000130: 5712 5d3c dd24 283d bb6e 353d 9a05 2f3d
00000140: 04c3 743c 062e 223d f6f3 653c 3e3a 373c
00000150: 6027 17bd 686c dbbc d610 a7bc 563e 17bd
00000160: 02f6 e6bc 4f18 17bd 1aab 8c3c 9519 ecbc
00000170: bc59 b23c da12 003c b17b 203c df5f 053d
00000180: 629a c43c 1f04 813b eecf 48bd e7a2 ee3b
00000190: e317 27bd b2ce 17bd 56c0 083d a529 fabc
000001a0: e3e2 8c3c 93b9 d5bc 5137 d83c ea65 283d
000001b0: e9df 913b 4f12 163c 1871 1d3d b122 83bb
000001c0: a0bb fdba abf9 863c ddbe 30bd 8cea b13c
000001d0: 45b6 c9bc ad71 f83c 6bab 483d feb9 04bd
000001e0: 2df8 4a3c f916 193d 084f 183d 02bb c9bc
000001f0: ffdd d9bb c289 1dbd 0bc1 27bd e521 223d
00000200: 1efc 513b 30cf b8bc 96e8 673c 5f02 ffbc
00000210: 44a9 44bd fd43 8a3b 2f2c 0abd 14cf 12bd
00000220: 4853 763c 6b81 dc3b a629 9b3c 3a12 29bd
00000230: bdf4 aa3b 2d89 e6bc 7cd4 383c 5408 7d3c
00000240: b751 1c3c fb37 aa3c 743a bb3c 6c02 dfbc
00000250: e4eb a3bc 6aae febc d872 a93c 78d1 fcbc
00000260: e9f2 5c3c 3350 a7bc c3b5 57bc c8c3 eabb
00000270: 4c01 08bd 1a7c 1a3d caf3 97bb 4304 463d
00000280: 423e 9c3a 5e87 993c 1cbb d13c 6afb 083d
00000290: db41 463d e7c2 893c fd85 2b3d 9e24 993b
000002a0: a9f3 d9bc 1300 c9bc cbab dfbc b0a8 8f3c
000002b0: 3970 bbbc 60f1 983b d6df 2ebc 5f7c 80bc
000002c0: fa49 ab3c d4d7 e0bc 4d28 483d 47b6 813c
000002d0: 818b bbbc 8f6d ac3c ecc6 263d 41ff c8bc
000002e0: d843 cf3c cc9d a23c f1d5 1fbd 769e b6bc
000002f0: 3835 843c d3d0 25bd 1743 263d 5d19 33bd
00000300: b3b4 43bc 8334 d73c 9e9f 1ebb 792b f93c
00000310: 8b92 3fbd 33c2 08bb 2699 2ebd 7fb7 e9bc
00000320: 7a80 06bd b500 393d 9940 dbbc a4d1 3c3d
00000330: d87f 21bd 1a26 08bd 7edc ae3c 19c1 1b3d
00000340: 8b22 903c b46a abbc 220c 23bd 1f30 3f3d
00000350: 982a 6f3c bea2 433d 56ae 60bc df3a 3d3d
00000360: dbf1 3e3b e208 2abd 7d05 24bd 1a30 6eb8
00000370: ea6f 29bd 469e ee3c ebd4 0aba 2e38 f43c
00000380: 3689 cd3c e2bd 4a39 d0e6 b7bc 9d33 44bd
00000390: 1666 253b d983 d0bc 3748 f53c 5212 24bc
000003a0: 3fda d33c 324e c93c 00b8 1ebd 81f4 cc3b
000003b0: 1f92 233c 047d 3f3d dac3 10bb 6c23 0c3d
000003c0: e0c0 6e3b 49c9 b53c 69a9 11bd b54e 68bc
000003d0: cddf f93c 9a18 87bc 549d 13bd 1c31 9b3c
000003e0: b0ae 3dbd 0100 2fbd 74f4 403d c191 ffbc
000003f0: 1463 c33b d16b 963c 7e4d 9d3b 3efe 44bd
-0.00523864 0.024397677 -0.012286847 -0.0152534805 0.01804933 -0.04353642 -0.03425446 -0.048269156
-0.0034587046 0.03000028 0.032536637 -0.032916613 -0.023030976 0.010661885 -0.03318672 0.018029027
0.0409212 0.04343754 0.02891541 -0.00920348 -0.03576568 -0.047629666 -0.0071168547 -0.034551945
-0.041462068 0.02307616 -0.049869485 0.041806288 0.005799167 0.040366616 -0.025527699 0.047951717
-0.033366054 0.027342724 0.029818363 0.0452721 -0.0328185 -0.010331379 -0.018872984 0.02512185
0.040409256 0.0062831617 -0.017788421 0.04095101 -0.034591164 0.026505126 0.036129605 -0.04079179
-0.0019959453 0.0065790596 0.023334358 0.0425134 0.007023439 0.006178421 0.009473235 -0.04136376
0.045843475 0.0075070765 0.049482 0.025129044 0.020380242 0.0047895233 0.03761704 0.02777643
-0.00076942524 -0.038560428 -0.007560091 0.027033523 -0.037803438 -0.005540942 0.027419858 0.029036993
-0.021159504 -0.016749153 0.005812255 0.002859649 0.013493142 0.04105078 0.044295054 0.04272995
0.0149390735 0.039594673 0.014035216 0.01118332 -0.036902785 -0.02678509 -0.02039377 -0.036924683
-0.028193478 -0.036888417 0.017171431 -0.028820792 0.021771304 0.007816995 0.009795115 0.032562133
0.023999397 0.003937259 -0.049026422 0.007282603 -0.040794265 -0.037062354 0.03338655 -0.030537436
0.017198032 -0.026089465 0.026393564 0.041112818 0.004451741 0.009159639 0.038437933 -0.0040019383
-0.0019358285 0.016476473 -0.04315077 0.021718286 -0.024623046 0.030327642 0.048991602 -0.03240394
0.012388271 0.037375424 0.037184745 -0.024625305 -0.0066487784 -0.038461454 -0.040955584 0.039583106
0.0032041143 -0.022559732 0.014154574 -0.03112906 -0.048012987 0.0042195306 -0.033733543 -0.035842016
0.015034504 0.006729295 0.018940758 -0.041277148 0.0052171634 -0.028141582 0.011281129 0.01544388
0.009540967 0.020778647 0.022855021 -0.027222835 -0.020009942 -0.031089026 0.020684645 -0.030861601
0.013485649 -0.020423984 -0.013165894 -0.007164452 -0.03320436 0.03771601 -0.004637216 0.048343908
0.001192041 0.018741306 0.025601916 0.033442892 0.04840265 0.01681657 0.041875828 0.0046735546
-0.026605444 -0.024536168 -0.027303597 0.017536491 -0.02288066 0.004667446 -0.010673484 -0.015684305
0.020909298 -0.027446665 0.04886656 0.015833987 -0.02289367 0.021048335 0.04071705 -0.024535777
0.025300905 0.019850634 -0.03902239 -0.022292357 0.016138658 -0.040482353 0.040591326 -0.04372536
-0.0119449375 0.026270157 -0.0024204026 0.030416237 -0.046770614 -0.0020867705 -0.042626522 -0.02852988
-0.03283737 0.04516669 -0.026764201 0.046098366 -0.039428562 -0.03323946 0.021345373 0.03802595
0.017594596 -0.020924903 -0.039806493 0.04667675 0.0145975575 0.047762625 -0.01371344 0.046198722
0.0029135856 -0.041512378 -0.040044297 -5.678842e-05 -0.041366495 0.029128205 -0.00052960095 0.029811945
0.025089841 0.00019334958 -0.022448927 -0.047900785 0.002523785 -0.025453495 0.029941661 -0.0100141335
0.025860904 0.02457342 -0.038749695 0.006254733 0.009983568 0.046750084 -0.0022089393 0.03421347
0.003643088 0.022190707 -0.035561953 -0.0141789215 0.030502224 -0.016491223 -0.03603871 0.018944316
-0.046309173 -0.042724613 0.04710813 -0.03119743 0.005962739 0.018361958 0.0048004976 -0.048094027

network.0.bias f4 [120]
00000000: 4950 883c 5019 d23c 9d46 b93c c665 683b
00000010: 44db a93c c6f4 35bc 31bd 8e3b 5690 e23c
00000020: a64e 63bc 63f7 233d e45a 2dbc 96a1 b53c
00000030: 8e7e 653c 0f13 803a 9439 d7bc fb87 3bbd
00000040: c250 b23c 6cf5 b13c 8c6e b33c 89e7 0f3d
00000050: 0884 7c3c bf9b 6e3d 231e 09bd 94bd 3a3d
00000060: bf6c 77bc 363e 4cbc 0174 c63c 384e 28bc
00000070: 745b 0f3d 91e1 91bb feca c3bc 31c8 21bd
00000080: 8326 07bd 606c 82bc fcbb 363d f8b3 cfbc
00000090: 35e5 78bc 7bca 1c3d c513 c7ba 2c43 0abd
000000a0: 3f5e 8cbc 45dc 853c 17a9 4ebc e324 e73b
000000b0: d451 ffbc 5ca7 08bd d6e2 b43c 10d5 403c
000000c0: 04b5 823c f79d 01bd 4423 b1bc 680f c8bc
000000d0: f035 8bbc 45b6 3d3d adfa d8bc 6746 a2bc
000000e0: 0d6b cdbc 6cd7 12bd 9265 3bbd 2e04 85bb
000000f0: a332 11bd 4059 dfbb cf15 1d3d 4ce9 e83c
00000100: 9ce7 e6bb 4265 4bbd 9e49 33bc 4d9a d2bc
00000110: 4949 103c 0eb3 8f3b 82c0 47bd 5bcd 08bd
00000120: 815a cc3c eea4 bebc b684 ffbc 3349 80bc
00000130: 207d 8fbc 7bff 5b3c 8121 2abd 4f70 debc
00000140: 6d57 863b 08d3 843c 088b d3bc f1da 4abc
00000150: 4d33 a83b da38 9dbb ce8c a5ba 16d5 1a3d
00000160: 9e33 223c d11f 52bc 2381 2abd bb05 eabb
00000170: 7ce1 0a3a 9534 3fbd 8299 ca3b 00fe 48bd
00000180: 4f1e b5ba 4967 833c 9733 3b3d 8629 ad3c
00000190: c14f e3bc 7bb4 54bc 375f 0d3d 183c 483d
000001a0: f169 1bbd 7475 4f3d 0a26 ea3c 5f46 3bbd
000001b0: 84bf 27bd db9e 67bb 6e4d 493d 79df 3fbd
000001c0: 3365 523d 3c73 b63c d722 523c e75a b73b
000001d0: 937b c1b8 f20f a93c ea60 293c 9402 093d
0.016639845 0.025646836 0.022616679 0.0035461052 0.020734437 -0.011105722 0.0043560495 0.027656715
-0.013873732 0.04003085 -0.010580752 0.022171777 0.014007224 0.0009771305 -0.026272573 -0.045783978
0.021767024 0.021723472 0.021903299 0.03513292 0.015412338 0.058254 -0.033476006 0.045590952
-0.015101611 -0.012466004 0.024225237 -0.010272555 0.034999326 -0.0044519384 -0.023900505 -0.039497558
-0.032995712 -0.015920818 0.04461287 -0.02535437 -0.015191366 0.038279038 -0.0015188387 -0.033755466
-0.017134784 0.016340384 -0.012613556 0.007053958 -0.031166948 -0.03336273 0.02208082 0.011769548
0.015955456 -0.031644788 -0.021623261 -0.024421409 -0.016993493 0.046316404 -0.026486719 -0.019808961
-0.02507546 -0.035849974 -0.045751162 -0.004059336 -0.03544868 -0.0068160594 0.038350876 0.028431557
-0.007046653 -0.049657114 -0.010942845 -0.025708342 0.008806535 0.0043853587 -0.048767574 -0.033398967
0.0249455 -0.023272004 -0.031191211 -0.015659904 -0.017515719 0.0134276105 -0.041535858 -0.027153162
0.0040997774 0.016213909 -0.025823131 -0.012381301 0.0051330687 -0.004798037 -0.0012630464 0.03780087
0.009900002 -0.012824968 -0.04162706 -0.0071417964 0.0005297882 -0.046681006 0.0061828503 -0.04907036
-0.0013818237 0.016040461 0.045703497 0.021137964 -0.02774799 -0.012982483 0.034514632 0.048885435
-0.03794283 0.05064912 0.028582592 -0.045721408 -0.040954128 -0.0035342488 0.04914611 -0.04684398
0.051366042 0.022271745 0.012825689 0.005595553 -9.225975e-05 0.020637486 0.0103380475 0.033449724

network.2.weight f4 [84, 120]
00000000: 7eca f93c dc75 16bc 40e8 553d ba9d a5bd
00000010: 020b 41bd 68a1 b7bd 2ba0 b5ba cfa6 97bd
00000020: 468a 9abc f51a 4a3d 26f5 443a 4323 1cbd
00000030: f37d 1a3d 9b6c a53c c3d7 eabb f2a1 93bd
00000040: 9f68 96bb 660d 0ebd 3fc3 403b ea1a 05bb
00000050: 64b3 5e3d d4fe 03bb 772b a93c 00d5 783c
00000060: 9a72 85bd ab53 9ebd fb4d dabc 1fe5 f73c
00000070: a996 31bc ed14 413d 4287 a33b 02cc 5fbd
00000080: 4903 acbd 4bee 1b3d 7883 a03d 7d1e 053d
00000090: e2b2 7cbd b735 383d 9d4b 963d 8b41 9dbd
000000a0: 0228 abbd 595c 773c 1157 e2bc d223 953d
000000b0: be91 6dbd b46e 52bb ff97 b8bd 376e a73d
000000c0: 43f7 b2bd 1574 8dbc c87a a23c 30c1 c9bc
000000d0: 8a69 0dbc e873 20bd 712b 983c 77b3 63bc
000000e0: d955 38bd 2ced a1bd 5fec 0bbd 24d0 2f3d
000000f0: 9503 a93d 82e5 8fbd 828d 773b a805 dab9
00000100: 5315 3d3d bc02 6bbd cb34 243d 25a2 4fbc
00000110: c7a4 b23c 2ed8 fabc b03c 873d 69bd 94bd
00000120: 24bd a43d 08a9 0dbc 6b34 93bd 62b8 843d
00000130: ad3f 8a3d 753e a4bd e373 1a3d 3140 55bd
00000140: 6370 a63c 578a 9f3d 9c44 9cbd 670d 6a3d
00000150: a675 35bd c409 e5bc ba03 9fbd 5dc6 76bd
00000160: f2c3 82bd cc67 07bd b2d4 a4bd 6244 2f3d
00000170: 1eb6 06bd 6897 ab3d e00a 26bc a641 4a3d
00000180: 9bf4 863b 5d5f a7bd 03bd 4dbd 7fd8 fabc
00000190: 1d1e 3ebd ac6a 83bb 46f0 67bc 60a9 4e3d
000001a0: 8a6f 023b a715 813d ba27 39bd 7481 61bc
000001b0: 5699 68bd 6311 c4bc aded 5a3d 5d69 91bd
000001c0: fe7c cf3c 5d0a ac3d 5d01 d53c fe24 b3bc
000001d0: c5ad b33d cb9c acbd a330 46bc 5e38 a73d
000001e0: 6c72 f33c 07c6 583d 5d7b 453d c10f 813d
000001f0: 2379 cdbc 7332 afbd 4bb9 963d c5cf 2cbd
00000200: 107a 853d 878a fbbb 665d 7f3d 9a81 1dbd
00000210: 26ae 8a3d e7d1 1bbd c1dc 783b fae6 523d
00000220: 41da 74bd b06d cebc 7b24 9bbd f137 53bd
00000230: 1393 2dbd dfc1 8fbd 974c b03d f8f5 8abc
00000240: ba64 93bb 6ba6 06bd 2ea4 973b 5527 603c
00000250: e606 7a3d fba9 b6bc 6217 95bd c2f8 3e3d
00000260: ef99 803c 31ad 523c 8498 843c 5112 b33d
00000270: 7e6d aabd 0db4 b93d e074 cebc 7829 fb3c
00000280: c160 0e3d fc48 e83b 8f4f 83bc c753 543d
00000290: 25af 053d 6a71 9abc 4b0b 40bd bcb7 91bd
000002a0: 1351 f7bc db6a 003d e85f bfbc 86e0 01bd
000002b0: 7b91 673b b4fe 113d 905b 0a3d 68cb f6bc
000002c0: e29b f43c 07ff 2a3c 7e37 f0bc 782c adbd
000002d0: 7a8a 083d 151e a33d 1163 39bd 720e 6e3c
000002e0: 442e 6a3c 645c b0bd ce56 aa3d 207f 893d
000002f0: e92b 07bd 435b 393d 0145 5b3d 6add a2bd
00000300: 5eea ae3c 1e4a 0ebd ace0 a8bd e443 663b
00000310: 687b a5bd a6ce 893d 815f 07bd c2f8 80bd
00000320: d018 ce3b b541 52bd 9087 7cbd 0b3e 8abd
00000330: 62c7 cebc 349e 67bc 260b aabd 88da edbc
00000340: 4a40 1bbd baf5 a33d ce9c 72ba cd0f a7ba
00000350: 4a1d dc3c 3044 a2bc 32e5 9d3c e25f 90bd
00000360: 4d45 b2bd d93d af3c 71cd a83d 4a73 51bd
00000370: 1243 12bb dd5a b73c f42e ad3d 7b96 db3c
00000380: 24da b1bb 2264 263c f21b 983d a4f8 9a3d
00000390: 28ea 9b3d 3afc 8cbc ef64 26bc 033c aabd
000003a0: fa95 763d 1732 a63d f269 b6bd 9044 1e3b
000003b0: 286e 4cbc 4f42 a23b 4e4d 2c3d cda8 9c3d
000003c0: 0811 9d3c 3799 9cbc 2d9c 1fbd 0f81 64bc
000003d0: 6579 5f3d bc78 a83d 1078 373c 2069 843d
000003e0: 66f6 72bc 7b92 003d 3191 bebc e7fc 3ebb
000003f0: 5b31 a43d b3ac 423b 4c56 683c 7951 883d
0.030492064 -0.009183373 0.052223444 -0.080867246 -0.04712964 -0.08966333 -0.0013856938 -0.07404863
-0.018864762 0.049342114 0.00075133366 -0.038119566 0.03771777 0.020193389 -0.007166834 -0.07208623
-0.0045901085 -0.034680746 0.002941325 -0.0020310231 0.0543703 -0.0020140903 0.020650608 0.015187502
-0.06515999 -0.07730802 -0.026648512 0.03026062 -0.010839143 0.047139097 0.004990489 -0.054637916
-0.08399064 0.03806905 0.07837576 0.03249978 -0.061694033 0.0449731 0.07338641 -0.07678517
-0.0835724 0.015097701 -0.027629407 0.07282223 -0.05800032 -0.0032109441 -0.09013366 0.08175319
-0.08738568 -0.017267266 0.019833937 -0.024628252 -0.0086311195 -0.039173037 0.018575402 -0.013897768
-0.045003746 -0.07906565 -0.034160968 0.042923108 0.08252636 -0.07026197 0.0037773554 -0.00041584414
0.046162914 -0.057375655 0.04008941 -0.012672936 0.021807088 -0.03062066 0.06603372 -0.072626896
0.08043888 -0.008646257 -0.07187732 0.06480481 0.067504264 -0.08019725 0.037708174 -0.05206317
0.020317262 0.07790058 -0.07630274 0.057141688 -0.04430165 -0.027958758 -0.07764383 -0.060247768
-0.0638503 -0.033057973 -0.08048381 0.042789824 -0.032888524 0.08378488 -0.010134429 0.049379013
0.0041185147 -0.08172486 -0.050229084 -0.030620812 -0.046415437 -0.004010519 -0.014156407 0.050454497
0.0019902908 0.06302958 -0.0452039 -0.013763774 -0.056786858 -0.023934072 0.05344932 -0.071001746
0.025328156 0.08400414 0.026001627 -0.021868225 0.08773378 -0.084283434 -0.012096557 0.08165048
0.029717647 0.05292323 0.04821335 0.06301833 -0.025082177 -0.08554544 0.073595606 -0.042190332
0.06517422 -0.007676426 0.06234493 -0.038453676 0.067714974 -0.038041975 0.0037973376 0.051489808
-0.059778456 -0.025198787 -0.075753175 -0.05156702 -0.04237659 -0.070194 0.08608358 -0.01696299
-0.0044980915 -0.032873552 0.004627726 0.0136812525 0.061041735 -0.02229785 -0.072798505 0.046623953
0.015698401 0.012858675 0.016186006 0.08743728 -0.08321665 0.09067545 -0.025202215 0.030659422
0.03476024 0.0070887785 -0.016029147 0.05183771 0.032637734 -0.018852908 -0.04688577 -0.07115123
-0.030190026 0.031351905 -0.023361161 -0.031708263 0.0035334516 0.035643294 0.033778727 -0.030126289
0.029859487 0.01043678 -0.029323336 -0.08455747 0.033335187 0.07964722 -0.045260493 0.014529811
0.014293257 -0.08611372 0.08317338 0.067137 -0.03300086 0.04525305 0.053532604 -0.07952388
0.02135199 -0.034738652 -0.08245978 0.003513568 -0.080801785 0.06728868 -0.033050064 -0.06297447
0.006289579 -0.051332194 -0.06165272 -0.06750115 -0.025241558 -0.01413684 -0.08302908 -0.029034868
-0.037903108 0.08005853 -0.0009254933 -0.0012745798 0.026869435 -0.019807905 0.019274328 -0.07049538
-0.08704624 0.021391796 0.0824231 -0.05113534 -0.002231781 0.022382194 0.08456221 0.026805153
-0.0054276157 0.010155709 0.07427205 0.07566956 0.07613021 -0.017210115 -0.0101559 -0.083122276
0.060201623 0.08115023 -0.08906926 0.0024149753 -0.012477435 0.0049517523 0.04206591 0.07649384
0.01917316 -0.019116027 -0.0389673 -0.013946786 0.05455913 0.08226153 0.011198059 0.064653635
-0.014829254 0.031389695 -0.023262592 -0.002914244 0.08017226 0.0029704988 0.014180731 0.06656165

network.2.bias f4 [84]
00000000: 757b 66bd 4d59 86bc 0f42 083c b7f5 413d
00000010: 490f 923d f56f a4bd 9e5b 2a3d 2dd5 8bbc
00000020: 60a4 1b3d 6b5a 61bd 213b 993d 7765 a93d
00000030: 556c 903b 4905 9d3d 71e3 b03d 2662 22bc
00000040: 9f15 c83c d319 04bd bb2b fb3c e6e9 943d
00000050: 93ba 923d 73c9 93bd eadf 06bd 557b 153a
00000060: 5b39 e0bc 3c67 8fbd 0ea3 45bc ef4a a5bd
00000070: d300 a03d 33a0 0bbc 779c 283d 432f 593d
00000080: 9e6c 52bd 20b6 6c3d 67f6 67bd 2f35 05bd
00000090: ff63 a0bd 5a5b 043d 34dc 9ebc 194d a1bd
000000a0: ed37 e1ba 309a abbb 0f09 8a3d e7cb dc3c
000000b0: 6ac9 0f3d 095c 7cbd efe6 98bd 8421 f8bb
000000c0: bcc6 89bd 04a6 b43d a9b9 7d3d 9bf6 96bd
000000d0: adec b33d ae46 4b3d 001b 9fbd 381d 763d
000000e0: cc2e 4b3d c5c0 b4bd 8275 b53d b573 65bd
000000f0: de5c 43bd 8187 4dbd 788b 4ebd c90b 4cbd
00000100: 3e47 ae3d a9fb d9bc 77a5 bc3d 63ef cdbc
00000110: 4342 a03d 6e9a d33b 26be a7bd b8c5 4abd
00000120: 03d5 e3bc 014e 1bbd 203b 913d 0168 86bd
00000130: cb4c 7dbd b102 d23b 0793 2c3d c666 a8bd
00000140: 6758 62bd 2390 b83c f112 873d d868 4dbd
-0.05627008 -0.016400004 0.008316531 0.047353473 0.07131822 -0.080291666 0.04159128 -0.017069424
0.037998557 -0.05501787 0.07481981 0.08271306 0.0044074454 0.07667024 0.08637131 -0.009911096
0.024424372 -0.03225119 0.0306605 0.07271175 0.071644925 -0.07216158 -0.032928385 0.0005702277
-0.0273711 -0.07002112 -0.012062801 -0.08070933 0.07812657 -0.008522081 0.04116484 0.053023588
-0.051373117 0.057790875 -0.056631472 -0.032521423 -0.07831573 0.032313682 -0.01939211 -0.07876033
-0.0017182805 -0.0052368864 0.06740009 0.026952697 0.035104193 -0.06161121 -0.07465922 -0.0075723547
-0.06727359 0.088207275 0.061944637 -0.07371255 0.08785377 0.049627952 -0.07768822 0.06008646
0.049605176 -0.0882583 0.088603035 -0.05601855 -0.047695987 -0.050178055 -0.050425977 -0.049815927
0.08509682 -0.026609259 0.092112474 -0.025138563 0.078251384 0.0064576184 -0.08190565 -0.049504966
-0.027811533 -0.037916187 0.07091355 -0.06562806 -0.061840814 0.0064090122 0.042132404 -0.082227275
-0.05526009 0.022529667 0.0659541 -0.050148815

network.4.weight f4 [21, 84]
00000000: ebda 05bd 251b 423a 5a42 093d 9b88 263b
00000010: c597 833d 260b 7fbd 8181 62bd 55de 243b
00000020: 5711 7bbd 71d3 bb3a 9e66 ae3d ed41 8a3d
00000030: a298 8dbd 2fec adbd c0cf d0bd b3af afbd
00000040: 300d 10bb 4200 c53d 85af e53d cf36 c03d
00000050: 63f0 4a3d 8aa8 0d3d 6eba 2d3d add4 b7bd
00000060: f5ec 693c 9701 9abc 4ff3 26bd 1457 863d
00000070: 63ff 11bb 2ed6 b9bd f8bf bd3d 5d07 d0bc
00000080: b646 92bb daa2 e93d 2abb d13d 7361 bfbd
00000090: d9bb d7bd e5b3 a43d 0882 273d d9dc 1dbd
000000a0: 8d32 e5ba 71c3 0bbd 2c1c 9f3b c03c 54bd
000000b0: 43dc a6bd 2149 b5bd 81af 8d3d 9364 21bd
000000c0: 79eb 193d 2682 b63d c2b7 46bd eb58 763d
000000d0: 3d05 82bd f880 95bd 1ba8 bc3d 8c78 213d
000000e0: 124a 083d ca16 c0bc 8e55 cc3d 6f92 a33c
000000f0: 99b6 af3d 5b51 db3c ec10 df3c e0de b13c
00000100: cd8d 98bd 36d2 493d 259d d7b9 f79d 7dbd
00000110: a4af be3d ef67 3f3d 0dde 943d d35e a5bd
00000120: 6618 c03d 4810 6c3c c2db 113d 48e0 f1bb
00000130: 51b6 ec3c b863 a8bd 2cc7 debc a505 a63c
00000140: 6a8b 37bd ca1a 8dbd 0b46 df3d 2d2a 83bd
00000150: be64 123c e292 de3b c9ba 89bd 3b13 b23d
00000160: 22e0 be3d 7abb cdbd 22a3 32bd 51a7 7b3d
00000170: 1c8e 9abd 9b1c e5bb 2c8d d73d 843e 97bd
00000180: d778 3bbd 8722 d7bd 5d57 c03a e303 923b
00000190: 121c 543d 1f37 e53c f325 79bc f635 00bb
000001a0: 4558 e1bc 3047 f43c 698c 67bd 2a1a 1dbd
000001b0: c606 11bc b21e 9cbd 42c5 ba3d 5584 bc3d
000001c0: 6e49 c33d 1b06 b9bd ba6b d53d 1fb6 0dbd
000001d0: 91dc 2c3d c43e 6b3d 6140 313d a5c2 b0bd
000001e0: 0cce 3dbd 264b db3d de9d 00bd 0959 d93d
000001f0: d4d3 523d 069d e23d 4bb9 983d 4316 ba3d
00000200: f0b7 c53b b2fc cf3d 89dd efbc 0b0d 853c
00000210: 53fd d3bd c290 283d 3ef1 9bbd 863d 813d
00000220: 860a 493c f2ed 02bd ebb0 493d 6bd0 ed3d
00000230: 64da cb3d 14ba 84bd b0b6 a6bd 8a10 34bd
00000240: 69a0 053d e18d b93d 7691 8abd d2c6 22bd
00000250: ce32 d8bc 2152 26bc 96e2 a4bd 33f4 fabc
00000260: 9a8b 98bd 308a 57bc b8c0 cb3d 5c61 533d
00000270: cd20 8dbd a5e1 903d 1cdb 1abd 0ca9 043d
00000280: 77e1 4b3c 7b12 72bd 0978 77bd d97d 3e3d
00000290: 1cf2 41bd e3f4 2b3d 9087 543d b51e c6bd
000002a0: 5c1a 803d b4cb 1ebd e23a 723d ee2e a2bd
000002b0: 05cd 82bd 3345 e33c d729 4cbd f999 b23c
000002c0: 449a a9bc 0430 3dbd 04f9 7abd c5a9 083d
000002d0: 0e70 b8bd 5ddf b6bd 2811 9e3d fc55 22bd
000002e0: f6d8 e13d beb5 babd 23d9 803d 8bd0 2e3d
000002f0: be1f 0a3d c0a5 3cbd 2491 c53d b5d4 4dbd
00000300: ba2a 05bd 3d91 03bd 5a00 99bd d165 a4bd
00000310: dded 513d bf9d e1bb 6fce 3b3d c65a d6bd
00000320: 1f9e 343d 3476 5bbd 15f7 24bd ee9a d03d
00000330: 5856 753d 66ba 993d 2747 98bc 23b9 c23d
00000340: c667 aabd c3fa 763d 4d96 c63d a4e8 a73d
00000350: ab7d ab3c 2afb 963c 8aea c73d 3e5c cebd
00000360: 8462 77bd bd2a 513c e63a c93c c274 5bbd
00000370: 7b89 763d 1b3a 8a3d ae99 5a3d e911 d63d
00000380: b51b 103d 199a a0bd 8e5d ca3c ff01 243d
00000390: c535 b5bc 8c33 6ebd 309a 6fbd ae29 98bd
000003a0: be27 dc3c 1036 51bd 4418 883d 65e6 90bc
000003b0: 4be6 13bd e0e7 cb3d 4a94 81bd 8f21 603b
000003c0: 5244 e53a d3b3 f03c c00e 883c f03e 873d
000003d0: 16d0 0fbc 7aa1 18bd 9f45 b6bd 44ea ab3c
000003e0: c0e3 99bd 0741 bfbd 9397 aabd 386b 53bc
000003f0: 2ca1 b1bd d15a a0bd 6911 a43c d245 d3bd
-0.03267948 0.00074045575 0.033510543 0.0025411013 0.06425432 -0.06226649 -0.055299286 0.0025156934
-0.061295833 0.0014329982 0.085156664 0.067508556 -0.06913878 -0.08492314 -0.10195875 -0.08578434
-0.0021980517 0.0961919 0.11215118 0.09385454 0.049545657 0.03458456 0.04241412 -0.089761116
0.014277686 -0.018799586 -0.04075938 0.065595776 -0.0022277466 -0.09074055 0.09265131 -0.025394136
-0.004463996 0.114080146 0.10240777 -0.09344759 -0.10533876 0.08042125 0.04089549 -0.038540695
-0.0017486379 -0.034121934 0.0048556533 -0.05181575 -0.0814748 -0.08851839 0.0691824 -0.039402556
0.03757808 0.089115426 -0.04851509 0.060143393 -0.063486554 -0.072999895 0.09211751 0.039421603
0.033273764 -0.023448367 0.09977256 0.019967286 0.085797496 0.026772192 0.027229749 0.02171272
-0.07448921 0.04927274 -0.00041125077 -0.061918225 0.093108445 0.04672998 0.07268915 -0.08074727
0.09379654 0.014408179 0.035609968 -0.0073814727 0.028895529 -0.08222145 -0.027194582 0.020266363
-0.04481069 -0.06889875 0.109020315 -0.06404529 0.008935152 0.006792412 -0.067250796 0.08695074
0.09320094 -0.10045524 -0.043612607 0.061438862 -0.075466365 -0.0069919354 0.10524973 -0.07384971
-0.04576954 -0.105046324 0.0014674474 0.0044560297 0.051784582 0.027980385 -0.015206802 -0.0019563413
-0.02750791 0.029819101 -0.05653039 -0.03835503 -0.008851713 -0.07623042 0.09119655 0.09204928
0.0953549 -0.09034368 0.10420938 -0.034597512 0.042202536 0.057432905 0.043274287 -0.086308755
-0.04633908 0.10707693 -0.031400554 0.10612685 0.051471546 0.11065106 0.07457217 0.09086277
0.00603389 0.1015562 -0.02928044 0.016241571 -0.10351052 0.041153677 -0.07614373 0.06310563
0.012270575 -0.031965204 0.049240988 0.11612018 0.09953764 -0.06480804 -0.081403136 -0.043961085
0.032623682 0.090602644 -0.06766026 -0.03974039 -0.026391413 -0.010151417 -0.0805103 -0.030634021
-0.07448502 -0.013155505 0.099488676 0.05160652 -0.06891022 0.07074288 -0.037806615 0.03238778
0.012443892 -0.059099656 -0.06041721 0.046506736 -0.047350034 0.04198159 0.051887095 -0.09673826
0.06255028 -0.038768485 0.059138186 -0.079191074 -0.063867606 0.027742958 -0.04984459 0.021801936
-0.020703442 -0.04618837 -0.061272636 0.03336503 -0.09005748 -0.08929322 0.07718116 -0.039632782
0.1102771 -0.09116696 0.062914155 0.04267935 0.033721678 -0.04605651 0.09646824 -0.05025168
-0.03251145 -0.032120932 -0.0747077 -0.080272324 0.051252235 -0.00688526 0.045851167 -0.104665324
0.04409611 -0.053579524 -0.0402747 0.101858005 0.059896797 0.07506256 -0.018588616 0.09507968
-0.083205745 0.06029774 0.09696636 0.081986696 0.020933947 0.018430311 0.09761532 -0.100761876
-0.060396686 0.012766537 0.024564218 -0.053578146 0.060189705 0.06749364 0.053369217 0.10452635
0.035182673 -0.07841892 0.024702813 0.040040966 -0.022120366 -0.058154628 -0.058496654 -0.07429825
0.02687442 -0.05107695 0.06645253 -0.017687986 -0.036108296 0.09956336 -0.06327112 0.003419969
0.0017491675 0.029382622 0.016608596 0.06603801 -0.008777639 -0.03726337 -0.08899998 0.02098573
-0.07514143 -0.09338575 -0.08329692 -0.012903981 -0.08673319 -0.07829822 0.020027833 -0.103160515

network.4.bias f4 [21]
00000000: 638f d6bc 6478 c8bd c6c5 33bd 2be9 ad3b
00000010: 4129 14bd 9f3f 5fbd a945 e93d be95 2abd
00000020: fdaa f93c aea5 483d ffd8 e6bb 23b4 babd
00000030: 36db be3d 07c8 b3bd 4355 b3bd cdad a13d
00000040: 1d70 d5bc d0c2 743d 9f11 453d 2dd0 d4bd
00000050: 97b2 af3d
-0.026191419 -0.09788588 -0.043889783 0.005307337 -0.036172155 -0.054504033 0.1139024 -0.04164671
0.030477041 0.04898613 -0.007044911 -0.091163896 0.09319155 -0.087783866 -0.08756497 0.07894478
-0.026054436 0.0597561 0.048112508 -0.10391269 0.08578985
