blue.pt (torch, 248078 bytes, 10 tensors)

cnn.0.weight f4 [5, 5, 3, 3]
0.11204944 -0.03681385 -0.13774529 0.12946473 0.068387575 -0.0018017718 0.09923205 -0.11156162
0.008025225 -0.031623404 -0.029393332 -0.120487265 0.021518035 0.07712077 -0.15730634 0.068670444
0.119840935 0.09886459 0.062343426 -0.06854758 -0.07729687 -0.11029173 -0.1476943 0.047174033
-0.08660776 -0.1678832 0.08984626 -0.034262247 -0.14467405 0.12349838 0.1296654 -0.10917216
-0.058097646 0.050444122 -0.10717087 -0.048193425 -0.051627543 0.045584533 0.038083132 -0.10683623
0.12543418 0.01471032 0.020095762 -0.14070073 0.02303556 -0.08605677 -0.00875023 -0.12014627
0.08641796 0.00020888017 0.04534672 -0.032620594 0.11202899 0.08041689 0.050954934 0.09893419
0.06676422 -0.09856298 -0.001679342 -0.11635604 0.012018028 0.13356625 0.0650945 -0.108593404
-0.008789908 -0.0051454226 0.07175992 -0.13196173 0.10873248 -0.0064510843 -0.09005323 -0.09078547
-0.09946936 0.044631414 -0.03742912 0.14183173 0.11481238 0.02320275 -0.05661761 -0.05960207
0.11054608 -0.13903278 0.09326681 -0.027783282 0.033950396 -0.09615976 -0.06564567 0.07174159
-0.10029998 -0.066830814 0.13820992 0.0025337322 -0.1395002 -0.0037159177 0.04916573 -0.067043155
-0.04631549 -0.10610339 0.027389288 0.09728997 0.07301091 0.02068775 -0.0551424 0.085583955
0.056180507 -0.10788462 -0.021155745 0.10572689 0.12260611 -0.0861207 -0.16009285 -0.018959438
-0.14451154 0.07477866 -0.08673219 0.14846678 -0.10070937 0.10082653 0.022860512 -0.08381425
0.005723797 -0.044593863 -0.10989013 0.05818482 0.029856121 0.08852306 -0.038866792 0.11681027
-0.03785938 0.037092753 0.07572998 -0.0022051828 -0.10875577 -0.11029116 -0.0044024168 -0.120603114
-0.06553091 -0.10558664 0.017341677 -0.09872948 0.08236753 -0.09463127 -0.13390575 0.14144608
-0.016395295 -0.016733222 0.14828695 -0.0295103 0.104703136 -0.10663762 -0.09585318 0.14466922
0.055251095 0.124443054 0.079655856 0.09027944 -0.08809595 0.040477283 -0.054525606 -0.009051768
-0.09993758 -0.07307003 -0.080988325 -0.078267485 -0.047931664 -0.11161862 0.011852039 -0.05156937
0.03888089 0.056081865 -0.109021075 0.07585177 -0.09431617 0.055464182 -0.03235547 -0.11448176
-0.12642902 0.024490824 0.026760962 0.032158047 -0.069574386 -0.07562251 0.16086309 0.06595938
-0.008121938 0.05354018 -0.021873217 -0.061690073 -0.05878077 0.010545674 -0.11488492 -0.10818586
0.16431268 -0.13173442 0.004103135 -0.039039485 0.13729848 -0.002553423 -0.11836997 0.042983487
0.05834421 0.10152806 0.07014834 0.15225556 0.07301638 -0.0340041 -0.042532932 -0.06642523
0.07985178 0.008644177 0.081416376 0.111538455 -0.022822367 0.03448313 -0.14014903 0.0070749433
-0.04172324 -0.04072286 0.06580793 0.14029033 0.07315787 0.060796123 0.13283868 -0.0066295033
0.11372192
00000000: 2d7a e53d 1fca 16bd 1a0d 0dbe 6792 043e
00000010: c90e 8c3d 6e29 ecba 2c3a cb3d 6b7a e4bd
00000020: 3c7c 033c 8b87 01bd 49ca f0bc 07c2 f6bd
00000030: 9746 b03c 7ff1 9d3d ea14 21be 17a3 8c3d
00000040: 2a6f f53d 8579 ca3d d25b 7f3d ac62 8cbd
00000050: d24d 9ebd a1e0 e1bd 2d3d 17be 8f39 413d
00000060: 695f b1bd 93e9 2bbe 5101 b83d 9256 0cbd
00000070: 6f25 14be b8ec fc3d 02c7 043e a795 dfbd
00000080: ccf7 6dbd 7f9e 4e3d 677c dbbd 7866 45bd
00000090: 6777 53bd d9b6 3a3d 0ffd 1b3d f4cc dabd
000000a0: d171 003e 8e03 713c de9f a43c da13 10be
000000b0: 12b5 bc3c 883e b0bd 205d 0fbc 3f0f f6bd
000000c0: e6fb b03d d806 5b39 7bbd 393d 2c9d 05bd
000000d0: 756f e53d 9cb1 a43d 1fb6 503d 029e ca3d
000000e0: aebb 883d 63db c9bd 5e1d dcba 134c eebd
000000f0: 43e7 443c 97c5 083e 4450 853d 3866 debd
00000100: 8c03 10bc ef9a a8bb ddf6 923d fa20 07be
00000110: 22af de3d 9e63 d3bb d46d b8bd bced b9bd
00000120: 98b6 cbbd 6ecf 363d 474f 19bd 563c 113e
00000130: c122 eb3d b213 be3c dee7 67bd 4d21 74bd
00000140: fc65 e23d 9c5e 0ebe ab02 bf3d c499 e3bc
00000150: 920f 0b3d 69ef c4bd 3d71 86bd 41ed 923d
00000160: 136a cdbd 98de 88bd e786 0d3e f90c 263b
00000170: 24d9 0ebe c186 73bb 0162 493d ec4d 89bd
00000180: 50b5 3dbd bc4c d9bd 805f e03c f73f c73d
00000190: be86 953d 5b79 a93c ffdc 61bd a446 af3d
000001a0: 881d 663d 9df2 dcbd d04e adbc 5787 d83d
000001b0: ea18 fb3d 0d60 b0bd 61ef 23be d350 9bbc
000001c0: d5fa 13be 8e25 993d a5a0 b1bd ad07 183e
000001d0: b740 cebd 247e ce3d f845 bb3c cea6 abbd
000001e0: b08e bb3b 0ea8 36bd 140e e1bd 3553 6e3d
000001f0: d394 f43c 944b b53d c932 1fbd 393a ef3d
00000200: 7012 1bbd 92ee 173d 5218 9b3d d484 10bb
00000210: 58bb debd 55e0 e1bd 2642 90bb c4fe f6bd
00000220: 1235 86bd cf3d d8bd 2210 8e3c ae32 cabd
00000230: 4fb0 a83d 0ace c1bd 971e 09be 3ed7 103e
00000240: 6d4f 86bc 1c14 89bc 89d8 173e 96bf f1bc
00000250: 996e d63d d364 dabd ac4e c4bd 2b24 143e
00000260: f94e 623d 00dc fe3d 9c22 a33d 6de4 b83d
00000270: a66b b4bd 82cb 253d 3e56 5fbd de4d 14bc
00000280: 13ac ccbd bda5 95bd 35dd a5bd b44a a0bd
00000290: fe53 44bd 4e98 e4bd 0e2f 423c 673a 53bd
000002a0: 9141 1f3d 19b6 653d 7146 dfbd 2c58 9b3d
000002b0: d628 c1bd 692e 633d 2b87 04bd 6a75 eabd
000002c0: 9c76 01be fba0 c83c ce39 db3c 28b8 033d
000002d0: 047d 8ebd f9df 9abd 4bb9 243e b615 873d
000002e0: e111 05bc f34c 5b3d 762f b3bc bbae 7cbd
000002f0: 1bc4 70bd c3c7 2c3c c948 ebbd 8c90 ddbd
00000300: 9541 283e 63e5 06be 9773 863b dee7 1fbd
00000310: f997 0c3e 5457 27bb f46b f2bd 740f 303d
00000320: 57fa 6e3d f2ed cf3d efa9 8f3d e2e8 1b3e
00000330: 9d89 953d e247 0bbd 0337 2ebd f309 88bd
00000340: 5489 a33d 4ea0 0d3c a1bd a63d 466e e43d
00000350: f9f5 babc 2f3e 0d3d 3a83 0fbe edd4 e73b
00000360: fde5 2abd 03cd 26bd 4fc6 863d 45a8 0f3e
00000370: cbd3 953d 5b05 793d dd06 083e 4e3c d9bb
00000380: 0ae7 e83d

cnn.0.bias f4 [5]
0.035615567 0.038322654 -0.1485842 0.07454312 0.071940444
00000000: a1e1 113d 37f8 1c3d 7526 18be 10aa 983d
00000010: 8355 933d

cnn.2.weight f4 [5, 5, 3, 3]
0.1297878 -0.024611367 -0.02214687 0.018061178 -0.06636765 -0.025730187 0.12588702 -0.10508459
-0.12740594 -0.12598425 0.021590782 -0.11556963 0.08628443 -0.123075046 -0.02953353 0.015304335
-0.09814097 -0.06869698 -0.09230593 -0.07839027 0.09478114 -0.07532857 0.1128342 -0.12977055
-0.15539768 0.11429332 -0.13622478 0.0042579863 -0.06403666 0.037560776 0.072985485 -0.10893286
-0.10235087 0.093573496 0.045086145 0.028404208 0.011443452 -0.09659252 0.098587506 0.14212348
0.017491462 -0.11299351 -0.12327709 0.028721705 0.051311843 0.107437566 -0.12526548 0.09867377
0.07485587 0.08988542 -0.1451508 -0.032349296 0.108376876 -0.08743956 0.080015965 -0.0036829733
0.08636046 -0.007936075 -0.08956351 -0.16141307 0.1002746 0.109800376 0.0070671127 -0.051489253
0.027471716 -0.1286592 -0.15124416 0.06426136 0.0014477168 0.10545288 0.107540265 -0.017070891
-0.14583777 -0.0016555953 -0.051796667 0.07904392 0.109057754 0.04731386 0.08461786 -0.070948295
-0.120169416 0.106004596 -0.047543224 -0.11329443 0.12879167 0.045144774 0.10017026 -0.14243542
0.050739728 -0.026218798 0.06534358 0.008994677 0.08647879 0.066115536 0.102327295 0.07931591
-0.10813431 0.02120093 -0.0969278 -0.033408098 -0.16083546 -0.052864406 -0.0067556566 0.07690615
-0.074165516 0.10064578 0.00088458136 -0.016544055 -0.06610942 0.09865825 -0.12618552 -0.1042793
0.020342443 -0.060434118 0.005502518 0.010547558 -0.013605233 -0.054725207 0.055438 -0.14487188
-0.107066326 -0.1623858 -0.15503068 0.11043359 -0.08791857 -0.04150416 -0.124482565 -0.16200896
0.03052011 0.048373777 -0.03029964 0.08532579 -0.074849814 -0.09309896 -0.14601372 0.022869766
-0.031462744 0.071123414 0.06894087 0.10501911 -0.15539725 0.11770429 -0.06267735 -0.013061944
0.088413276 -0.16393474 -0.014466881 -0.10285892 0.08877548 -0.018077126 -0.094841465 0.12816538
-0.15357718 -0.017889118 0.024856193 -0.05072999 0.027684271 0.018989023 0.024734898 -0.13815227
-0.13868357 0.02866243 0.083810985 -0.113836646 -0.094176635 -0.052627724 0.007598475 -0.11742304
-0.1649203 0.028581452 -0.0070934347 -0.15825292 -0.13989188 -0.04302285 -0.0032200287 -0.15215069
-0.10938114 -0.072919935 -0.0005129532 -0.11610894 0.02532693 -0.07454981 -0.014904274 0.123489365
-0.010490068 -0.06666639 0.102692276 -0.13001917 -0.06343331 0.1161228 0.07390689 -0.14727487
-0.105094776 -0.16976537 -0.15703337 0.093907624 -0.11911723 -0.15742737 -0.15465595 0.115452185
-0.0073886486 -0.07593123 0.028553747 -0.0740852 -0.032784987 -0.030407896 -0.0040197335 0.055519886
-0.12089886 -0.055369217 0.1294035 0.080994844 -0.07179625 -0.015972877 -0.057800632 -0.054523423
0.08567929 -0.06840195 -0.15243016 0.066091314 -0.15367857 0.053968016 0.0048039854 -0.030741053
-0.030306455
00000000: 18e7 043e c79d c9bc 5a6d b5bc 09f5 933c
00000010: c3eb 87bd 1dc8 d2bc 87e8 003e 9736 d7bd
00000020: b476 02be 0402 01be 27df b03c c5af ecbd
00000030: e4b5 b03d c50e fcbd 4df0 f1bc 09bf 7a3c
00000040: 22fe c8bd 01b1 8cbd e40a bdbd 148b a0bd
00000050: 9d1c c23d de45 9abd 9e15 e73d 92e2 04be
00000060: 9220 1fbe 9e12 ea3d 827e 0bbe 9486 8b3b
00000070: a725 83bd 54d9 193d 6a79 953d 3118 dfbd
00000080: 559d d1bd 76a3 bf3d 40ac 383d f1af e83c
00000090: 517d 3b3c 4dd2 c5bd 3fe8 c93d d188 113e
000000a0: 414a 8f3c 2469 e7bd b378 fcbd c849 eb3c
000000b0: 5e2c 523d 3a08 dc3d 9845 00be 7915 ca3d
000000c0: 094e 993d d915 b83d 69a2 14be b280 04bd
000000d0: b2f4 dd3d 8313 b3bd 69df a33d 0a5e 71bb
000000e0: c1dd b03d 5006 02bc 136d b7bd 7849 25be
000000f0: c55c cd3d 05df e03d 3d93 e73b 65e6 52bd
00000100: 5d0c e13c 3dbf 03be c0df 1abe 769b 833d
00000110: 51c1 bd3a aef7 d73d 123e dc3d 41d8 8bbc
00000120: 7f56 15be 8f00 d9ba be28 54bd c7e1 a13d
00000130: ac59 df3d 2ecc 413d 214c ad3d 574d 91bd
00000140: 621b f6bd f018 d93d afbc 42bd e906 e8bd
00000150: f7e1 033e bae9 383d 1126 cd3d 97da 11be
00000160: 76d4 4f3d cec8 d6bc dbd2 853d 695e 133c
00000170: cb1b b13d 9567 873d f990 d13d 6170 a23d
00000180: 8575 ddbd 93ad ad3c 1582 c6bd eed6 08bd
00000190: 0db2 24be 5988 58bd 8e5e ddbb f980 9d3d
000001a0: 17e4 97bd 601f ce3d 40e3 673a 6687 87bc
000001b0: 6064 87bd 560d ca3d c736 01be 6390 d5bd
000001c0: 32a5 a63c c489 77bd 774e b43b aacf 2c3c
000001d0: 7ce8 5ebc 8a27 60bd f512 633d 4b59 14be
000001e0: 9745 dbbd 7748 26be 5dc0 1ebe 022b e23d
000001f0: a70e b4bd 4400 2abd b7f0 febd ade5 25be
00000200: 4f05 fa3c 9523 463d f336 f8bc 4abf ae3d
00000210: dc4a 99bd abaa bebd 9f84 15be 6059 bb3c
00000220: 14df 00bd 27a9 913d df30 8d3d 4214 d73d
00000230: 7520 1fbe f20e f13d fc5c 80bd c401 56bc
00000240: 0512 b53d 82de 27be 7f06 6dbc b3a7 d2bd
00000250: ebcf b53d 7b16 94bc 3e3c c2bd c93d 033e
00000260: 5643 1dbe 338c 92bc 379f cb3c 40ca 4fbd
00000270: 20ca e23c de8e 9b3c d7a0 ca3c ca77 0dbe
00000280: 1103 0ebe 79cd ea3c 18a5 ab3d 3023 e9bd
00000290: aedf c0bd 2b90 57bd a1fc f83b 7e7b f0bd
000002a0: dee0 28be a623 ea3c 0b70 e8bb 0e0d 22be
000002b0: d13f 0fbe ba38 30bd 1e07 53bb 64cd 1bbe
000002c0: 3803 e0bd 0c57 95bd b577 06ba 86ca edbd
000002d0: 6c7a cf3c 92ad 98bd 0e31 74bc fee7 fc3d
000002e0: 89de 2bbc 6388 88bd 5450 d23d bf23 05be
000002f0: 53e9 81bd cad1 ed3d 7f5c 973d 39cf 16be
00000300: ee3b d7bd f9d6 2dbe 5bcd 20be a452 c03d
00000310: bcf3 f3bd a434 21be 215e 1ebe 3272 ec3d
00000320: 7a1c f2bb d581 9bbd 8ce9 e93c fbb9 97bd
00000330: 8d49 06bd fb19 f9bc f8b7 83bb d268 633d
00000340: d299 f7bd d5ca 62bd 5a82 043e a0e0 a53d
00000350: ea09 93bd 8dd9 82bc 5bc0 6cbd f453 5fbd
00000360: a078 af3d 5216 8cbd a716 1cbe e25a 873d
00000370: ea5d 1dbe 910d 5d3d c06a 9d3b a9d4 fbbc
00000380: 3e45 f8bc

cnn.2.bias f4 [5]
-0.12135471 -0.046283536 0.060907483 0.09221359 0.008491555
00000000: d188 f8bd ce93 3dbd 207a 793d 7bda bc3d
00000010: 2a20 0b3c

network.0.weight f4 [120, 405]
0.004117571 -0.049186856 0.029562723 -0.006894391 -0.009523131 0.01368567 -0.018652784 0.0007919371
-0.049549714 -0.018084709 0.025675822 0.047119822 -0.038529303 -0.036687594 -0.023558987 -0.04672941
-0.024215775 -0.020359391 0.043554034 0.04408783 0.036345262 -0.031057678 0.029907767 -0.04856682
0.03498139 0.04087485 -0.006231889 -0.046905965 -0.026338233 -0.03671988 0.03853002 0.0355612
0.04134268 0.020803314 -0.0023765415 0.045694362 0.043527972 0.047552314 -0.009345021 0.0086748
0.04161905 0.008600909 -0.018752495 -0.046620674 -0.041004777 0.0009014532 -0.015732743 -0.04404477
-0.0056700483 0.002375733 0.04047204 -0.032450248 -0.010239817 -0.016605083 -0.010626957 0.047104087
0.04318523 0.03839981 0.03493597 -0.03706389 -0.049311962 0.04152568 -0.017304517 0.025629733
0.039102484 0.025830891 0.033191327 0.038417306 -0.022259034 0.01013875 -0.009748053 0.03258572
-0.017659694 -0.019389166 0.024146874 -0.039234955 0.002352871 -0.01862871 0.024290431 0.044039156
0.038931448 -0.022050329 0.015577171 -0.04444288 -0.021629365 -0.01488138 0.028452236 -0.010698821
-0.01728227 0.03936496 0.027690325 -0.0415114 -0.024464434 0.012895998 0.04419623 -0.020634344
0.011161678 0.034610834 0.024579566 -0.0443012 -0.04268073 -0.005790975 0.0015609153 0.026349936
-0.0363666 0.029336598 -0.0031895824 -0.048346166 -0.012718871 0.014863696 -0.04182144 -0.0060023814
-0.02933852 0.048086595 -0.04240636 0.02267487 0.046434034 -0.0066754445 -0.031294584 0.011358481
-0.018036842 -0.034057457 0.03269947 0.02103876 0.042618584 -0.02338477 -0.025003128 -0.047660224
0.025521714 0.02775031 -0.04518248 0.008407809 -0.038092695 -0.04292396 -0.044050194 0.0291592
0.0105371475 -0.019620776 0.021537784 -0.003518831 -0.0156223215 0.042239364 -0.003827203 0.0293548
0.017290238 0.02252714 -0.014757022 -0.028941564 -0.014710367 -0.04870161 -0.026475843 0.017881293
-0.035662387 0.046603616 0.0027863756 0.01622286 -0.01960076 -0.047869988 -0.036562677 0.0022187456
-0.029053953 -0.030452108 0.004642654 -0.04862238 0.026742335 -0.0058719516 -0.029465344 -0.020655686
-0.008235622 0.0058308356 0.034303967 -0.04891542 0.030255128 -0.03222794 0.007027127 -0.004650183
-0.0389816 -0.02266728 -0.029391542 0.04666513 -0.024112953 0.038495746 -0.004328143 -0.0066201985
-0.007964566 0.013645593 -0.041579124 0.02535377 -0.028537666 0.011340786 0.041153897 0.04745585
-0.021253759 -0.025460048 -0.0406396 -0.03442426 -0.0069802254 -0.0025720038 -0.032803327 -0.02546988
0.035682876 -0.04034763 0.005585175 0.012148131 0.048243318 0.018284205 -0.041819774 0.04139744
-0.019948427 -0.0145544745 -0.0068390183 0.03627487 0.027965467 0.029832486 0.039071027 -0.033710733
0.01763473 -0.012300834 -0.04582206 0.005370889 0.029191922 -0.040404778 0.0462499 -0.047225475
-0.012283746 0.00053276494 -0.013794176 0.03141832 -0.0065310523 0.0093773715 -0.012446459 0.019326817
0.008786678 -0.025240691 0.010997254 -0.034575477 -0.021520674 0.02402452 0.0023243576 0.014714707
-0.029860789 -0.041294925 -0.044537734 0.025693271 -0.0078103654 -0.03499281 0.03077392 0.043789525
0.023201514 0.015987266 0.022496317 0.044838507 -0.021427557 0.038971987 0.03856724 -0.030560112
00000000: b0ec 863b 2878 49bd 862d f23c 58ea e1bb
00000010: e806 1cbc dc39 603c b9cd 98bc 009a 4f3a
00000020: a4f4 4abd 6226 94bc 1a56 d23c b700 413d
00000030: e7d0 1dbd bb45 16bd c7fe c0bc 5667 3fbd
00000040: 2960 c6bc bdc8 a6bc b765 323d 7195 343d
00000050: c5de 143d ac6c febc 2201 f53c 00ee 46bd
00000060: a548 0f3d 636c 273d e034 ccbb 7820 40bd
00000070: 47c3 d7bc 9667 16bd a7d1 1d3d 9fa8 113d
00000080: f156 293d b66b aa3c c0bf 1bbb 032a 3b3d
00000090: 634a 323d 37c6 423d dc1b 19bc c020 0e3c
000000a0: bd78 2a3d d4ea 0c3c d59e 99bc 52f5 3ebd
000000b0: a0f4 27bd 804f 6c3a f4e1 80bc 4a68 34bd
000000c0: d0cb b9bb 30b2 1b3b 03c6 253d 8dea 04bd
000000d0: e8c4 27bc 6207 88bc b01c 2ebc 37f0 403d
000000e0: ffe2 303d 1f49 1d3d 0519 0f3d 4ed0 17bd
000000f0: 57fb 49bd d516 2a3d 34c2 8dbc 72f5 d13c
00000100: ed29 203d 4e9b d33c a1f3 073d 775b 1d3d
00000110: 9458 b6bc 001d 263c 4cb6 1fbc 9b78 053d
00000120: 10ab 90bc 07d6 9ebc aacf c53c d5b4 20bd
00000130: a032 1a3b 3d9b 98bc bafc c63c 6762 343d
00000140: 9576 1f3d e4a2 b4bc 6437 7f3c bd09 36bd
00000150: 1130 b1bc 08d1 73bc aa14 e93c 1c4a 2fbc
00000160: 8c93 8dbc 273d 213d d2d6 e23c dc07 2abd
00000170: a369 c8bc bc49 533c 1b07 353d 5b09 a9bc
00000180: 78df 363c 17c4 0d3d 165b c93c 2d75 35bd
00000190: fdd1 2ebd 38c2 bdbb a097 cc3a d2db d73c
000001a0: 25f5 14bd 4e53 f03c 5008 51bb a106 46bd
000001b0: d062 50bc dc86 733c f54c 2bbd a0af c4bb
000001c0: 5657 f0bc 73f6 443d 4bb2 2dbd a6c0 b93c
000001d0: 9d31 3e3d b0bd dabb c02e 00bd ec18 3a3c
000001e0: 00c2 93bc d57f 0bbd e1ef 053d 7a59 ac3c
000001f0: d390 2e3d 6b91 bfbc 5cd3 ccbc 5e37 43bd
00000200: ea12 d13c 9e54 e33c 4411 39bd e8c0 093c
00000210: 1607 1cbd 09d1 2fbd fa6d 34bd 46df ee3c
00000220: 00a4 2c3c c0bb a0bc 0270 b03c 309c 66bb
00000230: c4f4 7fbc 2f03 2d3d d0d1 7abb 7a79 f03c
00000240: 42a4 8d3c d68a b83c 70c7 71bc dc16 edbc
00000250: c003 71bc 577b 47bd dee3 d8bc ca7b 923c
00000260: b912 12bd 6fe3 3e3d a09b 363b cee5 843c
00000270: c691 a0bc 5213 44bd bfc2 15bd 6068 113b
00000280: 8e02 eebc b376 f9bc 6821 983b 4328 47bd
00000290: be12 db3c 8069 c0bb 4e61 f1bc 1d36 a9bc
000002a0: b4ee 06bc 9810 bf3b 5182 0c3d 895b 48bd
000002b0: 9ad9 f73c 7201 04bd d043 e63b 9060 98bb
000002c0: 2cab 1fbd bbb0 b9bc 88c6 f0bc ef23 3f3d
000002d0: 8788 c5bc b7ad 1d3d 18d3 8dbb 40ee d8bb
000002e0: d07d 02bc c491 5f3c df4e 2abd b6b2 cf3c
000002f0: d3c7 e9bc b4ce 393c fd90 283d 1161 423d
00000300: 5d1c aebc 9791 d0bc b675 26bd 7400 0dbd
00000310: 60ba e4bb 108f 28bb c85c 06bd 36a6 d0bc
00000320: 3528 123d 8e43 25bd d803 b73b f408 473c
00000330: c99a 453d c2c8 953c 364b 2bbd 5d90 293d
00000340: e26a a3bc e475 6ebc d819 e0bb f594 143d
00000350: d617 e53c 4263 f43c f108 203d 4414 0abd
00000360: b676 903c 7089 49bc eaaf 3bbd 48fe af3b
00000370: e623 ef3c 7b7f 25bd 8970 3d3d 806f 41bd
00000380: c441 49bc 40a9 0b3a f800 62bc 7fb0 003d
00000390: 7002 d6bb 8ca3 193c 3cec 4bbc 4653 9e3c
000003a0: 00f6 0f3c 91c5 cebc d42d 343c 049f 0dbd
000003b0: 204c b0bc 12cf c43c 4054 183b f415 713c
000003c0: 9d9e f4bc de24 29bd 336d 36bd b27a d23c
000003d0: 18ee ffbb 9f54 0fbd 9619 fc3c a55c 333d
000003e0: 1a11 be3c baf7 823c 324a b83c 95a8 373d
000003f0: d888 afbc 17a1 1f3d aff8 1d3d 3359 fabc

network.0.bias f4 [120]
-0.047280505 -0.004133003 0.013574173 -0.035110135 0.015392786 -0.027329579 -0.006914079 0.031948425
0.005938614 -0.021221893 0.00047649635 0.023370542 0.03590549 -0.046562243 0.02150152 0.03244819
-0.040916316 0.043051094 -0.015828261 -0.046390682 0.014369424 0.021046184 0.01224333 -0.003704248
0.05163406 -0.041083336 -0.010141804 0.044716705 -0.03507143 -0.022982536 -0.022966292 0.044022717
0.011698339 -0.021228233 0.036567062 -0.023391351 0.019573519 -0.0036885003 0.032842822 -0.0050111525
-0.016598467 -0.030041315 -0.000242225 0.026607014 -0.013851991 -0.014934759 0.015476846 -0.042906012
0.030897906 0.029332737 -0.014815911 0.055060714 0.045460433 -0.026354736 0.055521805 -0.0008472685
0.017889097 -0.0027372325 0.036896244 -0.033791527 -0.020806437 0.04936656 -0.03426247 -0.045578852
-0.03147194 0.010508488 0.02760615 0.02829915 -0.001625138 -0.006430189 0.020965865 -0.012951554
0.045203276 0.05507519 -0.041180026 0.008870162 -0.015000547 0.0120490715 -0.03338182 -0.0052005337
0.040293496 -0.029596716 -0.020085905 0.051634703 -0.018488105 -0.038177587 -0.026992217 -0.004862672
0.00059040793 0.041554425 -0.022291576 0.0055115684 -0.009231732 -0.04233397 -0.02819037 -0.023832543
-0.021903405 0.032120477 0.024644973 -0.007960934 0.030135714 0.036510043 0.038158007 -0.0093854
-0.003492107 -0.053238757 -0.020063603 -0.0035787602 0.0078017144 -0.03042952 0.02017546 0.023978984
-0.025224386 -0.02622268 -0.0055315057 0.022125017 -0.026278725 -0.036944117 0.00367223 -0.053911377
00000000: 34a9 41bd 246e 87bb 3566 5e3c a5cf 0fbd
00000010: 0632 7c3c 48e2 dfbc 808f e2bb 5adc 023d
00000020: b498 c23b 89d9 adbc 42d2 f939 9473 bf3c
00000030: a311 133d 0db8 3ebd f523 b03c 65e8 043d
00000040: de97 27bd 5856 303d 45aa 81bc 2804 3ebd
00000050: bc6d 6b3c 0c69 ac3c 3f98 483c f8c2 72bb
00000060: 3c7e 533d 0047 28bd cf29 26bc dd28 373d
00000070: 0fa7 0fbd df45 bcbc ce23 bcbc 2a51 343d
00000080: 64aa 3f3c d5e6 adbc 58c7 153d 389f bfbc
00000090: a558 a03c c4ba 71bb 3286 063d 9834 a4bb
000000a0: 82f9 87bc 3419 f6bc c7fd 7db9 f4f6 d93c
000000b0: 76f3 62bc ebb0 74bc 9992 7d3c 37be 2fbd
000000c0: 9b1d fd3c 354b f03c 6fbe 72bc 5887 613d
000000d0: b834 3a3d e3e5 d7bc d56a 633d 3a1b 5eba
000000e0: 288c 923c 2463 33bb 8420 173d fc68 0abd
000000f0: 4372 aabc 9734 4a3d ce56 0cbd e4b0 3abd
00000100: b9e8 00bd cb2b 2c3c 4b26 e23c 9ed3 e73c
00000110: 9502 d5ba 56b4 d2bb 9bc0 ab3c c132 54bc
00000120: 1227 393d 8696 613d 63ac 28bd 2854 113c
00000130: dbc4 75bc 7869 453c 60bb 08bd 3d69 aabb
00000140: cb0a 253d d074 f2bc 328b a4bc e97e 533d
00000150: 5e74 97bc 1a60 1cbd c81e ddbc 0d57 9fbb
00000160: 9bc5 1a3a f934 2a3d d39c b6bc 639a b43b
00000170: b140 17bc 6366 2dbd 7eef e6bc 773c c3bc
00000180: c56e b3bc c390 033d 41e4 c93c 946e 02bc
00000190: 2cdf f63c 8e8b 153d 924b 1c3d 39c5 19bc
000001a0: d5db 64bb e210 5abd 6d5c a4bc a289 6abb
000001b0: 86a5 ff3b 5447 f9bc 0247 a53c 936f c43c
000001c0: 5fa3 cebc f2d0 d6bc a241 b5bb 863f b53c
000001d0: 7b46 d7bc b752 17bd cca9 703b 2dd2 5cbd

network.2.weight f4 [84, 120]
0.061743528 0.01951825 -0.08445715 -0.05088499 0.09039405 0.08815752 0.07830634 -0.025005942
-0.021399984 -0.044190556 -0.090887345 -0.008686398 0.056631204 0.07194123 0.08903955 -0.027553659
0.045574963 -0.07824379 0.05967253 -0.051618055 0.07661392 -0.009253693 0.08946655 0.040303737
0.03276475 0.0016209558 0.03657158 0.04445519 -0.06534775 0.020175625 0.023412384 -0.08680912
-0.06489418 0.08453374 0.07877176 -0.04318424 0.07660541 -0.04348147 0.05449323 -0.016952652
-0.07156975 -0.017755903 0.04161969 -0.013239935 0.06010481 0.027382558 -0.019405326 -0.07155267
0.010552673 0.007389804 0.07514923 -0.09710511 0.006923049 -0.06510357 -0.057593532 0.014478067
-0.07779218 -0.050241567 -0.07265115 0.0048496323 -0.011603761 0.09477752 -0.051695958 -0.06850365
0.054297045 0.028844392 0.013660913 -0.06263426 0.048750505 -0.024324201 0.036851212 0.02265954
-0.031100875 -0.00010160094 -0.03644671 0.02388805 0.022933349 0.032353103 -0.031926118 -0.015460059
-0.08256293 0.04294464 -0.020575836 0.07045159 -0.03665725 0.017759405 -0.101369135 0.026591696
0.011080263 -0.07428025 -0.07365417 0.002301231 0.07199014 0.05843332 0.045499895 0.032419536
-0.05065873 0.042575207 0.006521657 0.015007976 0.017521728 -0.013171255 0.07977336 0.051943302
-0.07069166 0.06605205 0.026958317 -0.08395158 -0.061843462 0.06666872 0.06276627 -0.013510551
-0.05004268 -0.0012065135 0.07146673 -0.05218541 0.08111358 -0.07214167 0.013179723 0.09042771
-0.073862046 -0.03166574 0.07568203 -0.07738366 0.041288164 0.07969228 0.070672005 0.050739214
-0.06351734 0.037126884 -0.058767755 0.07335444 -0.08515021 0.06502662 0.07443158 0.06675061
0.026308984 0.06151535 0.072632894 -0.08085258 0.0374583 0.0839266 0.019464722 0.056157023
0.08546718 -0.06574699 0.030093793 -0.07759028 0.024127262 -0.011497357 0.084811404 -0.0071453135
0.06069163 0.041274115 -0.010351372 0.036383823 -0.08812222 0.02395907 -0.07979776 -0.0042648762
0.029649809 0.037155405 0.04418302 0.08470298 0.07460407 0.0041420525 -0.019385854 0.053460658
-0.095289744 -0.07748476 -0.028244289 -0.05373407 0.050876968 -0.09088194 0.06940318 -0.07922798
0.032754004 0.056987807 -0.02845607 -0.062669635 -0.095882356 0.081331044 -0.08457302 -0.041847333
-0.09054282 -0.09280975 0.008931992 0.0012447038 -0.0003497526 -0.010574949 -0.06311403 0.044621408
0.061837677 0.051400334 -0.049074497 0.008073459 0.050369278 -0.074458905 0.070709646 -0.01923512
-0.040307317 -0.072360694 -0.084958255 0.031547613 0.03351536 0.08270632 0.0363762 0.004341811
-0.0011945593 0.0926603 0.04464872 0.072095454 0.037902616 0.015880262 -0.07582991 -0.049339116
0.008810058 0.041311573 -0.039517254 0.0652872 0.09270262 -0.062126108 0.058619153 0.030420125
-0.050005518 -0.047580447 0.04007715 0.008081719 0.07119061 0.006408848 -0.038357638 0.03257857
-0.023068242 -0.017188516 -0.0020799441 0.0069003836 0.012846172 -0.05362626 -0.059441116 -0.027833387
-0.0066427514 0.07973893 0.0090026185 0.024809487 0.023796007 0.067132056 -0.01622416 -0.021437764
0.056304187 -0.08783886 -0.06788702 0.053410526 -0.024363711 0.08285622 -0.0060713813 -0.06925907
00000000: c8e6 7c3d bde4 9f3c dff7 acbd c76c 50bd
00000010: 8420 b93d ee8b b43d 135f a03d 43d9 ccbc
00000020: 054f afbc 2801 35bd 2523 babd 6551 0ebc
00000030: 1ff6 673d ec55 933d 5e5a b63d 36b8 e1bc
00000040: d0ac 3a3d 483e a0bd 2f6b 743d 746d 53bd
00000050: c2e7 9c3d cd9c 17bc 3d3a b73d 8815 253d
00000060: 5534 063d 4076 d43a 15cc 153d a516 363d
00000070: 0bd5 85bd 5a47 a53c 54cb bf3c fbc8 b1bd
00000080: 3de7 84bd 0720 ad3d 1753 a13d f5e1 30bd
00000090: 4ce3 9c3d a019 32bd 4b34 5f3d 4ae0 8abc
000000a0: 2993 92bd d474 91bc 6879 2a3d 50ec 58bc
000000b0: 7630 763d 6351 e03c ebf7 9ebc 358a 92bd
000000c0: 1ee5 2c3c 2b26 f23b d7e7 993d 0bdf c6bd
000000d0: bfda e23b 0555 85bd 32e7 6bbd 6a35 6d3c
000000e0: 8251 9fbd 1aca 4dbd 20ca 94bd aae9 9e3b
000000f0: b41d 3ebc b71a c23d 24bf 53bd a44b 8cbd
00000100: 9466 5e3d 134b ec3c 06d2 5f3c 6446 80bd
00000110: 9cae 473d 8c43 c7bc 4cf1 163d 80a0 b93c
00000120: 43c7 febc 9712 d5b8 2549 15bd dfb0 c33c
00000130: b8de bb3c b084 043d f6c4 02bd 304c 7dbc
00000140: c116 a9bd b8e6 2f3d a88e a8bc ec48 903d
00000150: ea25 16bd 2c7c 913c 9f9a cfbd d4d6 d93c
00000160: fe89 353c 3e20 98bd ffd7 96bd 40d0 163b
00000170: 916f 933d c757 6f3d 195e 3a3d 59ca 043d
00000180: 877f 4fbd 5763 2e3d a0b3 d53b 04e4 753c
00000190: ba89 8f3c 3fcc 57bc 3760 a33d 80c2 543d
000001a0: cac6 90bd 4c46 873d b0d7 dc3c ceee abbd
000001b0: 924f 7dbd 9c89 883d 9a8b 803d 5c5b 5dbc
000001c0: 8ef9 4cbd e023 9eba 265d 923d 5ec0 55bd
000001d0: e01e a63d 03bf 93bd c4ef 573c 2a32 b93d
000001e0: fc44 97bd efb3 01bd 2eff 9a3d 537b 9ebd
000001f0: c71d 293d b535 a33d 7cbc 903d ecd3 4f3d
00000200: 6115 82bd 5c12 183d 75b6 70bd da3a 963d
00000210: 3c63 aebd ad2c 853d 966f 983d 8bb4 883d
00000220: f085 d73c 85f7 7b3d 8ec0 943d 0a96 a5bd
00000230: e06d 193d b6e1 ab3d 7b74 9f3c e804 663d
00000240: 6b09 af3d 5ca6 86bd 4287 f63c a7e7 9ebd
00000250: 89a6 c53c 695f 3cbc 9ab1 ad3d 3c23 eabb
00000260: c997 783d 0c0f 293d cd98 29bc 3407 153d
00000270: 6c79 b4bd d045 c43c 026d a3bd 60c0 8bbb
00000280: 28e4 f23c 4430 183d 41f9 343d c278 ad3d
00000290: 05ca 983d 0eba 873b 15cf 9ebc 90f9 5a3d
000002a0: 4527 c3bd 54b0 9ebd 9160 e7bc 4218 5cbd
000002b0: 5e64 503d 5020 babd 4123 8e3d 4742 a2bd
000002c0: 1029 063d 0c6c 693d b41c e9bc f058 80bd
000002d0: f85d c4bd e490 a63d 9f34 adbd 1c68 2bbd
000002e0: 846e b9bd 0a13 bebd 7d57 123c 5425 a33a
000002f0: 005f b7b9 8d42 2dbc ee41 81bd f0c4 363d
00000300: 8149 7d3d 2889 523d 5702 49bd 8b46 043c
00000310: 0450 4e3d e97d 98bd 38d0 903d f892 9dbc
00000320: 4919 25bd d831 94bd 98fe adbd 1238 013d
00000330: 6747 093d ee61 a93d 36ff 143d c045 8e3b
00000340: c292 9cba afc4 bd3d 94e1 363d c8a6 933d
00000350: c63f 1b3d 5317 823c b64c 9bbd d017 4abd
00000360: 1058 103c 5336 293d d8dc 21bd 4cb5 853d
00000370: dfda bd3d f277 7ebd a31a 703d a033 f93c
00000380: 96d2 4cbd b7e3 42bd f027 243d 3069 043c
00000390: 62cc 913d 5001 d23b e61c 1dbd 1b71 053d
000003a0: 9cf9 bcbc eece 8cbc ac4f 08bb 9d1c e23b
000003b0: c078 523c 36a7 5bbd 8778 73bd d802 e4bc
000003c0: 70ab d9bb 2a4e a33d b87f 133c 443d cb3c
000003d0: d8ef c23c 887c 893d 88e8 84bc 409e afbc
000003e0: 389f 663d dce4 b3bd 5a08 8bbd ffc4 5a3d
000003f0: 6896 c7bc 86b0 a93d 70f2 c6bb b3d7 8dbd

network.2.bias f4 [84]
-0.058329873 -0.08917243 -0.046651922 -0.03540705 -0.049264263 0.07575603 0.03233983 0.015709128
-0.046350446 -0.037838455 -0.060665604 -0.062130064 0.09760459 -0.034983482 0.0063008666 -0.05637222
0.04652882 -0.06074328 -0.082644165 -0.018347286 0.10760017 0.012878923 0.037825007 -0.09744662
-0.060090367 0.018901775 0.029500363 0.07549794 0.054006968 -0.055356454 -0.04552 -0.059274856
-0.00684465 -0.082384005 -0.007452377 -0.015938457 0.010455798 -0.023480112 0.042696763 0.013901553
-0.039685983 -0.02094893 0.04759303 -0.084234975 0.09057438 0.034134366 -0.08324863 -0.047252107
0.04127948 0.10187146 -0.080341555 -0.030072462 -0.056749955 -0.0828027 -0.029109843 0.070766486
-0.070823714 -0.042133838 0.043861832 -0.07305959 0.07707083 -0.012698882 0.024375051 -0.0551262
-0.015246481 0.069703855 -0.0119739175 0.0578313 -0.005831681 0.014753122 -0.0840001 0.06426548
-0.08250128 -0.038453914 -0.008478463 -0.0935579 0.05258261 -0.032784782 0.044581253 -0.029931419
-0.013050064 -0.03819497 0.02440381 -0.064267136
00000000: 4eeb 6ebd 09a0 b6bd 1616 3fbd fc06 11bd
00000010: 53c9 49bd fa25 9b3d c576 043d 6eb0 803c
00000020: f7d9 3dbd 7ffc 1abd 7f7c 78bd 187c 7ebd
00000030: eae4 c73d d74a 0fbd 8077 ce3b 8fe6 66bd
00000040: 0195 3e3d f2cd 78bd 5841 a9bd 0c4d 96bc
00000050: 7a5d dc3d 1e02 533c 65ee 1a3d 1892 c7bd
00000060: 5121 76bd e5d7 9a3c bfaa f13c aa9e 9a3d
00000070: 6936 5d3d 73bd 62bd 2e73 3abd 31ca 72bd
00000080: 1649 e0bb f2b8 a8bd 1233 f4bb 5e91 82bc
00000090: cc4e 2b3c 5d59 c0bc cde2 2e3d 57c3 633c
000000a0: c58d 22bd 179d abbc e9f0 423d 6383 acbd
000000b0: 0f7f b93d 7ad0 0b3d 427e aabd 6d8b 41bd
000000c0: ac14 293d fca1 d03d 1d8a a4bd 865a f6bc
000000d0: a472 68bd 7694 a9bd c477 eebc 05ee 903d
000000e0: 060c 91bd 8894 2cbd 77a8 333d 44a0 95bd
000000f0: 50d7 9d3d f90e 50bc 30ae c73c 03cc 61bd
00000100: 60cc 79bc e5c0 8e3d 402e 44bc 83e0 6c3d
00000110: b017 bfbb 14b7 713c 3f08 acbd 9f9d 833d
00000120: 6ef6 a8bd da81 1dbd 40e9 0abc 499b bfbd
00000130: dd60 573d 5649 06bd d59a 363d bc32 f5bc
00000140: f0cf 55bc 5472 1cbd 80ea c73c 7d9e 83bd

network.4.weight f4 [21, 84]
0.1059739 -0.03282193 0.10253533 0.05678776 -0.08871913 0.07445628 0.05224969 0.0018748102
-0.012596019 0.068053775 -0.032039404 -0.10890516 -0.0006995079 0.09201696 -0.098669335 -0.057854764
-0.11209336 0.011912629 -0.08714601 0.05745 -0.040867437 -0.011699055 -0.00133694 0.056387417
-0.07650578 0.053233184 -0.07905237 0.0011595569 0.01922359 0.025919026 0.0097001195 -0.0841804
-0.046200324 0.08269907 0.009122096 0.058311563 0.077048264 0.06426974 -0.00493 0.017789356
0.05241616 -0.009894752 -0.038949892 0.07881606 -0.10997639 0.0484161 -0.04952865 -0.0045498013
0.02498764 -0.001968645 0.023493148 0.017168514 -0.10183791 -0.036804236 -0.08754652 0.10319906
0.088380136 0.06570377 -0.029882487 -0.07826126 -0.003844136 0.005715108 -0.08169944 0.010417134
-0.03525838 -0.11224099 0.020506319 0.04905304 -0.016206756 0.05585437 -0.016085781 -0.059092354
0.050307337 -0.10074417 -0.08675606 -0.070756204 0.082662754 0.10640778 0.08120469 0.013305238
-0.0632481 0.06659717 -0.08199561 0.038541324 0.079411864 -0.08084393 -0.06305835 0.007724551
0.031496357 -0.10489516 0.07554733 0.03291782 0.0701452 0.05152633 -0.03542438 -0.02369614
0.0785108 -0.087154664 -0.03701066 -0.067847595 -0.028989272 0.017843163 -0.07911202 -0.002565679
0.07086404 0.018681772 -0.03325946 -0.018114038 -0.026837401 0.100029774 -0.05976898 -0.038219683
0.056859966 -0.0405983 0.07367388 -0.018987052 -0.08612896 0.07239457 -0.11808582 0.09883182
-0.034018107 -0.026653126 -0.0024210697 0.105616875 0.01054465 -0.083806306 -0.07630414 -0.048919432
-0.14014344 -0.09966005 -0.02251996 0.090600885 -0.077444695 0.011266265 -0.014499418 -0.048430514
0.024850108 0.04126493 0.032167196 0.055271365 0.044327013 0.04898057 0.06585935 0.05935801
-0.1237058 0.10684174 -0.069415845 -0.02771753 -0.09293733 -0.12536946 0.06230786 0.0014216313
0.10875238 -0.045594566 -0.022925384 0.04387845 -0.07977523 0.034900703 0.050984047 0.07427958
0.032170445 0.06062997 -0.116657265 -0.071719974 -0.008537218 -0.015677355 -0.0067673763 0.016616635
-0.07366298 -0.07499092 -0.017062426 -0.04416637 -0.0157289 -0.032547157 -0.01475548 -0.0153621975
-0.05705672 -0.0009159148 -0.022043586 -0.05052368 -0.05418569 0.005936913 -0.029750602 0.075181216
0.110101245 0.08932378 -0.03643145 -0.022550818 0.05615419 0.04678037 0.045186076 0.021071918
0.07449389 -0.023518 -0.0074440045 -0.08650829 0.08236754 0.058107004 0.025039338 -0.06977178
0.08558768 0.04009772 -0.07634444 -0.043275375 -0.07986267 -0.056591075 0.027228419 -0.07157602
0.03503365 0.020837363 0.051954802 -0.06096295 0.04896284 0.08655083 0.07550773 0.026463412
0.062105432 0.06355327 -0.0030858368 0.0825838 -0.027623331 0.07294112 -0.033100445 0.04053356
-0.053171005 -0.033939973 -0.06603249 -0.0996081 0.061904337 0.018550498 -0.086095124 -0.084561564
0.0022729468 -0.1016067 0.099328525 0.02837975 -0.094197094 0.014472836 -0.08664715 -0.018571645
-0.035849947 0.029542439 -0.09348521 -0.025896994 0.0442627 0.078938 0.005350744 0.09550685
-0.062685445 -0.043981574 0.090160355 0.10525928 -0.0512024 -0.09890581 0.10870632 -0.10491723
00000000: d808 d93d 4a70 06bd 0bfe d13d 489a 683d
00000010: 60b2 b5bd 897c 983d c503 563d 31bc f53a
00000020: 885f 4ebc c75f 8b3d c03b 03bd ab09 dfbd
00000030: 2e5f 37ba 6373 bc3d 2613 cabd 1ef9 6cbd
00000040: 3491 e5bd 302d 433c 9b79 b2bd b150 6b3d
00000050: 9d64 27bd 65ad 3fbc 433c afba 7ef6 663d
00000060: 10af 9cbd 0a0b 5a3d 35e6 a1bd 46fc 973a
00000070: ca7a 9d3c 2354 d43c 40ed 1e3c c666 acbd
00000080: 8d3c 3dbd 215e a93d d874 153c 1bd8 6e3d
00000090: 7bcb 9d3d da9f 833d d68b a1bb fcba 913c
000000a0: 54b2 563d 991d 22bc ec89 1fbd 516a a13d
000000b0: 4d3b e1bd f64f 463d 8ede 4abd 8016 95bb
000000c0: e1b2 cc3c 6204 01bb b474 c03c fca4 8c3c
000000d0: 6590 d0bd 0ac0 16bd 974b b3bd 075a d33d
000000e0: a500 b53d b38f 863d 1ecc f4bc 7147 a0bd
000000f0: e6ed 7bbb cd45 bb3b 0952 a7bd a0ac 2a3c
00000100: 176b 10bd 9bde e5bd defc a73c d7eb 483d
00000110: 08c4 84bc 8dc7 643d 54c6 83bc d30a 72bd
00000120: 110f 4e3d f652 cebd 29ad b1bd a1e8 90bd
00000130: 174b a93d 52ec d93d a54e a63d 37fe 593c
00000140: 3888 81bd 1964 883d 50ed a7bd 82dd 1d3d
00000150: b0a2 a23d 8191 a5bd bc24 81bd 3b1e fd3b
00000160: 5302 013d 46d3 d6bd 8fb8 9a3d d6d4 063d
00000170: 49a8 8f3d 460d 533d 2819 11bd 681e c2bc
00000180: 45ca a03d 257e b2bd 7d98 17bd aef3 8abd
00000190: e97a edbc d32b 923c 7c05 a2bd f324 28bb
000001a0: 2a21 913d 840a 993c 123b 08bd e463 94bc
000001b0: 1cda dbbc 69dc cc3d 51d0 74bd 3e8c 1cbd
000001c0: ffe5 683d 674a 26bd 55e2 963d bc8a 9bbc
000001d0: 6164 b0bd 9b43 943d fad6 f1bd 5668 ca3d
000001e0: 9256 0bbd a857 dabc cfaa 1ebb a94d d83d
000001f0: 78c3 2c3c a4a2 abbd 5845 9cbd be5f 48bd
00000200: c381 0fbe 911a ccbd c77b b8bc f58c b93d
00000210: 539b 9ebd 2496 383c f88e 6dbc 135f 46bd
00000220: 7492 cb3c 6a05 293d c0c1 033d 3a64 623d
00000230: 3e90 353d da9f 483d 44e1 863d 6221 733d
00000240: 7759 fdbd d8cf da3d e529 8ebd e00f e3bc
00000250: ed55 bebd da60 00be 8736 7f3d 0856 ba3a
00000260: 91b9 de3d 5ec1 3abd 04ce bbbc e4b9 333d
00000270: 3261 a3bd 0af4 0e3d a6d4 503d e41f 983d
00000280: 28c5 033d 2257 783d 01ea eebd ece1 92bd
00000290: b0df 0bbc cc6d 80bc dec0 ddbb 9c1f 883c
000002a0: 9edc 96bd d794 99bd 80c6 8bbc cce7 34bd
000002b0: e5d9 80bc 2b50 05bd f8c0 71bc bab1 7bbc
000002c0: 4fb4 69bd 001a 70ba c094 b4bc ebf1 4ebd
000002d0: d0f1 5dbd 708a c23b 89b7 f3bc 9cf8 993d
000002e0: c37c e13d 63ef b63d 2539 15bd 7ebc b8bc
000002f0: f001 663d c69c 3f3d 0915 393d 049f ac3c
00000300: 4190 983d d2a8 c0bc d6ec f3bb 422b b1bd
00000310: 50b0 a83d 9c01 6e3d 4c1f cd3c 82e4 8ebd
00000320: 9848 af3d 823d 243d 795a 9cbd 8541 31bd
00000330: 0a8f a3bd 0bcc 67bd 220e df3c 7396 92bd
00000340: 727f 0f3d 1eb3 aa3c 8fce 543d 49b4 79bd
00000350: 428d 483d 9041 b13d cca3 9a3d ccc9 d83c
00000360: 4462 7e3d 3828 823d c03b 4abb b221 a93d
00000370: 534a e2bc 2762 953d 5594 07bd 8506 263d
00000380: d7c9 59bd a404 0bbd 0b3c 87bd 55ff cbbd
00000390: 678f 7d3d 37f7 973c a452 b0bd 9d2e adbd
000003a0: b8f5 143b 2c17 d0bd c16c cb3d a67c e83c
000003b0: 68ea c0bd 791f 6d3c 1074 b1bd 9023 98bc
000003c0: 65d7 12bd fc02 f23c 2c75 bfbd ef25 d4bc
000003d0: ce4c 353d 3faa a13d 4b55 af3b 1899 c33d
000003e0: 3a61 80bd 0626 34bd fea5 b83d 2d92 d73d
000003f0: 9cb9 51bd 218f cabd 6ba1 de3d d8de d6bd

network.4.bias f4 [21]
0.031292427 0.03418782 -0.013269195 0.05695059 0.03438495 0.012637593 -0.01770541 -0.010123412
-0.04290466 0.01877255 0.025857821 0.029277172 -0.014386076 0.032187004 -0.040273327 -0.057337116
-0.04196184 -0.07191762 -0.0016129587 -0.033319253 0.04208488
00000000: 7d2c 003d 8708 0c3d 0a67 59bc 0645 693d
00000010: 3cd7 0c3d e80d 4f3c f00a 91bc abdc 25bc
00000020: ccbc 2fbd e4c8 993c c8d3 d33c aed6 ef3c
00000030: 93b3 6bbc 85d6 033d a5f5 24bd 53da 6abd
00000040: 2ee0 2bbd 8c49 93bd ea69 d3ba c579 08bd
00000050: 3261 2c3d
